pytorch-DS-051/rackhun/2_A3C_pendulum/gradient_base/saved_model/A2C_ACTOR.pth (torch_old, 38758 bytes, 24 tensors)

fc1.weight f4 [64, 3]
00000000: 0e15 903e 207b e93e c99a 8bbe 3ad4 65be
00000010: dc87 10bf f81d cfbd 062c 4dbe b254 b93e
00000020: d626 a03e 7bd3 ff3e 9b5e f9bd 23f6 0dbd
00000030: d47f 183d ff07 adbe 3f44 963e 5744 2ebd
00000040: ac65 223e f1b4 24bd da98 b8be a6f8 c33e
00000050: e28e 003f 2b8e 5b3d ef55 eabe 09da c13d
00000060: b261 123f 828f 53bc 1163 08bf b2d4 003f
00000070: cf64 b2be d175 dc3e d622 c03e 60c8 863e
00000080: f4b8 083f e696 103f c6b2 c0bb 71ed d2be
00000090: 772b e8be 79aa c8be be1b bfbe 7c2b 0bbf
000000a0: 7249 5abe 94ce fc3e d65e e1bc 2af9 47be
000000b0: ff16 7dbe ad37 dcbe d725 66be d281 0ebf
000000c0: 915c a7be 52ed 09bf 0140 963e 276f a73e
000000d0: 2165 103e 6348 f7be b58c f83e b1be 743e
000000e0: c16f b3be 4baf c33e 3ff2 e1be dbfe 0f3e
000000f0: 205d 943e a25c 06bf 7032 103f e75c a1be
00000100: d610 0b3f c4dd 023e 7ddb bfbe e581 fbbe
00000110: 9e0a 5bbe 8579 b23e e005 b0bd e35c 99bd
00000120: 3b9e b83e 2f79 debe e227 0ebf dfb9 833e
00000130: 1ed3 e3be b821 633e 61b0 b1bd 8008 bb3e
00000140: e63b ecbe 64a9 0c3f 0745 bbbd 3185 d63e
00000150: bfe3 1d3d 46bc d83e 20df f0be db46 673e
00000160: 152f a5be 5fa7 9bbe 3ea0 833e 1c4b 193e
00000170: 2acd a13e 8f2b 0d3f d2ec ca3e fa92 89bd
00000180: 6808 073f 3f37 ca3e b9ec e0bd a16c 0b3f
00000190: c71a 84be 1238 d5be eebd 763e d9dd f5be
000001a0: 3aaf b0bd efa1 01bf 2d21 1e3e b045 13bf
000001b0: 738a 7c3e 93aa 00bf 52a1 a53c e8f9 bf3d
000001c0: 1959 d1be 6060 413d 1ccb 9e3e 57f4 d8be
000001d0: f53e a7be f445 5dbe bcac 6cbe bc95 4d3e
000001e0: 8719 0d3f a9fa 2b3e 94d8 d9be 89cf f7be
000001f0: 701a d2be 6651 c93e de33 ce3e e4a8 033f
00000200: 8369 6bbd 256e 27bc 942e 503d 4bd7 933d
00000210: a563 b8be e45e 95bd 5c0a d9be e4b4 443e
00000220: bc56 ddbd 8826 bd3d 2376 023f 2bf6 883e
00000230: 40bb 3dbe 0416 143e a80c 953d b072 e63d
00000240: 8869 f03e 3488 153e 143e ac3e 46ee 8a3e
00000250: e978 49be 77d0 c1be aaea dd3e 63ee cebe
00000260: 92fb fbbe 688c 9ebd 0f56 c6be 089a e83d
00000270: 8a1e 13bf 617d 20be fc36 69bd 206e 55bd
00000280: 6c4b 123f 0cf7 8d3e 16b3 133f 4835 ae3e
00000290: 1da0 323e 0644 bbbe 7c7f 043f 8604 2dbe
000002a0: 6213 c33e 2069 f73e 69ef 0bbf 82a1 0bbe
000002b0: c0dc ac3e c476 0a3f 9713 a1be 80b7 e53b
000002c0: 60be 903e c201 003f d9f6 ca3e a876 bbbe
000002d0: 1658 2d3e d6fa ddbd 0d87 96be 61d0 b0bd
000002e0: eb0f c03b c0ae 01bf ca2d fbbe 80a1 f1bc
000002f0: 3eaa d63e 2d00 02be 4f1e 28be 515a c4be
0.28141063 0.4560175 -0.2726653 -0.2244424 -0.56457305 -0.10113138 -0.20036325 0.3619743
0.3127963 0.49966034 -0.12176248 -0.034658562 0.03723128 -0.33795163 0.29348943 -0.042545643
0.15859097 -0.04021162 -0.36054116 0.3827564 0.5021802 0.05360238 -0.45768687 0.09465415
0.5718032 -0.012912633 -0.53276163 0.5032455 -0.34842536 0.43058637 0.37526578 0.2632475
0.53407216 0.5648025 -0.0058806865 -0.41196778 -0.4534566 -0.3919256 -0.37325853 -0.54363227
-0.2131708 0.49376357 -0.027511042 -0.19528642 -0.24715804 -0.43011227 -0.22475372 -0.5566684
-0.3268781 -0.5387775 0.29345706 0.3270199 0.14101078 -0.48297414 0.4854485 0.23900868
-0.350462 0.38219675 -0.44130132 0.14062063 0.289773 -0.52485096 0.5632696 -0.3151619
0.54322565 0.1277991 -0.37472144 -0.4912254 -0.21390769 0.34858337 -0.085948706 -0.0748842
0.3605822 -0.4345183 -0.55529606 0.25727746 -0.44497007 0.22180831 -0.0867622 0.36529922
-0.4613945 0.5494597 -0.09144025 0.41898492 0.038547274 0.4233114 -0.4704523 0.22585623
-0.32262483 -0.30401132 0.25708193 0.14970058 0.3160184 0.5514459 0.39633805 -0.06717487
0.527472 0.39495274 -0.10982651 0.5446263 -0.2580168 -0.4164434 0.2409589 -0.4802082
-0.08627172 -0.50637716 0.15442343 -0.5752821 0.24662189 -0.50260276 0.020218525 0.09373838
-0.4088829 0.04721105 0.31014335 -0.42373917 -0.3266522 -0.21608716 -0.23112768 0.2007665
0.55117077 0.16794838 -0.42548048 -0.48400524 -0.41035795 0.39319915 0.40273947 0.5142958
-0.05747367 -0.010219132 0.05082567 0.07218798 -0.36013523 -0.072934896 -0.42390716 0.1920963
-0.10807559 0.09235865 0.5096151 0.2675031 -0.18528461 0.14461523 0.072778046 0.11252344
0.46955514 0.14602739 0.33641112 0.27134913 -0.1967503 -0.3785436 0.43343097 -0.4041625
-0.4921537 -0.07741624 -0.38737532 0.11357504 -0.57468474 -0.15672828 -0.056937203 -0.052106977
0.57146335 0.27727544 0.5769514 0.34025025 0.17443891 -0.36575335 0.51757026 -0.16896257
0.38100725 0.48322392 -0.54662186 -0.13635829 0.3376217 0.5408747 -0.31460258 0.0070104003
0.28270245 0.5000268 0.39641455 -0.36613965 0.16928133 -0.10838859 -0.2939991 -0.08633495
0.0058612726 -0.5065727 -0.49058372 -0.029495955 0.4192676 -0.1269538 -0.16417812 -0.38350156

fc1.bias f4 [64]
00000000: 5eb2 683e 7ffa c3be 90df 20bd 8b21 cdbe
00000010: f28c d03d fb9a 4a3e a661 033f 276d 4ebb
00000020: f601 883e 9de0 7fbd b85e d63d 9377 be3e
00000030: cde0 c93e ec4f ae3e ca4f 033f f497 08be
00000040: c832 113f 4f9e 323d 5e91 e13c 00f4 e2bd
00000050: 54cc bcbd d1cf 133f 6b76 0e3f 0d7e 603e
00000060: e58c 0dbf 327b 00bc 27cf fbbd e6da d53c
00000070: fada e83d 9759 ffbe 8e0f b5be 1fb6 ba3e
00000080: 9c58 d4be 631f b2be 8b62 debe 9b51 65be
00000090: a946 c5bc f67e d5be 217c 9e3e 74c4 693e
000000a0: 7628 af3d 70af 723e 9b5f aabe fa88 033f
000000b0: 911e ba3d e256 22be 9961 14be 2f56 e9be
000000c0: 15d4 f8be 963a 01bf c6cb d43e 3e76 d2be
000000d0: 5881 c1bd 4a3f 4bbe 53f5 543e ed07 b2bd
000000e0: 135f 143e 14d5 e73e c0c7 e53e 89dd 54be
000000f0: 3503 07bf ca8a dcbe b479 c6be f3d7 fd3e
0.22724292 -0.3827705 -0.039275706 -0.40064654 0.10183133 0.19785683 0.51320875 -0.0031498165
0.26563996 -0.062470067 0.10467285 0.37200603 0.39429322 0.3404535 0.51293623 -0.13339216
0.5671811 0.043608006 0.027535137 -0.110816956 -0.0921866 0.5773898 0.5564944 0.21923085
-0.55293113 -0.007841872 -0.122953705 0.026105355 0.113698915 -0.4987304 -0.3536343 0.36467072
-0.41473854 -0.3478957 -0.43434557 -0.22394411 -0.024081545 -0.41698426 0.30954078 0.22828847
0.08552639 0.23699737 -0.33276066 0.51380885 0.09087861 -0.15853456 -0.14490356 -0.45573565
-0.48599306 -0.5048002 0.41561717 -0.41105837 -0.094484985 -0.19848362 0.20796709 -0.08692918
0.14489393 0.45279753 0.4487896 -0.20787634 -0.5273927 -0.43074638 -0.38764727 0.4957882

fc2.weight f4 [32, 64]
00000000: b155 e2bd 6fa9 ac3d 3069 9d3d 7686 16bd
00000010: 5188 393d 07f7 1c3d e6ea c03d bad0 02bd
00000020: 3e06 0bbd 7be4 123d 3450 443d 83e7 063d
00000030: 2399 503d 807c aeba f8f0 39bd 39a0 1fbd
00000040: d9d4 dfbd 9345 c8bd d5ff 073d 8e00 6bbd
00000050: f8d8 5abd 1848 62bd b410 863d 8497 dfbd
00000060: e26b fc3b 9186 cbbd 2ce1 9c3c c438 f33d
00000070: 1ff5 a0bd af18 e6bd 1006 08bd 9c45 ff3d
00000080: 66fe 81bd 081a 9dbc 1385 e1bc e966 853d
00000090: b70b d13d 80b1 d33a 2223 cc3d ac6b a13c
000000a0: 1b53 bebd 1ca0 643d 023e 073d d946 c4bd
000000b0: 6b43 35bd 20d8 a7bb 7966 b33d b0e3 35bc
000000c0: 28e3 4c3d c06b 933d b85c b43d 40b4 77bb
000000d0: 5d31 933d 18f5 d23d fc86 24bd 1b99 793d
000000e0: 6be0 243d 8c04 da3d 601e 9b3b b5b0 b03c
000000f0: 3197 fcbd 0648 0c3d 50ab af3c afd4 b63d
00000100: 84e9 ac3d 7c15 a13d 2042 3b3c 907a 503d
00000110: e446 b9bd d23b c2bd ccc2 263d 189d 1d3d
00000120: 20cf 9cbd c00a 95bc 2c82 0d3d 7005 6dbd
00000130: 60a9 2b3c 58b8 f6bc 80c1 d0bd baa8 873d
00000140: 043b 0dbd d019 6a3c 94cb fbbd a05d a03b
00000150: baef 8b3d 2a37 c03d d886 bdbd eeec f6bd
00000160: d8cd a2bc 74e9 5bbd eccf e63d f63e b0bd
00000170: 468f 9dbd 1811 94bc 148a 05bd de72 90bd
00000180: b626 91bd c0f3 f1bc bcd8 aa3d e0a6 df3c
00000190: 0012 623c 3437 ea3d 6068 b3bd 5851 81bd
000001a0: 7652 b7bd ee8c a9bd 1c7a 073d f03d 753d
000001b0: 6cb5 f13d c831 9e3c d210 993d 40b2 5dbc
000001c0: 087c c3bd 00d3 153d b8ec be3c 90a4 0abc
000001d0: 30cb ebbd 5639 c73d a8f0 893c 7060 6d3c
000001e0: d227 eebd dc51 a3bd c6ef cb3d 00cf 243b
000001f0: a414 dbbd 90d9 473d 20d1 063c 70d5 99bc
00000200: 15ec bdbc 52a4 ad3d c4ae 81bd bf2d 9cbd
00000210: 91b3 3c3d 9aa9 51bc d04b f2bd a96c 98bd
00000220: 1b5c 8d3d 7991 583d 8c88 b13d 4790 bb3d
00000230: 6db5 bebd f45f aabd 3044 7e3d 448d 823d
00000240: b23e cbbc 9b83 d43d 81a5 983d c8c3 b9bd
00000250: 36e5 cb3d 19b8 efbd d325 90bc 2095 2abd
00000260: da9d b33d eee2 833d da61 993d c656 a33b
00000270: 2910 ae3c e27c a03d 6c50 513d 2c18 413d
00000280: 3106 84bb 6355 e43d a261 bb3d 57e9 4ebc
00000290: 48e7 babd d0c9 87bd 2e5a e43b a28e 40bd
000002a0: cb7c df3d e08f 20bc e47e 143d 73f8 eb3d
000002b0: ffe3 a93d 8eba aabd cdf0 c4bc 7e1f a6bd
000002c0: 1489 5cbd 1199 733d b342 b2bc 5078 293c
000002d0: b209 bd3c 4c92 9d3d 3aa2 293c 1bd4 26bd
000002e0: 2bbe e7bd 00a0 5338 f0d2 513d 0c6b babd
000002f0: 059d 2ebd b598 b43d b2d0 a3bd 3be4 f3bd
00000300: 5867 623d 8058 b1ba c851 00bd f294 f6bd
00000310: b037 c53c 6480 98bd 4e85 ad3d d23b f83d
00000320: 783a d53c c864 de3c 7471 c2bd 00d6 d5ba
00000330: 20a3 553c dc3b 0cbd 7031 fcbc 54c3 bc3d
00000340: c294 d23d 90c6 993c 8edc efbd 90da 1bbc
00000350: a686 af3d 4e39 87bd c22e a1bd dec1 95bd
00000360: 74e7 793d e03b c53c 686d 663d 340c e93d
00000370: 3013 983c 0a33 8a3d 58d2 e33c d0cb c83d
00000380: cce0 2b3d e0e8 aebd 60c1 35bd 8096 55bb
00000390: 4e22 f53d 701c 2ebc 865c 96bd 6c98 873d
000003a0: d4b4 d0bd c0f9 3cbb 6c0b c23d ea69 f83d
000003b0: 1832 9e3d 7667 f4bd f074 a2bd 482a 94bc
000003c0: a875 b7bd 4e4c c0bd 824d f2bd 1498 433d
000003d0: 305e 603c a2f8 e9bd 2a38 d4bd 18c2 6cbd
000003e0: 3016 143d 4479 4ebd 5eec e43d 3484 e1bd
000003f0: f8f2 e5bc f263 aabd 0841 fabc 38eb ffbc
-0.110515006 0.084307544 0.076860785 -0.036749326 0.045296017 0.03832152 0.09419803 -0.03193734
-0.0339415 0.035862427 0.04792805 0.03293563 0.050927293 -0.001331225 -0.04539582 -0.03897116
-0.10929269 -0.09778895 0.033202965 -0.057373576 -0.053429574 -0.055244535 0.065461546 -0.10917571
0.0077032903 -0.09937776 0.019150339 0.118760616 -0.07859253 -0.11235177 -0.033208907 0.12464449
-0.06347351 -0.019177452 -0.027529275 0.06513769 0.102073126 0.0016150922 0.099676386 0.019704662
-0.09293195 0.055816755 0.03301812 -0.095838256 -0.044253748 -0.0051221997 0.087597795 -0.011101648
0.05002132 0.07198286 0.08806747 -0.0037796646 0.0718715 0.10300654 -0.040167794 0.06093703
0.040253084 0.106453985 0.0047338456 0.021568635 -0.12333525 0.034248374 0.021443993 0.08927285
0.08442977 0.07865426 0.01142934 0.050898135 -0.090467244 -0.09484066 0.040713117 0.038479894
-0.076566935 -0.018193603 0.03454797 -0.057866514 0.010477394 -0.030117199 -0.10193157 0.06623979
-0.03448011 0.014288381 -0.12294689 0.0048939735 0.068328336 0.09385522 -0.09254235 -0.120569095
-0.019873545 -0.053689435 0.11270127 -0.08605759 -0.07693343 -0.018074557 -0.032602385 -0.07053159
-0.07087462 -0.029535174 0.0834212 0.027301252 0.013798237 0.114363104 -0.08760142 -0.06314343
-0.08951275 -0.08278833 0.033075437 0.05987352 0.118021816 0.019310847 0.07473911 -0.013531268
-0.095451415 0.03657818 0.023306236 -0.008462086 -0.11513364 0.09727733 0.016838387 0.0144883245
-0.11628689 -0.07974598 0.099578425 0.0025147796 -0.10697296 0.04879147 0.00822857 -0.018778533
-0.023183862 0.08478607 -0.06332162 -0.07625913 0.046069685 -0.012796784 -0.11830866 -0.074426
0.06902333 0.05287311 0.086686224 0.09158378 -0.09311948 -0.08319083 0.062076747 0.063746005
-0.024810169 0.10376664 0.07453442 -0.090705454 0.09955828 -0.11705036 -0.017596161 -0.041646123
0.08770342 0.06439768 0.07489367 0.0049847094 0.02124794 0.078363195 0.051102087 0.047142193
-0.0040290584 0.11149099 0.09149481 -0.012628875 -0.09126145 -0.066302896 0.006968758 -0.047011025
0.10912474 -0.0097999275 0.036253825 0.11521997 0.0829544 -0.08336364 -0.024040604 -0.081114754
-0.053841665 0.059472147 -0.02176032 0.010343626 0.023075912 0.076939195 0.010353619 -0.040729623
-0.113155685 5.045533e-05 0.051226556 -0.09102449 -0.042630214 0.08818189 -0.0799879 -0.11908766
0.055274338 -0.0013530403 -0.031327993 -0.12040128 0.024074405 -0.074463636 0.084726915 0.12120785
0.026028857 0.027147666 -0.09494296 -0.0016314387 0.01303938 -0.034236774 -0.030785292 0.092169434
0.102822796 0.01877144 -0.11711989 -0.009512559 0.08570604 -0.06602727 -0.078702465 -0.07312368
0.061011747 0.024076402 0.05625668 0.11379281 0.018563837 0.06748016 0.02781026 0.09804499
0.04196243 -0.08540511 -0.04437387 -0.0032590926 0.11969434 -0.010626897 -0.07341866 0.06620869
-0.1019074 -0.0028835386 0.09474835 0.121295765 0.077243984 -0.11933796 -0.0793246 -0.018086568
-0.08957988 -0.09389554 -0.1183119 0.047752455 0.013694331 -0.11424376 -0.10362275 -0.05780229
0.036153972 -0.050408617 0.11177896 -0.11011544 -0.028069958 -0.08319844 -0.030548587 -0.03124009

fc2.bias f4 [32]
00000000: cbb2 c3bd 50c5 903c 4d1c f6bc 4410 ccbd
00000010: ccf7 76bd 2498 93bd d341 06bd 547d a53c
00000020: 9851 c73c 16e2 febc 12e8 c13d 86f2 5a3d
00000030: be18 c6bd 7243 833c b0bd c7bd 5bb4 adbd
00000040: a2bb aabd be6b 68bd 2eae 8e3d 4c71 bcbd
00000050: 53d2 6d3d d909 25bd db32 b8bd 5e6e 67bc
00000060: 3c5a 6cbb 7374 e93d 9aa5 8f3d ec8c 5fbd
00000070: f131 f43d db20 63bd f53c 243d 8039 ba3a
-0.095555864 0.017672211 -0.030042792 -0.0996404 -0.06029491 -0.07206753 -0.03277762 0.020201363
0.0243309 -0.031113666 0.09468092 0.053453945 -0.09672688 0.016023371 -0.09752977 -0.08481666
-0.08336569 -0.056743376 0.06966816 -0.09201297 0.05806191 -0.040292595 -0.08994075 -0.014125435
-0.0036064526 0.11399164 0.07014008 -0.054577753 0.11923588 -0.055451255 0.040097196 0.001420781

fc3.weight f4 [16, 32]
00000000: 7572 aa3d b69e 20be d477 28be 00ac 0bb9
00000010: 7d44 56bd 25f4 263e 877e b1bd aa83 1b3e
00000020: 0664 a2bd 10d0 dc3d 20f7 d4bd 8116 b5bd
00000030: dc94 5cbd dd02 833c 03b1 0c3e 07b7 813d
00000040: c04d 253d 478e ec3d ca4e ae3d 5f83 443d
00000050: 4d04 1ebe 831a 9e3d 26bf 02be bf04 ca3d
00000060: 2ef9 cc3c b338 2e3c 05bf 3cbd 50fb 3bbc
00000070: 9803 cebc 4097 743d 0b92 5b3c ee96 e43d
00000080: 3ccb 08be e3a7 013e 82f0 183e 1095 f1bc
00000090: 3fb9 163c 042e 253d 6032 c83d 745a 3b3d
000000a0: 99f6 103e 4e6e f2bd 6a8b fcbd a7a6 1c3c
000000b0: 20ee 32bc b592 153e 6853 7ebd 2997 2ebe
000000c0: 00ab d53b 61cc bb3d 2c8e 6f3d ac07 5bbd
000000d0: 11bf 0fbe 5e1a f33d 92cf 993d 0a0e e53c
000000e0: b5da 27be 713a 33be 13a8 febd 794a 123e
000000f0: ebc4 a03d 950c 8abd d89c 27bd e0d7 d23c
00000100: b9dc cebd ef0a b6bd 5266 03be 8724 26be
00000110: 6e54 88bb b22d dd3d 8642 933d 1a24 c9bd
00000120: 6f14 c7bd 9138 103e 77a3 29be 2139 f23d
00000130: e19e 1f3e 66b3 9b3d ddce 043e ccaf 60bd
00000140: 2010 3bbd f466 133e 86c8 8d3d 7141 5ebc
00000150: 97f6 8b3c c684 8bbd 8e93 543c 02c3 2c3e
00000160: cee3 0ebe 1021 acbc 4d7f f13b 226a a13d
00000170: 058a c7bd 501d 233e 0e2f a73d ca11 e03d
00000180: 21f0 f03d 20ad 843c 908b 813d 9485 78bd
00000190: 5b4b 9ebd 0df3 2b3e 7c97 bb3d 50bc 283d
000001a0: 046e 0c3d aae7 1d3e 80b3 99ba 9052 2a3e
000001b0: 1039 063c d060 d63d 6f0f 023e 7094 77bd
000001c0: 722e c43d a3a1 253e a8fd d13c 1f89 7f3d
000001d0: 429d 2ebe 3485 ce3c 26f1 f53b 8a6d 0b3b
000001e0: a75d d2bd 1301 b0bd 0087 f23d 0d99 0fbe
000001f0: aa04 8fbd 39fa 403d bc5a bfbd 9ab3 ecbd
00000200: 50e3 113e a050 37bd 78f7 a83d 00e0 02be
00000210: 8019 8abd 8445 c8bd 1ba7 273e cc99 a7bd
00000220: f57f 21be 6297 62bd 0482 0b3d 963a b13c
00000230: abfe 123e 14c9 e339 48c8 c5bd 1cbd 873d
00000240: 86aa 25be b5f5 3b3d 1567 22be 1c60 eebd
00000250: ecce 473c 4353 303a 01a3 303e 4357 f9bd
00000260: 30f2 35bc 82f5 fdbd e0f9 93bd 1ce4 0dbe
00000270: 98d9 5a3d 21ec 0b3e f69e 953d 7446 29be
00000280: a085 72bc 103f 183d 46d9 75bd 5181 2c3e
00000290: 1069 b43c f026 863c 5aae 8e3d 2895 fbbc
000002a0: 5bf4 15be 6624 c23d 27be 23be 6676 fa3d
000002b0: d81a 06be c852 843c 2129 2f3e f4da 4bbd
000002c0: 7b1d 97bd 07e3 1d3e 54b8 06be 3f00 083e
000002d0: 4082 c1bc a005 aa3b 0094 b2bd 3e31 0abe
000002e0: 352c 1d3e cceb 11be 0071 3bbb 0c13 05be
000002f0: f06a 6d3c 78c7 d03c f513 113e 303e aa3c
00000300: de52 e43d b00e 033d 5655 1ebe fc72 f6bd
00000310: 2371 ddbd 7b95 023e 7641 853d 981a ccbd
00000320: d209 c83d b5cf 1a3e d864 f4bc 804e 74bb
00000330: bce0 f3bd 4829 b33c c65e c73d ed67 0c3e
00000340: 127d c03d 7d6d afbd 8c24 7dbd b878 aa3c
00000350: ec0c 26be 00c8 683a 4eb1 d53d 2808 7d3d
00000360: c0d9 1a3d c8b2 c3bd 7c63 40bd 205e 10bd
00000370: ac9d 01be 1423 1bbd d2c5 aa3d 20a4 13be
00000380: 0aef f83d 7356 043e 87c6 863c 7ac3 c73d
00000390: 2b86 1ebc d077 2cbe eb02 fd3d 36a9 9dbd
000003a0: 6ee1 e93d ccd3 273e 2da2 c7bd 9fc5 c7bc
000003b0: 206f ca3b 5986 9ebd b984 113e 3213 4a3d
000003c0: 8429 c7bd c1a2 153e ec1f 84bd 5e14 3d3d
000003d0: d058 7cbc 05d1 e33d 3f05 d8bd 9731 a93d
000003e0: 9a1e 2abe b9eb 223e 2699 32be 60c9 c5bd
000003f0: 1ae8 a5bd 9a58 95bd f7de e0bd 60c4 a2bd
0.08322612 -0.15685543 -0.16451961 -0.00013320148 -0.05231141 0.16304071 -0.08666711 0.15186945
-0.07929234 0.10781872 -0.10398698 -0.08842183 -0.0538529 0.015992576 0.137394 0.06333738
0.04035735 0.11550575 0.085111216 0.047976848 -0.15431328 0.077199005 -0.1276823 0.098641865
0.025021162 0.010633635 -0.046080608 -0.011473492 -0.025148198 0.059714556 0.013401519 0.111616
-0.13358778 0.126617 0.14935496 -0.029490024 0.00919944 0.040327087 0.09775233 0.04574056
0.1415657 -0.11837445 -0.123312786 0.009561217 -0.010921031 0.14606746 -0.06209126 -0.1704985
0.006520629 0.091698416 0.058485195 -0.053474113 -0.1403773 0.118702635 0.07510294 0.027960796
-0.16392024 -0.17502762 -0.12434401 0.14286222 0.07850059 -0.06740681 -0.040921062 0.025737703
-0.10100693 -0.08888804 -0.12832001 -0.16224872 -0.0041604554 0.10799731 0.07190423 -0.09821339
-0.09720694 0.14084078 -0.16566263 0.11827303 0.15587951 0.07602577 0.12969537 -0.054855153
-0.045669675 0.14394742 0.069230124 -0.013565407 0.017085357 -0.06812434 0.012974633 0.16871265
-0.13954088 -0.02101186 0.0073699118 0.07881571 -0.09743122 0.1592915 0.08163272 0.10940893
0.11764551 0.016195834 0.063254476 -0.060674265 -0.07729217 0.16791935 0.09159753 0.041195214
0.034284607 0.15420404 -0.0011726469 0.16633058 0.008192316 0.10467684 0.127012 -0.060444295
0.09579171 0.16174941 0.025633648 0.06238663 -0.17052177 0.02521 0.007505554 0.0021275007
-0.10271769 -0.08593955 0.118421555 -0.14023228 -0.069833115 0.04711363 -0.09343478 -0.11557694
0.14246869 -0.044754624 0.08250326 -0.12780762 -0.06743145 -0.09778884 0.1637234 -0.08183631
-0.15771468 -0.05532015 0.03405954 0.021634381 0.1435496 0.0004344663 -0.09657341 0.066278666
-0.16178331 0.04588862 -0.15859635 -0.11639425 0.01219533 0.0006726274 0.17249681 -0.12174847
-0.011105105 -0.124003425 -0.07225394 -0.13856548 0.05343017 0.13664295 0.0730571 -0.16530782
-0.0148023665 0.037169516 -0.06002166 0.16846205 0.022022754 0.016375989 0.06966849 -0.030710772
-0.14643995 0.09479599 -0.15990506 0.12229614 -0.13096178 0.016152754 0.17105533 -0.049769357
-0.0737867 0.15418635 -0.13156253 0.13281344 -0.023621678 0.005188659 -0.08719635 -0.13495347
0.15348895 -0.14250106 -0.0028601289 -0.12995547 0.014490828 0.02548574 0.14167769 0.020781606
0.11148618 0.03199643 -0.1546224 -0.1203365 -0.10812595 0.12752335 0.06506626 -0.0996601
0.09767498 0.15118296 -0.029833242 -0.0037278235 -0.11908099 0.02187027 0.097348735 0.1371152
0.09398855 -0.08565805 -0.061802432 0.020809516 -0.16215867 0.00088799 0.10434209 0.061775357
0.03780532 -0.09555584 -0.046969876 -0.035246015 -0.12657803 -0.03787525 0.083385125 -0.14418077
0.12154968 0.12923603 0.016452087 0.09754081 -0.009675543 -0.1684258 0.12354072 -0.0769829
0.114199504 0.16389388 -0.097477295 -0.024386225 0.006177798 -0.077404685 0.14210786 0.049334712
-0.09724715 0.14612867 -0.06451401 0.046162 -0.015402034 0.11123852 -0.105478756 0.08261412
-0.16613236 0.15910234 -0.17441234 -0.0965755 -0.081009105 -0.0729229 -0.10980027 -0.07947612

fc3.bias f4 [16]
00000000: c7af 183e aa2f 61bd ea3a a93c 8f8e cfbd
00000010: 043a dbbc 833d 99bd 80a2 fc3c 8f9a 96bd
00000020: e2d7 b2bd 0e04 d13d 6b3d 0fbe f3c0 1e3e
00000030: d5b0 8b3d 3fb2 0a3d fa03 cebd 876a 3f3d
0.14910804 -0.054977097 0.020657975 -0.10134613 -0.026761062 -0.074824356 0.030839205 -0.073536985
-0.08732583 0.102058515 -0.13988273 0.15503292 0.068208374 0.033861395 -0.10059352 0.04673245

fc_mu.weight f4 [1, 16]
00000000: f7d1 97bd 743f c4bd f934 32be a822 9a3d
00000010: b649 133d 0009 b43c 980b 533d 68a1 2abe
00000020: d42b 7f3e b580 53be 227a 31be b44e 41be
00000030: aa3a 80bd 42f2 4e3b 1b20 65bd c796 c33d
-0.074130945 -0.09582415 -0.1740302 0.075261414 0.035958968 0.021976948 0.05152473 -0.16663134
0.24919063 -0.20654567 -0.17331746 -0.18877679 -0.06261189 0.0031577502 -0.05593882 0.09550243

fc_std.weight f4 [1, 16]
00000000: 3644 2dbe 67f0 3cbe befc 383d c485 1bbe
00000010: 4708 2e3e c4f9 d1bd 6cf9 dbbd 6ce4 d5bc
00000020: e045 b33c b3fa 5dbe da19 41be 519f 263d
00000030: af75 3dbe b5b9 6fbe e843 973d a593 703e
-0.16920552 -0.18451081 0.04516291 -0.15187746 0.16995345 -0.10252717 -0.10740933 -0.026109897
0.021883905 -0.21677665 -0.18857518 0.04067928 -0.18501924 -0.23410685 0.07385999 0.23493822

exp_avg f4 [64, 3]
00000000: c82c f23c 40ae 2fbc 6ccb 55bd 3e9a 25bd
00000010: 9d48 803c 4b1a 69be 0000 0000 0000 0000
00000020: 0000 0000 6642 773c 3327 d2b9 ee34 0abd
00000030: 2158 353a 016d 6bba bef6 92ba f245 5cbb
00000040: 1fb1 d13b e641 5eba 0000 0000 0000 0000
00000050: 0000 0000 6248 29ba eaf9 ee3a 5cb0 c23b
00000060: c40f ed3b d0aa 0abc 5a62 0c3e db86 233a
00000070: 744b 54ba 3986 84ba 0000 0000 0000 0000
00000080: 0000 0000 4994 bcbc 4d38 9d3b 6d20 0bbe
00000090: 0d45 293b 4196 4f3b 3874 d0bd 0000 0000
000000a0: 0000 0000 0000 0000 98f9 1a3c 93e0 c33a
000000b0: 464c fbbd 4158 83bc e125 84bb cebb 9fbd
000000c0: b077 c9ba cafc 2e3b 067c bd3b 1569 b6bb
000000d0: fb74 ddbb e48b 9ebb 69a5 55bc d128 9f3b
000000e0: bfc6 9b3d d866 8639 3443 5cb9 3121 a939
000000f0: 0000 0000 0000 0000 0000 0000 2b71 6ebc
00000100: 3397 843b 62b9 34bd 3144 23bc 2842 7b3b
00000110: 8108 c8bd 96c0 943c 4d41 afbb a972 973c
00000120: 7ac5 1ebd 96f7 343c 5b0d 9abd ef38 a139
00000130: 0a58 6cba 41b2 69bb fcf9 273c 4b86 d7ba
00000140: 00a1 803d 1a44 363a 5b9f 6cba f9b5 93ba
00000150: 9b94 9c3c ac65 b839 f869 773b 8940 313c
00000160: 2262 093c 4e98 b8bd 0000 0000 0000 0000
00000170: 0000 0000 2ae4 cabc 5b05 533b 8e57 ec3c
00000180: 8c2c f338 a688 adbb 4a44 9dbd 8922 c9bb
00000190: 0d13 1fba a7d8 a0bc 2bf8 c9ba 6511 48ba
000001a0: 96f6 02bc 7d36 81bb d8ff fb3b 2c1b 32bd
000001b0: df92 ce3b c340 f538 011c 39bc 0000 0000
000001c0: 0000 0000 0000 0000 a955 b4bc 6b84 703b
000001d0: 86e0 9a3d 686b 6aba 312a 983a 0ffa bd3a
000001e0: eefd 563c 74c8 cf3a 066f b3bd 0000 0000
000001f0: 0000 0000 0000 0000 8293 c039 b3cb 7cba
00000200: 362c 513d 7b4c db3a 04c7 a4bb a8a0 033d
00000210: 486b ab3b 27af 3dbb ca2e 333d 0000 0000
00000220: 0000 0000 0000 0000 8b48 653c bdd2 0a3b
00000230: 6871 03be 0000 0000 0000 0000 0000 0000
00000240: 0000 0000 0000 0000 0000 0000 9625 4fbc
00000250: bfc7 ce3b f508 d7bc 6fa9 4c3c 6673 813b
00000260: c280 e0bb 0000 0000 0000 0000 0000 0000
00000270: 9493 adba e8e6 173a 9399 91bc 0000 0000
00000280: 0000 0000 0000 0000 3c92 d53a f548 773b
00000290: 47e5 86bc 9443 9abc c9e1 29bb 52c1 bdbc
000002a0: ba71 d7bb f174 68bb f73a 0dbd 0000 0000
000002b0: 0000 0000 0000 0000 0000 0000 0000 0000
000002c0: 0000 0000 0b84 713c e82e 293b 4feb 37bd
000002d0: 1e4d b33c 0b59 1b38 bc56 17bb 10a7 36bc
000002e0: 8db0 603b 1143 4fbd 0000 0000 0000 0000
000002f0: 0000 0000 e9b6 72bc dd79 9f3b 34f1 74bd
0.029562369 -0.010722697 -0.05219595 -0.0404303 0.015659625 -0.22763936 0.0 0.0
0.0 0.015091514 -0.00040083527 -0.033741884 0.0006917734 -0.00089807814 -0.0011212451 -0.0033611027
0.0063992883 -0.00084784476 0.0 0.0 0.0 -0.0006457624 0.0018232439 0.005941434
0.0072345454 -0.008463576 0.13709393 0.00062380516 -0.00080984016 -0.0010110802 0.0 0.0
0.0 -0.023019927 0.0047979713 -0.13586588 0.002582851 0.0031675252 -0.10178417 0.0
0.0 0.0 0.009458922 0.0014944248 -0.122704074 -0.016033294 -0.004032836 -0.07799493
-0.0015370753 0.0026700967 0.005782607 -0.005566726 -0.00675833 -0.0048384536 -0.013039925 0.0048571606
0.07606267 0.00025635096 -0.0002100587 0.0003225892 0.0 0.0 0.0 -0.0145533485
0.0040463447 -0.044122107 -0.009964989 0.0038338993 -0.09767247 0.018158238 -0.0053483606 0.018487291
-0.038762547 0.011045357 -0.075220786 0.00030750732 -0.00090158044 -0.0035659226 0.010252472 -0.0016443221
0.06280708 0.0006952897 -0.00090264314 -0.0011269442 0.01911383 0.00035170966 0.0037752371 0.010818609
0.008385213 -0.09013425 0.0 0.0 0.0 -0.024767 0.0032199237 0.028850343
0.000115954404 -0.005295831 -0.07679041 -0.00613815 -0.00060682074 -0.019634558 -0.0015409043 -0.00076319865
-0.007993361 -0.003943263 0.007690411 -0.043482944 0.0063041295 0.00011694573 -0.011298181 0.0
0.0 0.0 -0.022013502 0.003670002 0.07562356 -0.00089423964 0.0011609254 0.0014494079
0.013122065 0.0015852586 -0.087614104 0.0 0.0 0.0 0.00036730996 -0.00096433907
0.051067553 0.0016731167 -0.0050286073 0.032135636 0.005231295 -0.002894351 0.043745793 0.0
0.0 0.0 0.013994346 0.0021182739 -0.1283623 0.0 0.0 0.0
0.0 0.0 0.0 -0.0126432385 0.0063104327 -0.026249388 0.012491568 0.003950524
-0.0068512866 0.0 0.0 0.0 -0.0013242834 0.00057946006 -0.017773425 0.0
0.0 0.0 0.0016294192 0.0037732695 -0.01646675 -0.018831052 -0.0025921932 -0.023163471
-0.0065748366 -0.0035470093 -0.03448006 0.0 0.0 0.0 0.0 0.0
0.0 0.014740954 0.0025815312 -0.044902142 0.021887358 3.7037807e-05 -0.002309247 -0.011148229
0.003428492 -0.05060107 0.0 0.0 0.0 -0.014814117 0.004866822 -0.05980034

exp_avg_sq f4 [64, 3]
00000000: d978 d738 03a4 9237 8362 cb3a 2755 0439
00000010: 741b 8f37 cc8e ea3b 0000 0000 0000 0000
00000020: 0000 0000 db36 6d37 f4c6 a037 2471 083a
00000030: e8a1 1234 0a22 7734 8c9b c034 56da 2737
00000040: 3d90 0737 607f 593a 0000 0000 0000 0000
00000050: 0000 0000 1d8d ff33 a1a4 7e35 d301 2937
00000060: 0873 2038 c47d 1d37 50ab f13a d777 ee33
00000070: bbf4 4834 629e 9c34 0000 0000 0000 0000
00000080: 0000 0000 d47f c538 0775 b638 07ae 213c
00000090: 0519 3e38 1809 a736 13a8 6e3a 0000 0000
000000a0: 0000 0000 0000 0000 2f81 4838 8b0a d436
000000b0: 73c2 373a 13c3 0238 3385 a437 7023 f53a
000000c0: 1afb 3435 5488 0836 9117 2037 181c 0138
000000d0: 0dbe da36 3357 6339 fe03 8b37 607a 4637
000000e0: 58ec a13a 7216 a132 d452 5832 d516 ff32
000000f0: 0000 0000 0000 0000 0000 0000 1f43 c337
00000100: 7d42 2b37 e9fd 093a cb12 1e38 8d72 5337
00000110: bd03 f93a 527f 6237 ad18 1b36 8b59 a139
00000120: 089e d438 8975 1e38 67b7 9a3b 67cb e732
00000130: 6f10 7934 e883 7336 d339 9237 e627 8d37
00000140: a8e6 3f3a 7c20 1434 d5a6 7934 1492 c234
00000150: bc96 0e38 be8c 3836 0ee5 8239 ad8c 5037
00000160: b440 8736 54fe 9a39 0000 0000 0000 0000
00000170: 0000 0000 501f a337 da90 8e36 4eec 463a
00000180: 6d0b c337 c958 e436 d101 0f3a cf60 f936
00000190: 8406 9636 b449 bd39 2727 0237 de0f 9635
000001a0: 6a9e 1f39 1ea4 ea36 94c0 9136 703f 3f3a
000001b0: 3859 0537 94aa 8e35 7fc7 ff37 0000 0000
000001c0: 0000 0000 0000 0000 e579 2638 af0c 6b36
000001d0: 5d62 263a 6306 7534 3e7b ce34 d0ec 2035
000001e0: 9222 9937 61eb 6e36 b87d b339 0000 0000
000001f0: 0000 0000 0000 0000 1ca2 9f38 dd55 3b37
00000200: 8497 4a3a f19a 0438 0f70 0d38 a096 143b
00000210: 8898 0a38 441e f836 f013 fc39 0000 0000
00000220: 0000 0000 0000 0000 a0cb bb37 7b5e 0937
00000230: 3932 483a 0000 0000 0000 0000 0000 0000
00000240: 0000 0000 0000 0000 0000 0000 4e08 fe36
00000250: ccf7 9e36 d067 a139 1a1c 2837 3ebd 3937
00000260: a65d 2d3a 0000 0000 0000 0000 0000 0000
00000270: 869d 5234 2083 1035 4f92 ac38 0000 0000
00000280: 0000 0000 0000 0000 d8d7 6836 a0cd 0b36
00000290: 677d 2138 249a 2338 28b0 8c36 911c 0c3a
000002a0: f29f b037 0440 e336 693a 1f3a 0000 0000
000002b0: 0000 0000 0000 0000 0000 0000 0000 0000
000002c0: 0000 0000 9fe4 8b37 a734 f435 7a23 183a
000002d0: fe72 8a37 5acf bd36 acc1 9e3a 4d2e bd38
000002e0: de91 4c38 6665 633b 0000 0000 0000 0000
000002f0: 0000 0000 1309 d537 f84e 0a37 7878 943a
0.000102745085 1.748093e-05 0.001551703 0.00012620223 1.7059712e-05 0.007158136 0.0 0.0
0.0 1.4139073e-05 1.9166131e-05 0.00052048475 1.3656211e-07 2.3016051e-07 3.5875962e-07 1.0004811e-05
8.08021e-06 0.00082968734 0.0 0.0 0.0 1.1900031e-07 9.486194e-07 1.007361e-05
3.8254104e-05 9.387211e-06 0.0018437896 1.11045374e-07 1.8715484e-07 2.9172503e-07 0.0 0.0
0.0 9.417502e-05 8.700234e-05 0.0098681515 4.532283e-05 4.9780465e-06 0.00091040245 0.0
0.0 0.0 4.7804027e-05 6.3193197e-06 0.0007009871 3.1176092e-05 1.961235e-05 0.0018702578
6.7420626e-07 2.0344933e-06 9.54223e-06 3.078216e-05 6.519031e-06 0.00021680891 1.657195e-05 1.1830212e-05
0.0012353761 1.8753074e-08 1.2591688e-08 2.969629e-08 0.0 0.0 0.0 2.3277067e-05
1.0207875e-05 0.0005263971 3.7687638e-05 1.2603251e-05 0.0018998306 1.3500294e-05 2.3111163e-06 0.00030775028
0.000101383834 3.77796e-05 0.0047215703 2.6984436e-08 2.319591e-07 3.6286601e-06 1.7431483e-05 1.6827089e-05
0.0007320442 1.3795392e-07 2.3250625e-07 3.6241602e-07 3.399582e-05 2.750006e-06 0.0002496619 1.243052e-05
4.030846e-06 0.00029562658 0.0 0.0 0.0 1.9445695e-05 4.2487927e-06 0.0007588313
2.3251132e-05 6.8052655e-06 0.0005455288 7.4320483e-06 4.471107e-06 0.00036103802 7.75772e-06 1.1180489e-06
0.00015222435 6.992849e-06 4.343756e-06 0.00072955247 7.948191e-06 1.0629469e-06 3.0491266e-05 0.0
0.0 0.0 3.9691007e-05 3.5025112e-06 0.0006347055 2.2819727e-07 3.846016e-07 5.994925e-07
1.825512e-05 3.5601772e-06 0.00034235208 0.0 0.0 0.0 7.611906e-05 1.116606e-05
0.0007728266 3.1615553e-05 3.3721382e-05 0.0022672787 3.304382e-05 7.3944993e-06 0.0004808004 0.0
0.0 0.0 2.2386957e-05 8.187834e-06 0.0007636878 0.0 0.0 0.0
0.0 0.0 0.0 7.5707567e-06 4.7376143e-06 0.0003078566 1.0020123e-05 1.1070921e-05
0.0006613381 0.0 0.0 0.0 1.9615081e-07 5.383499e-07 8.228851e-05 0.0
0.0 0.0 3.4696332e-06 2.0832304e-06 3.850218e-05 3.9005783e-05 4.1928324e-06 0.0005344833
2.1055315e-05 6.7725796e-06 0.00060740724 0.0 0.0 0.0 0.0 0.0
0.0 1.6676551e-05 1.819474e-06 0.0005803626 1.650443e-05 5.656778e-06 0.0012112162 9.0208465e-05
4.877324e-05 0.003469789 0.0 0.0 0.0 2.5395804e-05 8.243827e-06 0.0011327406

exp_avg f4 [64]
00000000: 523b b23c 3977 c73c 0000 0000 f713 763c
00000010: fc95 943a e8c4 acbb 0000 0000 76d9 feba
00000020: c93f b2bc acfc 853a 0000 0000 2b16 8a3c
00000030: 6db7 833c 0000 0000 43bf d83c d904 0d3c
00000040: 9842 4cbb 3ec4 1b3a cc66 a2bc 525e a739
00000050: 0000 0000 fcdd 0d3a 8504 7b3c 9483 a93b
00000060: fd5c 1dbb 0df0 6f3a 4dbe ecbb 5557 953a
00000070: 414b cd3b e4e9 913c 0000 0000 8940 78bc
00000080: 2327 473c 1c47 683b 7515 383b 2a4c aa3b
00000090: 617f 8f3b 0000 0000 f291 c3bc d712 c0ba
000000a0: f354 a53c 0000 0000 a7cf 0dbc b1d4 fabb
000000b0: a328 91bb 0000 0000 4682 f03c 0000 0000
000000c0: 0000 0000 74e6 c0ba 32e0 823b 0000 0000
000000d0: a618 0f3b 0000 0000 4f76 903a 0bb1 55bb
000000e0: ed4a ae3b 0000 0000 0000 0000 b543 5b3c
000000f0: 615a c83b e3d5 bb3b 0000 0000 f321 c33b
0.021756802 0.024348842 0.0 0.015019408 0.0011336203 -0.0052724965 0.0 -0.001944347
-0.02175893 0.0010222397 0.0 0.016856274 0.016078675 0.0 0.026458388 0.008607113
-0.0031167623 0.0005942023 -0.019824408 0.00031922996 0.0 0.00054118014 0.015320902 0.005173156
-0.0024011724 0.0009152897 -0.007224834 0.0011393825 0.0062650745 0.017811723 0.0 -0.015152105
0.012155327 0.0035442775 0.0028088961 0.0051970677 0.0043791984 0.0 -0.023873303 -0.0014654052
0.020182109 0.0 -0.008655465 -0.0076547493 -0.004429893 0.0 0.029358994 0.0
0.0 -0.0014717118 0.0039940113 0.0 0.002183476 0.0 0.0011021587 -0.0032606747
0.0053189904 0.0 0.0 0.013382842 0.0061142896 0.0057322844 0.0 0.005954975

exp_avg_sq f4 [64]
00000000: a88b ef38 92f0 ec38 0000 0000 24b5 f037
00000010: f9e1 c434 15d5 0b38 0000 0000 10cc 9035
00000020: 83cf 3138 5418 a034 0000 0000 76a4 ba39
00000030: 3d32 7338 0000 0000 88ab 0938 35ce 1b38
00000040: 6a08 3a36 7389 ec36 30b2 2b38 decd f932
00000050: 0000 0000 45d9 2637 d5fb 3038 eeb2 4537
00000060: 99e8 3c39 1d59 8034 888e 0138 a9e3 c634
00000070: 80f4 6037 d7ee 7537 0000 0000 c42f 0b38
00000080: b6ea ac37 e039 1037 bb35 6d36 9910 d937
00000090: 2f2c 9336 0000 0000 f459 4f38 377f 2435
000000a0: 0421 b437 0000 0000 1571 9a38 8e1e c238
000000b0: 7f02 1238 0000 0000 2012 0238 0000 0000
000000c0: 0000 0000 a21a 4337 08c5 8a37 0000 0000
000000d0: 919f 0236 0000 0000 5db7 c736 ee4b 4237
000000e0: 1b9e 3137 0000 0000 0000 0000 2ba9 0238
000000f0: df35 dc37 91f1 4139 0000 0000 1518 b937
0.00011422421 0.00011298167 0.0 2.869458e-05 3.6672262e-07 3.333863e-05 0.0 1.0788226e-06
4.239335e-05 2.9820023e-07 0.0 0.00035599218 5.7982503e-05 0.0 3.2823096e-05 3.7146925e-05
2.7721057e-06 7.0493493e-06 4.0935527e-05 2.9081033e-08 0.0 9.944958e-06 4.2196207e-05 1.1783775e-05
0.00018015727 2.3906696e-07 3.088874e-05 3.7046019e-07 1.34083675e-05 1.4658747e-05 0.0 3.3184668e-05
2.0613294e-05 8.596544e-06 3.5347027e-06 2.5876145e-05 4.386085e-06 0.0 4.943642e-05 6.1279883e-07
2.1473046e-05 0.0 7.3643554e-05 9.256332e-05 3.4811437e-05 0.0 3.1011296e-05 0.0
0.0 1.1629107e-05 1.6542632e-05 0.0 1.946439e-06 0.0 5.9520085e-06 1.158098e-05
1.0586834e-05 0.0 0.0 3.1151965e-05 2.625113e-05 0.00018495905 0.0 2.2064933e-05

exp_avg f4 [32, 64]
00000000: a375 3cbc 9aae 783c 0000 0000 61d9 68bc
00000010: 222d 0c39 c7b1 643b 0000 0000 b033 ed39
00000020: 5ab4 2abd 195a 0239 0000 0000 f56d 43bd
00000030: ea6e 013d 0000 0000 1e13 11bc c66a 5e3d
00000040: 58ba 5c3a 5481 3bbc bcef dbbc 4a75 e439
00000050: 0000 0000 e866 943b 8e63 4d3c 5d62 17bd
00000060: 60b4 1dbc 9b29 e739 0843 0f3d e775 df37
00000070: 2b94 9a3c bacf 92bb 0000 0000 99d4 41bd
00000080: f2c6 9dbc a86a 02bd 53b0 51bc 2c08 973d
00000090: a109 9cbc 0000 0000 587f 14bd 1116 d938
000000a0: be84 0abd 0000 0000 6a65 b3bb bb28 4dbc
000000b0: 9b1b 293d 0000 0000 6c8e ecbc 0000 0000
000000c0: 0000 0000 0db8 35bb ad4b 36bd 0000 0000
000000d0: 78a3 fc3c 0000 0000 00f0 143a c2d2 573d
000000e0: 2230 0dbc 0000 0000 0000 0000 5d95 8dbc
000000f0: 3123 d23b a3c7 133d 0000 0000 36b3 b93b
00000100: 0000 0000 0000 0000 0000 0000 0000 0000
00000110: 0000 0000 0000 0000 0000 0000 0000 0000
00000120: 0000 0000 0000 0000 0000 0000 0000 0000
00000130: 0000 0000 0000 0000 0000 0000 0000 0000
00000140: 0000 0000 0000 0000 0000 0000 0000 0000
00000150: 0000 0000 0000 0000 0000 0000 0000 0000
00000160: 0000 0000 0000 0000 0000 0000 0000 0000
00000170: 0000 0000 0000 0000 0000 0000 0000 0000
00000180: 0000 0000 0000 0000 0000 0000 0000 0000
00000190: 0000 0000 0000 0000 0000 0000 0000 0000
000001a0: 0000 0000 0000 0000 0000 0000 0000 0000
000001b0: 0000 0000 0000 0000 0000 0000 0000 0000
000001c0: 0000 0000 0000 0000 0000 0000 0000 0000
000001d0: 0000 0000 0000 0000 0000 0000 0000 0000
000001e0: 0000 0000 0000 0000 0000 0000 0000 0000
000001f0: 0000 0000 0000 0000 0000 0000 0000 0000
00000200: 1b6a 9ebd fe02 66bb 0000 0000 a9c2 e5bb
00000210: 3833 0f3a 49b7 8ebc 0000 0000 92e1 af39
00000220: 3ce4 10be ef29 053a 0000 0000 f3b0 f4bd
00000230: ec02 bbbd 0000 0000 22a2 9ebd f18b debd
00000240: ba81 b03a 4c4b edbd 4416 b6bd f0c7 813a
00000250: 0000 0000 7eff 08ba 1e72 84bd c550 08bd
00000260: f551 d5bd 3cc8 9a3a 5210 c4bd e547 e438
00000270: efc4 e3bd d5c9 46bd 0000 0000 4851 30bd
00000280: 7804 90bc b968 b1bd 26ef 95bb e5fc dbbd
00000290: 41c5 d8bb 0000 0000 01ff bbbd dcc4 dd39
000002a0: 794c e0bd 0000 0000 18f0 0cbc d0e1 f6bb
000002b0: 218a babd 0000 0000 0c83 38bd 0000 0000
000002c0: 0000 0000 4ecc 86bd 1426 0bbe 0000 0000
000002d0: aab6 29bc 0000 0000 7d1d b7ba 9385 e0bc
000002e0: 1ea8 0bbe 0000 0000 0000 0000 5da5 a8bd
000002f0: 6b37 34bd 0693 babd 0000 0000 3111 d7bd
00000300: 0000 0000 0000 0000 0000 0000 0000 0000
00000310: 0000 0000 0000 0000 0000 0000 0000 0000
00000320: 0000 0000 0000 0000 0000 0000 0000 0000
00000330: 0000 0000 0000 0000 0000 0000 0000 0000
00000340: 0000 0000 0000 0000 0000 0000 0000 0000
00000350: 0000 0000 0000 0000 0000 0000 0000 0000
00000360: 0000 0000 0000 0000 0000 0000 0000 0000
00000370: 0000 0000 0000 0000 0000 0000 0000 0000
00000380: 0000 0000 0000 0000 0000 0000 0000 0000
00000390: 0000 0000 0000 0000 0000 0000 0000 0000
000003a0: 0000 0000 0000 0000 0000 0000 0000 0000
000003b0: 0000 0000 0000 0000 0000 0000 0000 0000
000003c0: 0000 0000 0000 0000 0000 0000 0000 0000
000003d0: 0000 0000 0000 0000 0000 0000 0000 0000
000003e0: 0000 0000 0000 0000 0000 0000 0000 0000
000003f0: 0000 0000 0000 0000 0000 0000 0000 0000
-0.011502656 0.015178347 0.0 -0.014211983 0.00013368254 0.0034896003 0.0 0.00045242673
-0.041675903 0.0001243133 0.0 -0.047712285 0.031599917 0.0 -0.008854656 0.054301046
0.00084201014 -0.011444408 -0.026847713 0.00043574936 0.0 0.004528869 0.012535943 -0.03695904
-0.009625524 0.00044090752 0.034976035 2.6638574e-05 0.01886948 -0.0044803293 0.0 -0.04732189
-0.019259904 -0.031839997 -0.012798387 0.073746055 -0.01904756 0.0 -0.036254257 0.000103514765
-0.033818 0.0 -0.005474736 -0.012521918 0.041286092 0.0 -0.028876506 0.0
0.0 -0.002772811 -0.044505764 0.0 0.030839667 0.0 0.0005681515 0.05269123
-0.008617433 0.0 0.0 -0.017283136 0.0064128865 0.03607906 0.0 0.0056671156
0.0 0.0 0.0 0.0 0.0 0.0 0.0 0.0
0.0 0.0 0.0 0.0 0.0 0.0 0.0 0.0
0.0 0.0 0.0 0.0 0.0 0.0 0.0 0.0
0.0 0.0 0.0 0.0 0.0 0.0 0.0 0.0
0.0 0.0 0.0 0.0 0.0 0.0 0.0 0.0
0.0 0.0 0.0 0.0 0.0 0.0 0.0 0.0
0.0 0.0 0.0 0.0 0.0 0.0 0.0 0.0
0.0 0.0 0.0 0.0 0.0 0.0 0.0 0.0
-0.07735082 -0.0035096998 0.0 -0.0070117307 0.0005462649 -0.017421382 0.0 0.00033546664
-0.14149565 0.0005079796 0.0 -0.11947813 -0.09131417 0.0 -0.07745768 -0.108665355
0.0013466396 -0.11586627 -0.088909656 0.0009901505 0.0 -0.00052260596 -0.064670786 -0.033280153
-0.10416023 0.0011808942 -0.09573425 0.000108852786 -0.111215465 -0.048532326 0.0 -0.043046266
-0.017580256 -0.086625524 -0.004575628 -0.10741595 -0.0066153114 0.0 -0.091794975 0.00042299076
-0.10952086 0.0 -0.008602165 -0.007534243 -0.09108377 0.0 -0.04504685 0.0
0.0 -0.06581937 -0.13588744 0.0 -0.010358492 0.0 -0.001397058 -0.027407443
-0.1363835 0.0 0.0 -0.082346655 -0.043998163 -0.09110074 0.0 -0.10501326
0.0 0.0 0.0 0.0 0.0 0.0 0.0 0.0
0.0 0.0 0.0 0.0 0.0 0.0 0.0 0.0
0.0 0.0 0.0 0.0 0.0 0.0 0.0 0.0
0.0 0.0 0.0 0.0 0.0 0.0 0.0 0.0
0.0 0.0 0.0 0.0 0.0 0.0 0.0 0.0
0.0 0.0 0.0 0.0 0.0 0.0 0.0 0.0
0.0 0.0 0.0 0.0 0.0 0.0 0.0 0.0
0.0 0.0 0.0 0.0 0.0 0.0 0.0 0.0

exp_avg_sq f4 [32, 64]
00000000: dba4 a73a ce84 ff38 0000 0000 3ce6 3c37
00000010: 2d3a af31 95f2 8838 0000 0000 35e0 7a33
00000020: 2699 a73b b386 9731 0000 0000 9df9 653b
00000030: deb4 593b 0000 0000 04dc ea3a 122b 9a3b
00000040: 173d 5934 22d4 663b c6a3 ee3a 9cb8 6833
00000050: 0000 0000 5a79 4936 4a8c e43a ec7e 8b39
00000060: 9276 683b 7343 6e33 6ff7 313b 9ca6 5e2f
00000070: 3778 583b 3728 5f3a 0000 0000 f1dc ba39
00000080: 16d6 a038 a737 0a3b f43c 0e38 6c17 933b
00000090: cb41 a737 0000 0000 8860 213b 2521 5231
000000a0: 1f62 3c3b 0000 0000 113f e437 00f3 5d37
000000b0: d933 493b 0000 0000 69fd d039 0000 0000
000000c0: 0000 0000 07e4 b53a 622c aa3b 0000 0000
000000d0: a038 3739 0000 0000 d393 3035 0f57 b039
000000e0: 08fd 933b 0000 0000 0000 0000 3a4b c43a
000000f0: a0f4 2f3a 211c 3e3b 0000 0000 c699 603b
00000100: 0000 0000 0000 0000 0000 0000 0000 0000
00000110: 0000 0000 0000 0000 0000 0000 0000 0000
00000120: 0000 0000 0000 0000 0000 0000 0000 0000
00000130: 0000 0000 0000 0000 0000 0000 0000 0000
00000140: 0000 0000 0000 0000 0000 0000 0000 0000
00000150: 0000 0000 0000 0000 0000 0000 0000 0000
00000160: 0000 0000 0000 0000 0000 0000 0000 0000
00000170: 0000 0000 0000 0000 0000 0000 0000 0000
00000180: 0000 0000 0000 0000 0000 0000 0000 0000
00000190: 0000 0000 0000 0000 0000 0000 0000 0000
000001a0: 0000 0000 0000 0000 0000 0000 0000 0000
000001b0: 0000 0000 0000 0000 0000 0000 0000 0000
000001c0: 0000 0000 0000 0000 0000 0000 0000 0000
000001d0: 0000 0000 0000 0000 0000 0000 0000 0000
000001e0: 0000 0000 0000 0000 0000 0000 0000 0000
000001f0: 0000 0000 0000 0000 0000 0000 0000 0000
00000200: 929e a139 087f e536 0000 0000 e490 b236
00000210: 59de b633 fa6c 7a37 0000 0000 46ee 0933
00000220: 81db 923a 4322 9e33 0000 0000 b625 583a
00000230: 31c9 053a 0000 0000 30a8 b039 d748 463a
00000240: e8e9 0a35 3a5f 3c3a acc7 e139 a233 9634
00000250: 0000 0000 cfb3 5535 15f6 8639 b9e2 c738
00000260: 24f8 233a 56a5 d534 a7ed 053a 2e5c 6831
00000270: 4b91 2a3a 51ec 1439 0000 0000 c080 2639
00000280: cc1d ba37 0817 e539 3148 cb36 3a60 4b3a
00000290: c515 0237 0000 0000 91b3 053a ee4a 5b33
000002a0: 207f 2d3a 0000 0000 dfc1 cf36 3072 3837
000002b0: 708f 043a 0000 0000 616b 0039 0000 0000
000002c0: 0000 0000 0878 8139 7323 8d3a 0000 0000
000002d0: 6ced c937 0000 0000 3b7b 0b37 0d0e cf38
000002e0: e9ed 7d3a 0000 0000 0000 0000 bfd8 b939
000002f0: 556a f138 a61d 033a 0000 0000 6cf4 1f3a
00000300: 0000 0000 0000 0000 0000 0000 0000 0000
00000310: 0000 0000 0000 0000 0000 0000 0000 0000
00000320: 0000 0000 0000 0000 0000 0000 0000 0000
00000330: 0000 0000 0000 0000 0000 0000 0000 0000
00000340: 0000 0000 0000 0000 0000 0000 0000 0000
00000350: 0000 0000 0000 0000 0000 0000 0000 0000
00000360: 0000 0000 0000 0000 0000 0000 0000 0000
00000370: 0000 0000 0000 0000 0000 0000 0000 0000
00000380: 0000 0000 0000 0000 0000 0000 0000 0000
00000390: 0000 0000 0000 0000 0000 0000 0000 0000
000003a0: 0000 0000 0000 0000 0000 0000 0000 0000
000003b0: 0000 0000 0000 0000 0000 0000 0000 0000
000003c0: 0000 0000 0000 0000 0000 0000 0000 0000
000003d0: 0000 0000 0000 0000 0000 0000 0000 0000
000003e0: 0000 0000 0000 0000 0000 0000 0000 0000
000003f0: 0000 0000 0000 0000 0000 0000 0000 0000
0.001279022 0.00012184084 0.0 1.1259279e-05 5.099784e-09 6.53017e-05 0.0 5.8411576e-08
0.0051146923 4.409992e-09 0.0 0.0035091408 0.0033219378 0.0 0.0017918353 0.0047048414
2.0231924e-07 0.0035221656 0.0018206767 5.418461e-08 0.0 3.002197e-06 0.0017436829 0.0002660671
0.0035471064 5.5475038e-08 0.0027155539 2.0249974e-10 0.0033030638 0.00085127674 0.0 0.000356413
7.669271e-05 0.00210903 3.3912205e-05 0.004488876 1.9938589e-05 0.0 0.0024624187 3.0577862e-09
0.0028745008 0.0 2.7209086e-05 1.3229204e-05 0.003070107 0.0 0.00039861657 0.0
0.0 0.0013877162 0.005193279 0.0 0.00017473334 0.0 6.578022e-07 0.000336342
0.0045162477 0.0 0.0 0.0014976033 0.0006712172 0.0029008465 0.0 0.0034271344
0.0 0.0 0.0 0.0 0.0 0.0 0.0 0.0
0.0 0.0 0.0 0.0 0.0 0.0 0.0 0.0
0.0 0.0 0.0 0.0 0.0 0.0 0.0 0.0
0.0 0.0 0.0 0.0 0.0 0.0 0.0 0.0
0.0 0.0 0.0 0.0 0.0 0.0 0.0 0.0
0.0 0.0 0.0 0.0 0.0 0.0 0.0 0.0
0.0 0.0 0.0 0.0 0.0 0.0 0.0 0.0
0.0 0.0 0.0 0.0 0.0 0.0 0.0 0.0
0.00030826457 6.83952e-06 0.0 5.321681e-06 8.51548e-08 1.4926534e-05 0.0 3.2114507e-08
0.0011204333 7.3636805e-08 0.0 0.00082453655 0.0005103527 0.0 0.00033694645 0.00075639546
5.1749385e-07 0.0007185821 0.0004306411 2.7977245e-07 0.0 7.961034e-07 0.00025741817 9.53129e-05
0.00062549324 3.979464e-07 0.00051089603 3.3812841e-09 0.00065066357 0.00014202415 0.0 0.00015878957
2.2186803e-05 0.00043695443 6.0582756e-06 0.00077581743 7.753672e-06 0.0 0.0005100305 5.105806e-08
0.00066183694 0.0 6.1916503e-06 1.0993841e-05 0.0005056774 0.0 0.00012247033 0.0
0.0 0.00024694228 0.0010768011 0.0 2.4071625e-05 0.0 8.313737e-06 9.873146e-05
0.00096866355 0.0 0.0 0.00035447438 0.000115115814 0.00050016714 0.0 0.00061017903
0.0 0.0 0.0 0.0 0.0 0.0 0.0 0.0
0.0 0.0 0.0 0.0 0.0 0.0 0.0 0.0
0.0 0.0 0.0 0.0 0.0 0.0 0.0 0.0
0.0 0.0 0.0 0.0 0.0 0.0 0.0 0.0
0.0 0.0 0.0 0.0 0.0 0.0 0.0 0.0
0.0 0.0 0.0 0.0 0.0 0.0 0.0 0.0
0.0 0.0 0.0 0.0 0.0 0.0 0.0 0.0
0.0 0.0 0.0 0.0 0.0 0.0 0.0 0.0

exp_avg f4 [32]
00000000: 1014 e5bc 0000 0000 5b3e 3bbd 0000 0000
00000010: b14c 9b3d 0000 0000 97d5 f7ba 6b84 fd3b
00000020: 0000 0000 eb3a 763c 0000 0000 89d2 143d
00000030: 0000 0000 d33e eebb 0000 0000 9457 e43c
00000040: 0000 0000 8fc0 663d 0000 0000 03d5 113d
00000050: 0dcf b03d 470b 5dbd 12c4 55bd 91d5 e13d
00000060: 6569 0abd b32f 9d3d ee13 dd3c 0000 0000
00000070: b0f7 95bd 97af cd3d 41eb 03bc 0000 0000
-0.027963668 0.0 -0.045713764 0.0 0.07582987 0.0 -0.0018908259 0.0077367327
0.0 0.015028696 0.0 0.036333594 0.0 -0.007270673 0.0 0.027873792
0.0 0.056335982 0.0 0.035603534 0.08633242 -0.053965833 -0.05218894 0.11027063
-0.03379192 0.076751135 0.026987042 0.0 -0.07322633 0.10043257 -0.008051694 0.0

exp_avg_sq f4 [32]
00000000: ecc4 f339 0000 0000 66b3 1539 0000 0000
00000010: 58f7 043a 0000 0000 cf34 5736 8a49 8f37
00000020: 0000 0000 259e e639 0000 0000 e672 a039
00000030: 0000 0000 b5a7 303a 0000 0000 ae72 9438
00000040: 0000 0000 b044 553a 0000 0000 6efc d238
00000050: 9e65 013a d24b 1339 ff5b c439 1182 723b
00000060: f413 2b3a 962f e639 94b9 6939 0000 0000
00000070: f40a c339 949c 8e3a bc88 a139 0000 0000
0.0004649529 0.0 0.00014276578 0.0 0.00050722575 0.0 3.2068235e-06 1.7081173e-05
0.0 0.00043986845 0.0 0.00030603184 0.0 0.00067388575 0.0 7.078551e-05
0.0 0.00081355404 0.0 0.00010060599 0.00049361016 0.00014047258 0.00037452576 0.0037003795
0.00065261056 0.00043904473 0.00022289745 0.0 0.0003720146 0.0010880404 0.00030810188 0.0

exp_avg f4 [16, 32]
00000000: 27fc 383a 0000 0000 281d 2c3b 0000 0000
00000010: 04d9 b43a 0000 0000 0000 0000 e862 68b9
00000020: 0000 0000 555f 883a 0000 0000 a941 2e39
00000030: 0000 0000 9d98 0d3b 0000 0000 9cdc 373a
00000040: 0000 0000 0310 1aba 0000 0000 7f64 723a
00000050: 187c 6b3b abba 063b d6cc 18ba 8c30 f23a
00000060: 12e2 9639 abe6 78ba dddd a73a 0000 0000
00000070: 0000 0000 0000 0000 4d6f 0239 0000 0000
00000080: 4e17 babb 0000 0000 f113 14bd 0000 0000
00000090: 01d5 75bc 0000 0000 7d60 73bb 0000 0000
000000a0: 0000 0000 b6b7 8dbc 0000 0000 a0bb 65bb
000000b0: 0000 0000 0e77 09bd 0000 0000 ac18 37bc
000000c0: 0000 0000 e0cc 7bbb 0000 0000 fd7f 6cbc
000000d0: 91e8 85bd 51d5 25bd 21df 60bb 2826 e4bc
000000e0: f11d 6ebb 0235 23bb e9d4 c0bc 0000 0000
000000f0: fc3d d6b9 f981 6c3b 2bd8 8c3a 0000 0000
00000100: ef7f 8c3d 0000 0000 16d9 ef3e 0000 0000
00000110: ce57 833e 0000 0000 6def f63c e6a9 26ba
00000120: 0000 0000 663c 853e 0000 0000 ba95 1f3d
00000130: 0000 0000 80e8 df3e 0000 0000 6c32 1f3e
00000140: 0000 0000 1e96 4b3d 0000 0000 5928 0d3e
00000150: b57a 5f3f 39c1 f43e b154 fdbb 86ec af3e
00000160: 07f0 b23d 2944 90bb 0548 8e3e 0000 0000
00000170: 5b28 c43c fffa 773c 1436 b83c 0000 0000
00000180: 44bf 003c 0000 0000 22eb 16bd 0000 0000
00000190: 950d a4bb 0000 0000 972f 483b 0000 0000
000001a0: 0000 0000 eb0f 29bb 0000 0000 59d8 08bc
000001b0: 0000 0000 da83 61bd 0000 0000 47e9 483b
000001c0: 0000 0000 435e 83bc 0000 0000 d209 6c3c
000001d0: 0fe2 59bd f1a0 54bd 51ef 2ebb 65a9 943b
000001e0: e634 823c c783 0fba ec93 d6bc 0000 0000
000001f0: 0000 0000 da76 87bb 549c 04bc 0000 0000
00000200: 2d88 b639 0000 0000 c265 2b3c 0000 0000
00000210: 25ed 893b 0000 0000 0000 0000 6047 b738
00000220: 0000 0000 a1e5 983b 0000 0000 0e54 353b
00000230: 0000 0000 2dca 483c 0000 0000 953d fa3a
00000240: 0000 0000 1ede 6a3b 0000 0000 0000 0000
00000250: 1b97 913c a1da 4a3c a554 d33a 98a7 293b
00000260: 735b 373a 070d a13a d3b3 fc3b 0000 0000
00000270: 0000 0000 ffe3 893a 7526 b93a 0000 0000
00000280: 0000 0000 0000 0000 0000 0000 0000 0000
00000290: 0000 0000 0000 0000 0000 0000 0000 0000
000002a0: 0000 0000 0000 0000 0000 0000 0000 0000
000002b0: 0000 0000 0000 0000 0000 0000 0000 0000
000002c0: 0000 0000 0000 0000 0000 0000 0000 0000
000002d0: 0000 0000 0000 0000 0000 0000 0000 0000
000002e0: 0000 0000 0000 0000 0000 0000 0000 0000
000002f0: 0000 0000 0000 0000 0000 0000 0000 0000
00000300: 0000 0000 0000 0000 0000 0000 0000 0000
00000310: 0000 0000 0000 0000 0000 0000 0000 0000
00000320: 0000 0000 0000 0000 0000 0000 0000 0000
00000330: 0000 0000 0000 0000 0000 0000 0000 0000
00000340: 0000 0000 0000 0000 0000 0000 0000 0000
00000350: 0000 0000 0000 0000 0000 0000 0000 0000
00000360: 0000 0000 0000 0000 0000 0000 0000 0000
00000370: 0000 0000 0000 0000 0000 0000 0000 0000
00000380: 7a8b 6a3d 0000 0000 cb39 233e 0000 0000
00000390: ca8a 023e 0000 0000 94cd e93c 0000 0000
000003a0: 0000 0000 4837 0b3e 0000 0000 ce7f 013a
000003b0: 0000 0000 96ee d93d 0000 0000 2b5e c43d
000003c0: 0000 0000 42b1 61bc 0000 0000 e7f2 e53d
000003d0: 97ee bb3e 1a8b 0c3e ebd0 7fbb 90aa 4f3e
000003e0: ec3a aa3d 0000 0000 ae8c bc3d 0000 0000
000003f0: bf47 b33c 4982 a2bb f19c 26bc 0000 0000
0.00070566166 0.0 0.0026262496 0.0 0.0013797586 0.0 0.0 -0.0002216209
0.0 0.0010404388 0.0 0.00016618393 0.0 0.0021605857 0.0 0.00070137694
0.0 -0.000587702 0.0 0.00092465425 0.003593212 0.002055804 -0.0005828863 0.0018477603
0.00028778665 -0.00094948214 0.0012807209 0.0 0.0 0.0 0.00012439229 0.0
-0.0056790477 0.0 -0.03615183 0.0 -0.015004397 0.0 -0.003713637 0.0
0.0 -0.017299514 0.0 -0.003505446 0.0 -0.033560805 0.0 -0.011175316
0.0 -0.0038421676 0.0 -0.014434812 -0.06538499 -0.040486638 -0.0034312683 -0.027850226
-0.0036333764 -0.0024903421 -0.023539023 0.0 -0.00040863443 0.0036088212 0.0010745575 0.0
0.06860339 0.0 0.4684531 0.0 0.25652927 0.0 0.030143464 -0.00063577143
0.0 0.26022643 0.0 0.03896115 0.0 0.4373207 0.0 0.15546578
0.0 0.04970371 0.0 0.13784923 0.8729661 0.47803667 -0.0077310433 0.3436014
0.08737188 -0.0044026566 0.27789322 0.0 0.023945024 0.015135526 0.022486724 0.0
0.007858101 0.0 -0.036845334 0.0 -0.005006502 0.0 0.0030545944 0.0
0.0 -0.0025796841 0.0 -0.008352363 0.0 -0.055057384 0.0 0.0030656622
0.0 -0.016036158 0.0 0.014406638 -0.053194102 -0.0519113 -0.0026692937 0.004536795
0.015894365 -0.00054746534 -0.026193582 0.0 0.0 -0.0041340413 -0.008093912 0.0
0.00034815204 0.0 0.010461273 0.0 0.004209178 0.0 0.0 8.7394146e-05
0.0 0.004666046 0.0 0.0027668509 0.0 0.012255234 0.0 0.0019091839
0.0 0.0035837959 0.0 0.0 0.017772248 0.012381227 0.0016123248 0.0025887247
0.0006994523 0.0012287208 0.0077118664 0.0 0.0 0.0010520219 0.0014125841 0.0
0.0 0.0 0.0 0.0 0.0 0.0 0.0 0.0
0.0 0.0 0.0 0.0 0.0 0.0 0.0 0.0
0.0 0.0 0.0 0.0 0.0 0.0 0.0 0.0
0.0 0.0 0.0 0.0 0.0 0.0 0.0 0.0
0.0 0.0 0.0 0.0 0.0 0.0 0.0 0.0
0.0 0.0 0.0 0.0 0.0 0.0 0.0 0.0
0.0 0.0 0.0 0.0 0.0 0.0 0.0 0.0
0.0 0.0 0.0 0.0 0.0 0.0 0.0 0.0
0.05726192 0.0 0.15940015 0.0 0.12748256 0.0 0.02854041 0.0
0.0 0.13595307 0.0 0.0004940004 0.0 0.1064121 0.0 0.095882736
0.0 -0.013775172 0.0 0.112279706 0.36705467 0.13724938 -0.0039034437 0.20279908
0.0831202 0.0 0.0920652 0.0 0.021884797 -0.004959379 -0.010169254 0.0
