pytorch-DS-051/rackhun/2_A3C_pendulum/gradient_base/saved_model/A3C_CRITIC.pth (torch_old, 12819 bytes, 7 tensors)

fc1.weight f4 [64, 3]
-0.28310138 -0.9536166 0.07192001 0.38488144 1.1714582 0.1841882 -0.17888178 -0.39975265
-0.019567223 0.47899953 -0.17220086 0.3719436 -0.11949339 1.4524922 0.1273615 -0.47860542
0.2971294 -0.27733657 0.5948588 -1.1805059 -0.11235743 -0.39731923 -1.4441001 -0.27403963
0.10675398 0.23896295 -0.15356281 0.12303443 0.30825758 0.084905624 0.32555178 0.7628719
0.107788995 -0.1922396 -0.8192489 0.023793988 0.72558546 1.0073575 0.19233426 -0.08681237
0.07995285 0.07783646 -0.47434905 -0.15836163 -0.020432064 -0.29287836 0.5560263 -0.08978636
-0.39074722 -0.49876907 0.010506161 0.7721998 0.1361041 -0.22722216 0.46389818 -0.66401917
0.19388609 0.03096581 0.0624536 0.016493982 0.5166587 -0.3568694 -0.19589777 0.29619566
-0.32571334 0.34582013 0.019998694 -0.53348297 0.0042159227 -0.1339432 0.015347338 -0.06016048
-0.18888459 0.22290382 -0.02083828 -0.22541168 1.2326002 0.16361384 0.75449777 -1.1230618
-0.31697914 -0.28330958 1.0715948 0.06403899 -0.32932624 0.40339443 -0.21450296 -0.40109742
-0.00046797446 -0.03488511 0.29520905 -0.4825875 -0.0422142 -0.59865254 -0.5656993 0.038991112
0.15817814 -0.01569639 -0.01956913 -0.26936224 0.12107775 -0.048371587 0.43683574 0.15764876
-0.39573726 -0.67345667 -1.04932 -0.2004549 -0.17301014 -0.14624067 -0.0021982172 -0.3840559
-0.0015627391 0.005285736 -0.2102657 -0.4482289 -0.0014054283 0.37698412 0.16500841 -0.009968907
-0.17330949 -0.08519202 -0.018370248 0.24619374 -0.06560726 0.3622548 0.59034145 0.47464857
0.14024152 0.4826076 -0.08711405 -0.45700732 0.84718496 0.43488255 0.3081819 -0.62379986
0.22619204 -0.05918719 0.75369436 -0.40470007 -0.3319269 -0.24588239 -0.32990828 0.023712091
0.15138142 1.0116073 -0.18970342 0.023299553 0.19812727 -0.10600888 1.0821157 1.2438159
0.3104578 -0.4055911 -0.9548165 -0.16167217 0.48243248 0.71998674 -0.098451264 0.8122579
-1.0760463 -0.24216478 0.013848756 -0.33728507 -0.055566654 0.85335183 0.44742557 0.32028162
0.7151096 -1.6361175 -0.29349783 0.88184094 -0.6848027 -0.31277806 0.67063 -0.24268743
0.24442011 0.47818175 0.36844954 0.075080924 0.8853816 1.1027902 0.24998705 0.037832614
-0.841711 -0.13575704 -0.41949952 0.031178242 -0.02738678 0.44557425 -1.2408519 -0.24392246
00000000: aaf2 90be 3820 74bf cc4a 933d 2e0f c53e
00000010: 58f2 953f d59b 3c3e c92c 37be 61ac ccbe
00000020: 714b a0bc 6d3f f53e 6c55 30be 646f be3e
00000030: f3b8 f4bd 44eb b93f 0e6b 023e c50b f5be
00000040: 5821 983e 0fff 8dbe ab48 183f d11a 97bf
00000050: a71b e6bd 6d6d cbbe 46d8 b8bf ec4e 8cbe
00000060: d5a1 da3d b4b2 743e 923f 1dbe 7af9 fb3d
00000070: f0d3 9d3e 00e3 ad3d b9ae a63e 934b 433f
00000080: 7ac0 dc3d 75da 44be 4cba 51bf 9ceb c23c
00000090: f8bf 393f 17f1 803f 46f3 443e afca b1bd
000000a0: 52be a33d b968 9f3d e1dd f2be 8d29 22be
000000b0: 2561 a7bc 27f4 95be bd57 0e3f e9e1 b7bd
000000c0: 0510 c8be a95e ffbe 0822 2c3c e3ae 453f
000000d0: e05e 0b3e edac 68be 1084 ed3e 29fd 29bf
000000e0: 138a 463e 03ac fd3c 59cf 7f3d 631e 873c
000000f0: bf43 043f 96b7 b6be 6d99 48be f5a6 973e
00000100: e6c3 a6be 560f b13e 4dd4 a33c 5792 08bf
00000110: b925 8a3b 6828 09be 6773 7b3c d66a 76bd
00000120: f66a 41be e640 643e 0ab5 aabc 52d2 66be
00000130: d8c5 9d3f 638a 273e c426 413f 7dc0 8fbf
00000140: 174b a2be f40d 91be 052a 893f e026 833d
00000150: 739d a8be b789 ce3e aaa6 5bbe a45c cdbe
00000160: 785a f5b9 b0e3 0ebd a425 973e b515 f7be
00000170: cce8 2cbd 4b41 19bf abd1 10bf 25b5 1f3d
00000180: 73f9 213e b795 80bc 714f a0bc d9e9 89be
00000190: 9df7 f73d 4921 46bd efa8 df3e ad6e 213e
000001a0: 139e cabe a867 2cbf 1e50 86bf 0d44 4dbe
000001b0: 9229 31be 1dc0 15be f70f 10bb faa2 c4be
000001c0: d3d4 ccba f833 ad3b e44f 57be 427e e5be
000001d0: 5936 b8ba 1004 c13e f7f7 283e a054 23bc
000001e0: 0b78 31be 2779 aebd 347d 96bc 361a 7c3e
000001f0: 195d 86bd 7679 b93e 9e20 173f 2305 f33e
00000200: 799b 0f3e 5818 f73e da68 b2bd ddfc e9be
00000210: 1de1 583f eda8 de3e 05ca 9d3e 59b1 1fbf
00000220: e39e 673e 446e 72bd 1df2 403f d934 cfbe
00000230: 53f2 a9be 98c8 7bbe bde9 a8be dc3f c23c
00000240: bb03 1b3e 597c 813f 9d41 42be b4de be3c
00000250: e0e1 4a3e 2f1b d9bd c482 8a3f 5c35 9f3f
00000260: 53f4 9e3e a3a9 cfbe db6e 74bf 648d 25be
00000270: 6401 f73e 0d51 383f d1a0 c9bd 22f0 4f3f
00000280: e3bb 89bf 0bfa 77be e5e5 623c a1b0 acbe
00000290: dc99 63bd 4475 5a3f f714 e53e f4fb a33e
000002a0: 6c11 373f 4c6c d1bf 5945 96be 54c0 613f
000002b0: 3b4f 2fbf 7224 a0be 68ae 2b3f 0e83 78be
000002c0: 4449 7a3e 3dd4 f43e 6ba5 bc3e 07c4 993d
000002d0: 5ea8 623f 3b28 8d3f 9bfc 7f3e 5ff6 1a3d
000002e0: 5f7a 57bf e503 0bbe a4c8 d6be 8369 ff3c
000002f0: 3e5a e0bc 4f22 e43e 3cd4 9ebf cfc6 79be

fc1.bias f4 [64]
-0.352963 -0.63372654 -0.23514348 0.5003868 -0.3794217 0.41293415 0.5208144 -0.09220095
-0.45583123 -0.82471323 -0.5187331 -0.34812352 -0.89624214 -0.7468087 -0.35750926 -0.20401917
0.0011187973 1.0629135 0.47318664 0.59476656 -0.8952835 -0.31014246 -0.5670851 0.0648803
-0.7041794 -0.13062945 -1.076942 -0.0784427 -0.45718274 -0.22712293 -0.48680475 -0.012959402
-0.24633427 -0.20313969 0.3335931 0.27938756 -0.2563676 -0.4278302 -0.5065927 0.995082
-0.41088822 0.3189079 0.5497622 0.4150797 -1.0811404 -0.047023233 0.58405006 -0.65133333
-0.4455063 -0.5244962 -0.63061965 -0.64213073 0.4716512 0.6261661 -0.17754126 0.90544105
-0.3053001 -1.122275 0.8608543 0.3164768 -1.0678718 -0.35138994 -0.661057 -0.79686326
00000000: 91b7 b4be e73b 22bf 74c9 70be 5919 003f
00000010: 9043 c2be 1b6c d33e 1854 053f dad3 bcbd
00000020: b662 e9be 6820 53bf b1cb 04bf 3f3d b2be
00000030: 2070 65bf db2e 3fbf 740b b7be 67ea 50be
00000040: 9ca4 923a 8d0d 883f 8545 f23e 9f42 183f
00000050: 4d31 65bf feca 9ebe 7d2c 11bf f6df 843d
00000060: 1a45 34bf bac3 05be 3cd9 89bf 91a6 a0bd
00000070: db13 eabe ea92 68be 793e f9be ac53 54bc
00000080: 0d3f 7cbe da03 50be b7cc aa3e e30b 8f3e
00000090: 9d42 83be 8f0c dbbe 0fb0 01bf b2bd 7e3f
000000a0: f15f d2be e547 a33e 37bd 0c3f 5485 d43e
000000b0: cf62 8abf 6f9b 40bd 4e84 153f c8bd 26bf
000000c0: 6719 e4be 6245 06bf 4a70 21bf ae62 24bf
000000d0: 447c f13e 6c4c 203f 60cd 35be fcca 673f
000000e0: 4b50 9cbe b5a6 8fbf f360 5c3f 3f09 a23e
000000f0: 06b0 88bf 62e9 b3be 083b 29bf 3bff 4bbf

fc2.weight f4 [32, 64]
-0.40861276 -0.04153914 -0.3931365 -0.26496875 0.032029647 0.061211232 -0.06586341 0.0003956436
-0.065479204 0.06555327 -0.057331417 -0.11688277 0.13697557 0.05941954 -0.11625479 -0.06853347
-0.08956852 0.028050609 0.056652583 -0.0037635088 -0.03994249 0.1955239 -0.3366158 -0.0589596
-0.03825868 -0.09031537 -0.06933507 -0.058717616 -0.18939081 -0.066338755 -0.12298145 -0.14602295
0.016706754 -0.14826913 0.003601657 0.13866678 -0.02514195 0.024674697 -0.20053343 0.19648649
-0.008381185 -0.19507676 -0.10388093 -0.08915697 0.10808929 -0.21517193 -0.055113647 -0.29244772
-0.039197467 -0.11877614 0.0968286 -0.64996284 0.09393163 -0.13377573 -0.24239777 -0.16787252
-0.084604435 -0.0019720567 -0.13553652 -0.04726285 -0.01934505 0.09671788 -0.18883261 -0.17822966
0.031677544 0.11929594 -0.13678919 0.2933501 0.005395877 0.2898713 0.09427385 -0.022607362
0.1046061 -0.10063126 0.21149153 0.19562317 -0.28886962 -0.13658376 0.055033628 -0.07105522
0.28564316 0.315156 0.008822896 -0.1920888 -0.34998536 0.23543154 0.09314601 -0.22121498
0.12807806 0.15853293 -0.40176508 0.045098133 0.17280568 0.14816633 -0.0287958 0.18809867
-0.04670815 -0.02811827 0.22046268 0.032550223 0.042377323 0.04145063 0.028412646 0.03893326
-0.08222902 -0.0121500455 0.19169635 0.048382036 -0.72456706 -0.13301438 0.27105895 0.2310608
0.1550176 -0.014539097 -0.039791547 0.58591086 0.08734795 0.21505383 0.09949489 0.38782176
-0.14258543 -0.47383654 0.3623514 0.029644975 -0.14575107 -0.10789815 0.1475785 -0.2362886
0.12428424 0.09513593 0.0038290066 0.15111892 0.36141816 0.061998367 0.1605667 0.035629023
-0.047659613 -0.14943437 0.26750252 -0.0129974 -0.2827419 0.10761185 -0.04923741 -0.012444288
-0.0013744333 0.060579963 -0.13151905 -0.044900298 -0.4589096 -0.008520128 -0.079664044 0.12108474
-0.09207559 0.20594859 -0.27477452 0.12621602 -0.038903993 -0.068612926 -0.13201305 -0.08669826
0.022732385 -0.18658978 0.01429953 -0.13879147 0.04398718 -0.059807632 0.01878919 -0.094272
0.047079075 0.08527788 -0.053633116 0.059493646 -0.6504418 0.011855653 0.01495959 -0.036150698
-0.04070936 -0.21325961 0.019955708 0.13503504 -0.07884569 0.07895328 0.050546456 0.17169806
-0.07267033 -0.49416006 -0.019453755 -0.011522218 -0.22880648 0.18131402 -0.056219082 0.013193127
-0.4983196 -0.3308751 0.03887652 -0.29307535 0.058178216 0.23397681 0.20123103 0.08909347
-0.6754749 -0.6556801 0.24623483 -0.10451541 0.3552941 -0.3032839 0.050092988 0.20761964
0.26855972 -0.2157543 -0.09057635 0.37916481 -0.0076094414 -0.6967757 -0.4075525 0.63011724
-0.36438242 0.44708362 -0.022809755 0.3523825 -0.27320665 0.24789149 0.05601321 0.31854457
-0.39366776 0.4373277 -0.48384118 0.22750978 0.022142727 0.5045472 0.0068119457 0.118803926
0.013743188 -0.057814166 0.008638266 -0.2990343 0.08593797 0.6888217 -0.44237748 -0.6247277
-0.444369 -0.7159107 -0.31448573 -0.06997804 0.09101674 -0.20630264 -0.46429646 -0.28574145
-0.049991515 0.15610035 -0.017268619 -0.19789657 -0.15431839 0.3702754 0.2514749 0.002012081
00000000: b135 d1be f224 2abd 3049 c9be fca9 87be
00000010: 8531 033d a1b8 7a3d 65e3 86bd 636e cf39
00000020: f619 86bd cb40 863d 59d4 6abd 3c60 efbd
00000030: 5343 0c3e e761 733d fe16 eebd 475b 8cbd
00000040: b36f b7bd 64ca e53c 8a0c 683d 33a5 76bb
00000050: bd9a 23bd 6b37 483e e858 acbe 9f7f 71bd
00000060: 22b5 1cbd 44f7 b8bd 8cff 8dbd e281 70bd
00000070: aaef 41be 9ddc 87bd b3dd fbbd 0a87 15be
00000080: 9adc 883c ddd3 17be c709 6c3b aafe 0d3e
00000090: 7ef6 cdbc 9722 ca3c a358 4dbe c133 493e
000000a0: 3d51 09bc 34c2 47be 86bf d4bd ee97 b6bd
000000b0: eb5d dd3d 0856 5cbe d9be 61bd b5bb 95be
000000c0: 868d 20bd e840 f3bd 134e c63d f763 26bf
000000d0: 3a5f c03d 81fc 08be 1f37 78be c6e6 2bbe
000000e0: 1745 adbd 9f3d 01bb 16ca 0abe b196 41bd
000000f0: 8379 9ebc 0614 c63d 565d 41be d681 36be
00000100: 50c0 013d 6e51 f43d 7712 0cbe fc31 963e
00000110: e6cf b03b 036a 943e a612 c13d 1333 b9bc
00000120: b93b d63d c317 cebd 3c91 583e 7151 483e
00000130: b8e6 93be 9ddc 0bbe f16a 613d 6685 91bd
00000140: d23f 923e 215c a13e e88d 103c edb2 44be
00000150: 4831 b3be f714 713e 56c3 be3d 2e86 62be
00000160: e526 033e 7556 223e 27b4 cdbe d2b8 383d
00000170: f9f3 303e eab8 173e 2be5 ebbc f09c 403e
00000180: 0c51 3fbd 4958 e6bc f8c0 613e 6253 053d
00000190: d893 2d3d 23c8 293d a3c1 e83c 7b78 1f3d
000001a0: b067 a8bd fc10 47bc 0c4c 443e 3e2c 463d
000001b0: 3a7d 39bf ec34 08be 3dc8 8a3e 349b 6c3e
000001c0: efbc 1e3e 6535 6ebc 76fc 22bd 41fe 153f
000001d0: 7be3 b23d 1237 5c3e fac3 cb3d 9390 c63e
000001e0: ea01 12be b49a f2be 1f86 b93e 05da f23c
000001f0: c53f 15be b5f9 dcbd d11e 173e a4f5 71be
00000200: bc88 fe3d a0d6 c23d 12f0 7a3b ebbe 1a3e
00000210: cd0b b93e 00f2 7d3d 996b 243e bdef 113d
00000220: ba36 43bd 5305 19be 17f6 883e 0cf3 54bc
00000230: 8cc3 90be 9a63 dc3d 2bad 49bd 20e3 4bbc
00000240: 5426 b4ba b222 783d eeac 06be 60e9 37bd
00000250: 33f6 eabe 0298 0bbc e726 a3bd 47fb f73d
00000260: 2092 bcbd 30e4 523e 3faf 8cbe c63e 013e
00000270: cb59 1fbd ef84 8cbd 6e2e 07be db8e b1bd
00000280: 4439 ba3c 6411 3fbe 9348 6a3c 5a1f 0ebe
00000290: e72b 343d d9f8 74bd caeb 993c ae11 c1bd
000002a0: fdd5 403d 2ba6 ae3d 66ae 5bbd 9caf 733d
000002b0: 5b83 26bf 363e 423c 1119 753c c112 14bd
000002c0: dcbe 26bd ba60 5abe 277a a33c a046 0a3e
000002d0: d979 a1bd 42b2 a13d cd09 4f3d 9ed1 2f3e
000002e0: 2fd4 94bd 8c02 fdbe 7b5d 9fbc afc7 3cbc
000002f0: 3f4c 6abe 62aa 393e fb45 66bd fc27 583c
00000300: bf23 ffbe 7668 a9be fc3c 1f3d f90d 96be
00000310: 484c 6e3d 9e97 6f3e 820f 4e3e a376 b63d
00000320: eceb 2cbf a7da 27bf fc24 7c3e 2d0c d6bd
00000330: 1ce9 b53e 0748 9bbe 4e2e 4d3d 3e9a 543e
00000340: a980 893e b2ee 5cbe 1880 b9bd e421 c23e
00000350: 9f58 f9bb e45f 32bf b9aa d0be 5d4f 213f
00000360: 5590 babe 25e8 e43e 86db babc 7b6b b43e
00000370: bee1 8bbe 44d7 7d3e 1c6e 653d 4618 a33e
00000380: d28e c9be 6be9 df3e 08ba f7be 53f8 683e
00000390: aa64 b53c 012a 013f be36 df3b 794f f33d
000003a0: 1c2b 613c 8cce 6cbd 8387 0d3c 061b 99be
000003b0: 3f00 b03d 9e56 303f 4d7f e2be 28ee 1fbf
000003c0: 5584 e3be ec45 37bf 4604 a1be a650 8fbd
000003d0: fc66 ba3d 0041 53be 44b8 edbe b44c 92be
000003e0: e7c3 4cbd c5d8 1f3e eb76 8dbc 66a5 4abe
000003f0: a405 1ebe bd94 bd3e 51c1 803e 1edd 033b

fc2.bias f4 [32]
-0.045364723 0.38256377 0.26994666 0.28669623 0.19444522 -0.08902826 0.7928296 0.4663625
-0.28672475 -0.34150994 0.72702014 0.38159543 -0.24240148 0.2201171 -0.024226097 0.39232138
0.84284437 -0.17449047 0.40785447 -0.035114262 -0.004009982 0.22909297 -0.068659715 0.46720144
0.023929862 0.48675293 0.56045395 -0.27590114 -0.13416104 -0.080912046 0.19838174 -0.23133771
00000000: 5cd0 39bd 66df c33e 7336 8a3e d9c9 923e
00000010: a61c 473e 7354 b6bd e1f6 4a3f 11c7 ee3e
00000020: 96cd 92be 64da aebe fe1d 3a3f 7a60 c33e
00000030: 1838 78be 6166 613e cf75 c6bc 59de c83e
00000040: a6c4 573f a1ad 32be 4dd2 d03e f9d3 0fbd
00000050: 2b66 83bb 5997 6a3e 779d 8cbd 0735 ef3e
00000060: 8f08 c43c ae37 f93e e979 0f3f ea42 8dbe
00000070: 8361 09be 37b5 a5bd 9524 4b3e cbe3 6cbe

fc3.weight f4 [16, 32]
-0.054207604 0.028709797 -0.06357604 0.0051669152 -0.014941749 0.12943777 -0.22275627 0.081966184
0.013767923 -0.1703394 0.036820307 0.26129502 -0.25560138 0.13371722 -0.16166832 -0.14188826
-0.21821584 -0.0035574124 -0.19384518 -0.09105719 -0.08193071 -0.023004994 -0.03689408 0.015229416
-0.08402387 -0.2856239 0.0649409 -0.0053995927 -0.14368106 0.02630651 0.035163574 -0.065924846
-0.18004756 -0.011502833 -0.076468684 0.0161834 -0.15230516 0.22363012 0.135225 0.18964142
-0.27644032 -0.20148858 0.29576916 -0.46829152 -0.2519046 0.08283129 0.018735211 0.10867304
0.26618356 -0.02737494 0.11629035 0.0012633883 -0.022310708 0.7211706 -0.13936588 0.09324236
0.14613721 0.2602379 -0.043971978 -0.108217634 -0.084739186 -0.12647468 0.47629192 0.1271998
0.028746305 -0.010384228 -0.10056539 -0.25949723 -0.15880616 0.09820342 0.18733673 0.08197269
0.0045735515 0.04159326 0.006841183 -0.34738055 0.11045401 -0.103139095 -0.10294606 0.23799546
0.27652535 0.0104606515 0.23732683 -0.039307915 0.01211631 0.6340193 0.26073262 -0.003996038
-0.123954706 0.0565613 0.16028531 -0.11294574 0.0905741 -0.14176624 0.7391463 0.17657346
-0.03415303 -0.04615982 -0.15504241 -0.07997756 0.013124734 -0.1409275 -0.10350742 0.15099391
-0.16427384 -0.06916058 -0.14058316 -0.13656595 -0.098731585 0.14998257 0.08318613 0.08989315
-0.13000432 0.11211363 -0.14739163 -0.15967435 0.05975698 -0.16418187 -0.04597172 -0.12754342
0.14149402 0.13444819 -0.09542759 0.11302258 -0.13919741 -0.13643312 0.037373483 0.07698051
0.055026278 0.1240276 0.0661336 -0.23947985 -0.07210073 0.25389174 0.07940779 -0.12481968
-0.07414879 0.21532731 0.056295365 -0.43286693 -0.023800235 0.095722824 -0.046164483 0.20524012
0.40890402 -0.055444784 0.30266884 -0.07107873 -0.03759435 0.7304865 -0.10123123 0.07556573
0.025523812 0.097008586 0.17317335 0.036027856 -0.07209779 -0.08373577 0.7470098 -0.035074208
0.053584743 0.06253545 0.08255674 -0.0024597007 -0.20330356 0.26776657 0.19952661 0.11923388
-0.12005397 -0.10284385 0.18930337 -0.5642343 0.0358743 -0.08424623 -0.1355624 0.1338517
0.34257746 0.044458445 0.42490003 0.06651674 0.0050085424 0.6223223 0.050581142 0.053701643
-0.015266056 0.07508662 0.13969892 -0.20147443 -0.08043122 -0.08157845 0.59990627 -0.11017229
-0.053474206 0.12103127 0.03515914 -0.13394639 -0.0032550292 0.137729 0.22782911 -0.08560682
0.1434038 -0.04435167 0.24336076 -0.5278233 -0.22398561 0.0678172 0.08963639 0.019211195
0.15931748 -0.013169165 0.07292833 -0.11462197 -0.021629129 0.48102748 -0.14317912 0.014141133
-0.093927436 0.14537658 0.25117478 0.09808194 -0.010982918 -0.051419746 0.48072246 -0.09329981
0.15838271 -0.42292917 -0.09075239 0.39179006 0.19357035 -0.2015792 0.0004912459 -0.09458934
-0.059022505 0.08826888 -0.25625926 0.58232987 -0.04845708 -0.0124658095 -0.09620033 -0.035519693
-0.08751146 -0.106219284 -0.23351237 -0.016186107 -0.17639796 0.1487973 0.036969416 -0.16170126
0.12954728 -0.30757847 -0.3159276 0.00791668 -0.10863147 0.1660705 0.08465182 0.11392853
00000000: cb08 5ebd cf30 eb3c 2834 82bd 3a4f a93b
00000010: 3dce 74bc 568b 043e 381a 64be e3dd a73d
00000020: db92 613c 746d 2ebe e4d0 163d 76c8 853e
00000030: 2fde 82be 2bed 083e 618c 25be 284b 11be
00000040: f973 5fbe 7a23 69bb 5a7f 46be 317c babd
00000050: 4acb a7bd f874 bcbc 3f1e 17bd cd84 793c
00000060: b514 acbd 4c3d 92be bcff 843d 11ef b0bb
00000070: 2121 13be c080 d73c ae07 103d 9b03 87bd
00000080: 635e 38be 6176 3cbc 9d9b 9cbd 0d93 843c
00000090: e2f5 1bbe 4bff 643e 6c78 0a3e 5c31 423e
000000a0: 9689 8dbe 0653 4ebe 0e6f 973e e8c3 efbe
000000b0: a4f9 80be 74a3 a93d 967a 993c f98f de3d
000000c0: 3649 883e 6941 e0bc a329 ee3d 4798 a53a
000000d0: f2c4 b6bc a39e 383f eeb5 0ebe daf5 be3d
000000e0: fea4 153e e73d 853e f61b 34bd 35a1 ddbd
000000f0: bd8b adbd 9482 01be 89dc f33e aa40 023e
00000100: 5f7d eb3c 9c22 2abc 3af5 cdbd d2dc 84be
00000110: 159e 22be e01e c93d 33d5 3f3e 4ce1 a73d
00000120: bbdd 953b b25d 2a3d 012c e03b dddb b1be
00000130: b635 e23d 973a d3bd 62d5 d2bd 15b5 733e
00000140: bb94 8d3e 2763 2b3c ce05 733e 5601 21bd
00000150: 7d83 463c 174f 223f bf7e 853e 32f1 82bb
00000160: f7db fdbd d2ac 673d d521 243e 1950 e7bd
00000170: ea7e b93d 2b2b 11be b138 3d3f accf 343e
00000180: 0ce4 0bbd 1412 3dbd 70c3 1ebe 46cb a3bd
00000190: 2009 573c 4c4f 10be b3fb d3bd 269e 1a3e
000001a0: 6737 28be 10a4 8dbd 08f5 0fbe f2d7 0bbe
000001b0: c933 cabd 0895 193e 7d5d aa3d e619 b83d
000001c0: da1f 05be d59b e53d d5ed 16be ac81 23be
000001d0: bcc3 743d 4b1f 28be d84c 3cbd be9a 02be
000001e0: cfe3 103e c9ac 093e 8a6f c3bd 6278 e73d
000001f0: c489 0ebe 20b5 0bbe f014 193d f5a7 9d3d
00000200: 3c63 613d 2f02 fe3d 0e71 873d 353a 75be
00000210: 8ca9 93bd 19fe 813e 8da0 a23d 76a1 ffbd
00000220: 52db 97bd c37e 5c3e f895 663d bca0 ddbe
00000230: b6f8 c2bc 540a c43d f816 3dbd 772a 523e
00000240: de5b d13e 121a 63bd 69f7 9a3e ba91 91bd
00000250: 88fc 19bd 2a01 3b3f 5252 cfbd 35c2 9a3d
00000260: 5017 d13c 70ac c63d 5b54 313e f291 133d
00000270: 02a8 93bd a97d abbd 093c 3f3f f9a9 0fbd
00000280: ad7b 5b3d 9612 803d 8213 a93d ee32 21bb
00000290: cf2e 50be b318 893e b450 4c3e e430 f43d
000002a0: dbde f5bd cc9f d2bd bed8 413e a971 10bf
000002b0: eef0 123d 4a89 acbd dfd0 0abe 6c10 093e
000002c0: 5066 af3e 0f1a 363d 7f8c d93e ee39 883d
000002d0: b31e a43b 8450 1f3f 2c2e 4f3d 41f6 5b3d
000002e0: 7b1e 7abc 04c7 993d 3c0d 0f3e 504f 4ebe
000002f0: 20b9 a4bd 9a12 a7bd 7593 193f 02a2 e1bd
00000300: c507 5bbd 3edf f73d 0803 103d 3e29 09be
00000310: 5452 55bb d508 0d3e 094c 693e a152 afbd
00000320: 72d8 123e 19aa 35bd 9033 793e 6e1f 07bf
00000330: 7c5c 65be bfe3 8a3d 4993 b73d cc60 9d3c
00000340: 1f24 233e 7bc3 57bc 735b 953d ecbe eabd
00000350: 922f b1bc 3c49 f63e 8c9d 12be 36b0 673c
00000360: 075d c0bd 99dd 143e fb99 803e 2fdf c83d
00000370: b2f1 33bc 839d 52bd 4121 f63e f913 bfbd
00000380: 142f 223e 2c8a d8be 64dc b9bd b598 c83e
00000390: 4e37 463e c76a 4ebe f4c6 003a 0eb8 c1bd
000003a0: 95c1 71bd 51c6 b43d 6a34 83be 9213 153f
000003b0: ee7a 46bd 653d 4cbc ae04 c5bd 197d 11bd
000003c0: 3539 b3bd 7f89 d9bd de1d 6fbe ba98 84bc
000003d0: aba1 34be 525e 183e 3e6d 173d 0495 25be
000003e0: 0ba8 043e ed7a 9dbe 43c1 a1be f6b4 013c
000003f0: 2d7a debd 630e 2a3e ef5d ad3d 5c53 e93d

fc3.bias f4 [16]
-0.1441248 0.75383854 1.0122807 -0.12065467 0.97338843 0.9031269 0.94172925 -0.0043279002
0.32883576 -0.25353357 0.73210186 -0.0065253857 -0.14004003 -0.20737888 0.4101733 -0.26243952
00000000: 7495 13be 90fb 403f 6a92 813f cc19 f7bd
00000010: fc2f 793f 5333 673f 2b15 713f 0fd1 8dbb
00000020: 295d a83e 27cf 81be 076b 3b3f e7d2 d5bb
00000030: a766 0fbe 215b 54be 3c02 d23e 795e 86be

fc_value.weight f4 [1, 16]
0.011021581 0.27540007 0.2795682 -0.1284761 0.2502245 0.29610506 0.26249304 -0.114990115
-0.27369183 -0.13852005 0.1802069 0.026259055 -0.03570071 0.008336458 0.21153806 -0.1345285
00000000: dc93 343c 3d01 8d3e 9023 8f3e 3d8f 03be
00000010: 6d1d 803e 159b 973e 7d65 863e f07f ebbd
00000020: 5621 8cbe 33d8 0dbe 2888 383e 3b1d d73c
00000030: e83a 12bd a495 083c 6f9d 583e d7c1 09be
