pytorch-DS-051/rackhun/1_A2C_pendulum/saved_model/A2C_ACTOR.pth (torch_old, 38768 bytes, 24 tensors)

fc1.weight f4 [64, 3]
0.60984486 0.49055862 0.095442675 0.6600095 -0.0026428972 -0.41529202 0.37645918 0.22789803
0.5296522 -0.17877758 0.59342086 -0.39894807 -0.25643072 -0.0910224 0.466697 -0.5901713
0.23051886 -0.5657927 -0.68100935 -0.37743706 -0.19860716 0.123838544 0.21711579 0.26902035
-0.59073716 0.39932197 -0.54972315 0.3366908 0.48457515 -0.49710092 0.26448587 0.28755775
0.24948233 -0.5854876 -0.14551038 0.42436835 0.21676037 -0.0890213 -0.18216342 -0.14716166
-0.5526336 -0.40353885 -0.42579135 0.57426786 0.2948047 -0.14815766 0.40103188 -0.22651511
-0.12151688 -0.44601694 -0.47251338 0.37654716 0.15707818 0.47154313 0.16314071 -0.108776934
-0.5541693 0.123772666 -0.74927545 -0.24017847 0.50450563 -0.32911623 0.46179548 -0.66345686
0.2830229 0.2651467 0.43048945 0.12557635 -0.38560447 0.3926059 -0.3124769 -0.5639
-0.3458257 0.25695738 -0.17335862 0.6587776 0.09082553 -0.43803883 -0.24973854 -0.72458285
-0.28232577 -0.35251868 -0.41992494 -0.29631922 -0.47889048 -0.102817975 -0.16750649 -0.38850075
0.19598041 -0.13034585 -0.3430004 -0.1259937 0.15924227 -0.54448795 -0.29241136 0.20098671
-0.6463254 -0.26923367 0.4358493 -0.48394814 -0.3210892 -0.4008482 -0.43052396 0.020521296
0.53703284 0.34581688 -0.27857894 0.10076326 -0.6824294 -0.24795148 -0.06605752 -0.36420602
0.67133933 -0.15121509 0.40979907 0.006806455 -0.2971678 -0.66835475 0.21746089 -0.30725795
0.46495718 0.36076862 0.500118 0.6500698 -0.40319574 -0.15702789 -0.19995293 0.2337098
0.5634719 -0.26284274 -0.38898924 -0.14616926 0.04458038 0.40962416 0.457252 0.11904978
0.5448074 0.4096644 0.6352953 -0.13906488 0.54924613 0.28437728 0.32763934 0.28497684
-0.31939977 -0.54605705 0.1692939 0.40064475 -0.4185726 -0.37116215 -0.55182654 0.33757457
0.41607916 -0.5561385 -0.37516838 0.558318 -0.34989333 0.65730333 -0.38526738 -0.5142334
0.4391993 0.20860635 -0.25554785 0.4578755 -0.15551627 0.6794718 0.24857111 0.0682181
-0.3613766 0.019970074 0.18079452 -0.099467516 -0.19506603 0.018254042 -0.05841522 -0.16598748
-0.07858992 0.2705222 0.64868325 -0.21753585 -0.68262357 -0.24036774 0.30691206 0.14525305
0.42314947 0.18036051 -0.66194487 -0.18379253 -0.4084348 0.60955995 -0.14066043 0.55889225
00000000: cb1e 1c3f 802a fb3e 7377 c33d 62f6 283f
00000010: 7534 2dbb 28a1 d4be 42bf c03e 1a5e 693e
00000020: 4997 073f 7811 37be 6eea 173f ec42 ccbe
00000030: e34a 83be f469 babd e9f2 ee3e 7715 17bf
00000040: 230d 6c3e cad7 10bf a156 2ebf 6e3f c1be
00000050: ad5f 4bbe 109f fd3d 9a53 5e3e 09bd 893e
00000060: 8d3a 17bf ee73 cc3e a8ba 0cbf bd62 ac3e
00000070: 3c1a f83e 0384 febe b16a 873e c53a 933e
00000080: 4c78 7f3e 84e2 15bf ac00 15be cf46 d93e
00000090: 6ef6 5d3e cd50 b6bd 0c89 3abe 8cb1 16be
000000a0: 6579 0dbf a59c cebe 5301 dabe 3803 133f
000000b0: a4f0 963e a4b6 17be 0d54 cd3e 94f3 67be
000000c0: d8dd f8bd 555c e4be 46ed f1be caca c03e
000000d0: 1ad9 203e 1a6e f13e 5c0e 273e 71c6 debd
000000e0: 0ade 0dbf 867c fd3d 84d0 3fbf 58f1 75be
000000f0: 4827 013f ec81 a8be 7570 ec3e 4fd8 29bf
00000100: 61e8 903e 4fc1 873e 1d69 dc3e 1697 003e
00000110: f36d c5be a403 c93e f9fc 9fbe c05b 10bf
00000120: 1110 b1be eb8f 833e ec84 31be a6a5 283f
00000130: bc02 ba3d a046 e0be 76bb 7fbe 437e 39bf
00000140: 018d 90be 547d b4be 6700 d7be 27b7 97be
00000150: 2231 f5be 3b92 d2bd d286 2bbe 92e9 c6be
00000160: 17af 483e 6279 05be c09d afbe 7e04 01be
00000170: 6810 233e 9063 0bbf f1b6 95be 76cf 4d3e
00000180: 9575 25bf ffd8 89be a427 df3e 0dc8 f7be
00000190: ce65 a4be fa3b cdbe a36d dcbe 471c a83c
000001a0: fc7a 093f e90e b13e e6a1 8ebe f85c ce3d
000001b0: b1b3 2ebf fee6 7dbe 2a49 87bd 3679 babe
000001c0: e5dc 2b3f 21d8 1abe 2fd1 d13e af08 df3b
000001d0: 6126 98be 4c19 2bbf 11ae 5e3e ea50 9dbe
000001e0: de0e ee3e aab6 b83e bc07 003f f96a 263f
000001f0: ac6f cebe ebcb 20be 76c0 4cbe 9f51 6f3e
00000200: b23f 103f 5393 86be 9929 c7be 65ad 15be
00000210: eb99 363d 42ba d13e ef1c ea3e 5fd0 f33d
00000220: 7f78 0b3f 88bf d13e b6a2 223f 0667 0ebe
00000230: 659b 0c3f e699 913e 58c0 a73e 7ce8 913e
00000240: 5e88 a3be 65ca 0bbf 615b 2d3e 4f21 cd3e
00000250: 264f d6be f708 bebe 8144 0dbf 93d6 ac3e
00000260: 5408 d53e 185f 0ebf 1216 c0be eeed 0e3f
00000270: 3825 b3be 0845 283f c441 c5be cda4 03bf
00000280: bbde e03e e79c 553e 2bd7 82be a86e ea3e
00000290: a83f 1fbe ddf1 2d3f 6d89 7e3e eeb5 8b3d
000002a0: 5b06 b9be 4898 a33c 3322 393e a0b5 cbbd
000002b0: 64bf 47be 8089 953c cc44 6fbd 9ff8 29be
000002c0: c1f3 a0bd e381 8a3e 1b10 263f b8c1 5ebe
000002d0: 6bc0 2ebf f622 76be 9423 9d3e 37bd 143e
000002e0: 0ca7 d83e 6db0 383e 3875 29bf 1c34 3cbe
000002f0: 5e1e d1be 1f0c 1c3f 4a09 10be 9013 0f3f

fc1.bias f4 [64]
-0.25882354 -0.4000306 0.048101977 0.48661327 0.14465736 0.07252878 0.24654862 -0.03907015
-0.3345922 -0.05250203 -0.15624535 0.18209007 -0.39647943 0.15601265 -0.069388375 0.5371662
0.2391042 -0.23191626 -0.07828976 0.37690926 -0.132562 -0.28561038 0.13665351 0.18933995
0.0053221267 0.25374413 0.61718607 -0.36287242 0.16975752 -0.42676687 0.013137954 -0.5004706
0.40928075 -0.31656235 -0.29879525 0.12131249 -0.24840152 0.47931698 -0.15835755 0.09091877
0.5064398 -0.41065013 0.22666691 -0.37363854 0.12901612 0.46950638 -0.25109664 -0.38897437
0.03978932 0.5315027 -0.3513448 0.37183532 0.41827378 -0.31889376 -0.027843572 0.5298756
-0.3460636 -0.38541883 -0.26727697 0.5624872 -0.052888107 0.15957072 -0.26676816 -0.15865654
00000000: 8584 84be d0d0 ccbe 9406 453d 6025 f93e
00000010: 0f21 143e f889 943d 3e77 7c3e 0608 20bd
00000020: ab4f abbe 5e0c 57bd c8fe 1fbe d275 3a3e
00000030: 5aff cabe c8c1 1f3e 7e1b 8ebd b983 093f
00000040: bbd7 743e 757b 6dbe 6256 a0bd 40fa c03e
00000050: 55be 07be 863b 92be e6ee 0b3e 55e2 413e
00000060: 3c65 ae3b c0ea 813e e8ff 1d3f 6aca b9be
00000070: ead4 2d3e 3081 dabe 9340 573c d71e 00bf
00000080: 3f8d d13e 7614 a2be b1fb 98be af72 f83d
00000090: f85c 7ebe 0969 f53e 7b28 22be 9f33 ba3d
000000a0: 0aa6 013f bc40 d2be 5f1b 683e 8d4d bfbe
000000b0: cd1c 043e 2463 f03e bd8f 80be a627 c7be
000000c0: 20fa 223d 9010 083f 77e3 b3be 3361 be3e
000000d0: fb27 d63e 0b46 a3be 3418 e4bc eda5 073f
000000e0: 402f b1be 9e55 c5be 87d8 88be 29ff 0f3f
000000f0: 33a1 58bd 8266 233e d695 88be dc76 22be

fc2.weight f4 [32, 64]
0.072193965 -0.062610775 0.0759755 -0.09424332 -0.03128863 0.13216135 0.022156239 0.06011177
0.042286094 -0.02935352 -0.04069414 0.07063243 -0.12530828 0.14459452 0.010903109 0.12833707
0.035442416 -0.052225143 0.06517208 -0.075388156 -0.11723897 0.018481057 -0.0033608463 0.07182227
0.13529526 0.049217552 -0.037073597 0.15224214 0.02525561 0.041146554 -0.11194276 -0.0041469643
0.083774425 -0.0040968806 -0.02098564 0.0067705256 0.05882477 -0.06594259 0.017843137 0.005906679
-0.08658404 -0.12862168 -0.12099626 0.12511036 -0.11564057 0.01955522 0.031071516 0.0796631
-0.014657012 0.080814004 0.113741495 0.082827315 -0.089778736 0.09238451 -0.025118928 -0.09434873
-0.09934737 -0.124094054 0.09221386 -0.038582016 0.0027028918 0.01485369 0.065099105 -0.031323254
0.06690185 0.055210292 0.038863193 0.19483119 0.06098447 0.027532732 0.060397554 0.09339133
-0.063587345 -0.061951846 0.14039455 -0.06061198 -0.011551986 -0.18801887 0.09019511 0.047575403
-0.20433648 0.014492342 -0.14347048 -0.06456661 -0.048067655 0.022973277 -0.021654233 0.0050361506
0.02053029 0.084058784 -0.23681496 -0.11398748 -0.05892672 -0.03423596 0.047084298 -0.10491659
-0.09812977 -0.049678624 0.0048392434 0.051447462 0.025513785 0.060233943 0.10510516 0.063900724
-0.07279269 -0.0151513135 0.043758057 -0.016220417 -0.074205354 0.124345906 0.09634607 0.1434326
-0.11391982 -0.008078343 -0.1299 -0.1029807 0.059553903 -0.070858665 0.14637092 0.14231722
0.08531876 0.033755124 0.044124395 0.09451801 0.06340709 0.060114104 0.06588674 0.08173528
0.07731085 -0.0913654 0.017643703 -0.11964759 -0.107253455 0.05865994 -0.015484095 -0.105993286
-0.023173273 0.109827876 0.00014807438 -0.010007967 -0.09246944 0.088044375 -0.1192707 -0.09977631
-0.055384934 -0.021344488 -0.106165305 -0.076295644 0.04982919 0.07001257 -0.04416364 -0.122039795
-0.05935976 -0.04774661 -0.033720434 0.12040153 -0.05795914 0.099167734 0.041165248 0.12389633
-0.06963683 0.10907753 0.075741485 -0.0656023 -0.08294313 -0.015814275 -0.043158293 0.08098228
0.06826596 0.02258809 -0.03497145 0.10932614 -0.020543639 -0.0594963 -0.062156767 0.07410871
-0.11004156 -0.11524547 -0.004074037 -0.062423717 0.01614669 -0.05209376 0.052011147 0.103592455
-0.11679965 -0.08625795 -0.016763926 -0.013381908 0.06487204 -0.030883813 0.11176579 0.10742618
-0.031355638 -0.11036499 -0.00024367498 -0.062190067 -0.1005604 -0.028204016 0.05816835 -0.009437674
0.073459275 -0.00969249 0.09590957 -0.108497694 0.102005616 -0.041360784 0.042465176 -0.10664817
0.0042076027 -0.07853873 -0.029118061 0.02263935 0.09909575 0.095474094 -0.027007252 0.0073379725
0.04549143 -0.07048014 -0.052837703 0.037274394 0.06209829 0.045085125 0.020904567 -0.03313228
0.08657949 -0.019328423 0.01577855 -0.028826606 0.14595824 0.11118158 0.07848662 0.0070880586
-0.09474562 -0.063852236 -0.00085491844 -0.11262676 0.09665056 0.002506911 0.009683073 0.08064016
0.008122916 -0.04592239 0.079451874 0.026954135 -0.035737824 0.047708202 0.1312025 0.002437123
-0.042134438 -0.09916592 0.076584145 -0.1407507 0.10615367 -0.020750582 -0.07783672 -0.020545969
00000000: 6eda 933d 143a 80bd 0b99 9b3d a402 c1bd
00000010: 8228 00bd 4e55 073e 0081 b53c c237 763d
00000020: 2f34 2d3d cb76 f0bc e6ae 26bd bca7 903d
00000030: d050 00be 9610 143e f4a2 323c cb6a 033e
00000040: 112c 113d 08ea 55bd f178 853d 1b65 9abd
00000050: fc1a f0bd 9665 973c a541 5cbb 8e17 933d
00000060: d78a 0a3e 5898 493d 7cda 17bd 5de5 1b3e
00000070: dae4 ce3c 4a89 283d 3f42 e5bd 42e3 87bb
00000080: ed91 ab3d 203f 86bb 14ea abbc 49db dd3b
00000090: 3ef2 703d e90c 87bd c52b 923c d18c c13b
000000a0: f952 b1bd 67b5 03be e3cc f7bd ee1c 003e
000000b0: f7d4 ecbd 4532 a03c b189 fe3c 6826 a33d
000000c0: f723 70bc d081 a53d 4df1 e83d 5ea1 a93d
000000d0: eadd b7bd 1734 bd3d 36c6 cdbc e839 c1bd
000000e0: a276 cbbd 0625 febd 9fda bc3d 2d08 1ebd
000000f0: 0023 313b e45c 733c ae52 853d d04c 00bd
00000100: d603 893d 3024 623d 032f 1f3d d481 473e
00000110: daca 793d 538c e13c 6d63 773d f443 bf3d
00000120: 153a 82bd 38c1 7dbd 97c3 0f3e 4444 78bd
00000130: 8b44 3dbc 0588 40be 37b8 b83d 6dde 423d
00000140: 953d 51be 4a71 6d3c ede9 12be 803b 84bd
00000150: 97e2 44bd 7432 bc3c 3864 b1bc 4b06 a53b
00000160: 242f a83c 0327 ac3d 9f7f 72be 4572 e9bd
00000170: 255d 71bd 023b 0cbd 77db 403d 82de d6bd
00000180: 43f8 c8bd d07b 4bbd 8492 9e3b 93ba 523d
00000190: 4902 d13c deb7 763d 6041 d73d 62de 823d
000001a0: 5514 95bd 373d 78bc a63b 333d aee0 84bc
000001b0: faf8 97bd 11a9 fe3d 1751 c53d ffdf 123e
000001c0: cb4e e9bd 075b 04bc 8104 05be 8ce7 d2bd
000001d0: cbee 733d 591e 91bd 42e2 153e 9bbb 113e
000001e0: 9abb ae3d d042 0a3d c8bb 343d a992 c13d
000001f0: 94db 813d 353a 763d a1ef 863d d464 a73d
00000200: 2755 9e3d c81d bbbd 8789 903c cc09 f5bd
00000210: b3a7 dbbd 6845 703d 00b1 7dbc 0213 d9bd
00000220: e0d5 bdbc 70ed e03d 6a44 1b39 75f8 23bc
00000230: 9e60 bdbd 9c50 b43d 3244 f4bd 8657 ccbd
00000240: 50db 62bd a3da aebc 326d d9bd e440 9cbd
00000250: b119 4c3d c062 8f3d efe4 34bd 00f0 f9bd
00000260: 3823 73bd f391 43bd 701e 0abd 1495 f63d
00000270: 9066 6dbd 7418 cb3d e49c 283d 5cbd fd3d
00000280: c19d 8ebd 0a64 df3d 5a1e 9b3d 805a 86bd
00000290: 16de a9bd f08c 81bc c0c6 30bd 0ada a53d
000002a0: 06cf 8b3d a80a b93c 393e 0fbd 62e6 df3d
000002b0: 224b a8bc 64b2 73bd 1898 7ebd 4fc6 973d
000002c0: 785d e1bd d105 ecbd 807f 85bb 03b0 7fbd
000002d0: 1046 843c 4460 55bd a409 553d 4828 d43d
000002e0: a834 efbd 02a8 b0bd 8054 89bc ca3f 5bbc
000002f0: a2db 843d 0d00 fdbc 76e5 e43d 4202 dc3d
00000300: c56e 00bd 0a07 e2bd 0183 7fb9 03bb 7ebd
00000310: 9cf2 cdbd 1c0c e7bc f041 6e3d 79a0 1abc
00000320: d171 963d 40cd 1ebc 3d6c c43d 0a34 debd
00000330: 52e8 d03d ed69 29bd f7ef 2d3d 5b6a dabd
00000340: eedf 893b ead8 a0bd 0089 eebc 2876 b93c
00000350: b6f2 ca3d ec87 c33d 503e ddbc 6073 f03b
00000360: 3955 3a3d e457 90bd 596c 58bd 09ad 183d
00000370: c75a 7e3d 2eab 383d 0e40 ab3c b7b5 07bd
00000380: 9650 b13d a456 9ebc 0542 813c c625 ecbc
00000390: 1476 153e 2bb3 e33d 98bd a03d f242 e83b
000003a0: fe09 c2bd f6c4 82bd 9b1c 60ba dca8 e6bd
000003b0: bbf0 c53d fd4a 243b c0a5 1e3c ab26 a53d
000003c0: fb15 053c 1e19 3cbd aab7 a23d ebce dc3c
000003d0: d361 12bd ad69 433d f359 063e 24b8 1f3b
000003e0: 2995 2cbd 8017 cbbd 26d8 9c3d f420 10be
000003f0: 1867 d93d 20fd a9bc dc68 9fbd 0550 a8bc

fc2.bias f4 [32]
-0.092281245 -0.07032626 -0.029445918 -0.10598011 0.06633974 0.12714599 0.04646426 0.059308015
0.024601433 -0.08348097 0.064338066 0.13473164 -0.07332732 0.008916875 -0.09118828 0.05393047
0.12822889 0.025848147 -0.0005745399 0.07693557 0.059243456 0.004071128 -0.05258043 0.019852279
0.047158584 0.13883738 0.25793967 -0.073024616 0.027527304 0.13474375 -0.012818752 -0.07303122
00000000: f3fd bcbd 3707 90bd 9138 f1bc 1a0c d9bd
00000010: 21dd 873d 8f32 023e 4f51 3e3d f6ec 723d
00000020: f288 c93c 12f8 aabd adc3 833d 17f7 093e
00000030: a22c 96bd 1618 123c ecc0 babd 32e6 5c3d
00000040: 6f4e 033e 7ebf d33c b89c 16ba 6590 9d3d
00000050: 44a9 723d 1967 853b 945e 57bd 3fa1 a23c
00000060: 5c29 413d 632b 0e3e ab10 843e ee8d 95bd
00000070: f180 e13c 44fa 093e be05 52bc 6491 95bd

fc3.weight f4 [16, 32]
-0.14857832 0.17037585 -0.10142362 -0.17435202 0.13474411 0.106255725 0.2278093 -0.033983286
-0.08830104 0.029577306 -0.048224647 0.1580519 -0.1360906 -0.097315654 -0.17577635 -0.036120154
-0.016904853 -0.05602599 -0.021163728 0.060515128 0.010756747 0.110891394 -0.18314926 -0.098642334
0.15840359 0.17128828 0.10764995 -0.084573865 -0.0046282182 -0.15150654 0.043141108 0.13072118
0.01989587 0.26990566 0.047909096 -0.0033714701 0.0048084636 0.04524402 0.21378711 -0.16036326
-0.063264616 -0.11361046 0.108078696 0.1052633 0.14038816 0.03608343 0.14442554 -0.034800153
-0.11536589 -0.010142863 0.2507456 -0.017021663 0.19109064 0.14760903 -0.1295605 -0.1527559
0.24470074 0.10330097 0.037673034 -0.15840557 0.1921332 -0.008798663 -0.084197104 -0.05807905
0.17071521 0.036010224 0.061030015 -0.037358314 -0.043397047 0.0037927646 0.045924045 0.1722627
0.0056673954 -0.18733868 -0.08023659 -0.06536019 0.14020292 0.17194375 0.09526033 -0.07425069
0.13476661 0.07924882 -0.22792932 0.025769264 -0.19183609 -0.09934803 -0.029131638 -0.02271896
0.0045982166 0.1065185 0.02123226 -0.01889461 -0.19907174 -0.003924277 0.03103323 0.15307471
0.19008219 -0.006430042 0.034638863 -0.13613448 0.021780726 -0.09016051 0.19091916 -0.21356846
-0.21277916 -0.0032664312 0.07070388 0.11273276 0.06656459 -0.053844776 -0.024398008 0.10134511
-0.12944317 -0.1954006 0.20464778 0.09077291 0.28401566 0.11641931 0.045634557 -0.057714976
0.20631918 -0.09586789 0.21197712 -0.09374489 -0.08620868 0.0054167644 -0.10583718 -0.08939708
-0.08779031 0.205466 -0.16374792 -0.064659685 0.12819311 0.07208745 0.06677409 -0.1642711
0.007495244 -0.05052885 -0.11539246 0.21381858 -0.027076613 0.10889916 -0.062095705 0.08043121
-0.25000617 0.08183559 -0.0025969984 0.12227365 0.033254575 0.12424439 -0.047152434 0.013207124
0.061774254 0.08752149 -0.0699387 0.009146369 -0.05797173 -0.18796748 -0.16120894 0.07455772
0.15467578 -0.12521747 -0.034879275 0.032550916 -0.18019144 0.06763381 0.0631392 0.08061377
-0.026387783 -0.17125319 -0.22379765 -0.09553245 0.15238492 0.045341995 0.05439591 -0.10055952
0.11304279 0.25845253 -0.052838333 -0.15428098 -0.045521013 0.02311358 0.21215203 0.083981104
-0.1355021 0.011510269 0.15364711 0.018946905 0.10394897 0.23958829 0.12788247 0.114346586
0.13097826 0.05673581 0.012620709 0.11616591 0.029742628 -0.11954376 0.23504716 -0.065428436
-0.21933953 -0.06749126 0.083865836 -0.02383238 -0.0071028005 -0.11826008 -0.15103714 0.16348647
-0.17899732 0.044657182 0.11368948 -0.056625232 0.14851123 0.1507611 -0.0016556341 -0.054832455
-0.048934355 0.14039536 0.1698195 -0.09283006 -0.002167029 -0.23900479 -0.022620711 -0.11946147
-0.18053178 -0.122878775 -0.08108951 0.17666556 0.14852367 0.20175402 0.02909826 0.07520834
0.19208254 0.035683062 -0.017248388 -0.022405064 -0.012475572 0.050597038 -0.09164652 0.020055698
0.23903485 0.037021693 -0.14730747 -0.15839872 -0.16461672 0.03776645 0.093579896 -0.099102505
-0.24100466 -0.15946439 0.1624733 0.15924452 -0.004027925 0.15152541 0.11581149 -0.0117486175
00000000: ea24 18be 0277 2e3e 30b7 cfbd 5689 32be
00000010: 5cfa 093e 9a9c d93d d746 693e 0f32 0bbd
00000020: 2dd7 b4bd 1b4c f23c 3587 45bd 5bd8 213e
00000030: 565b 0bbe 6e4d c7bd b7fe 33be baf2 13bd
00000040: 0c7c 8abc 827b 65bd 8e5f adbc b6de 773d
00000050: 113d 303c 071b e33d 7b8b 3bbe fe04 cabd
00000060: 8d34 223e 3266 2f3e 9477 dc3d 1035 adbd
00000070: 4fa8 97bb 8824 1bbe bbb4 303d c6db 053e
00000080: aafc a23c 1331 8a3e 543c 443d e2f3 5cbb
00000090: 5190 9d3b cb51 393d 02eb 5a3e 4436 24be
000000a0: e190 81bd 9aac e8bd 5d58 dd3d 4994 d73d
000000b0: eac1 0f3e 38cc 133d 4ae4 133e 9b8a 0ebd
000000c0: f444 ecbd 402e 26bc ba61 803e 0471 8bbc
000000d0: 44ad 433e d226 173e 82ab 04be 0b6c 1cbe
000000e0: d592 7a3e 758f d33d 0a4f 1a3d 1235 22be
000000f0: 91be 443e 4428 10bc 886f acbd 4ce4 6dbd
00000100: f8cf 2e3e 757f 133d 9cfa 793d 0805 19bd
00000110: 1ac1 31bd 0890 783b da1a 3c3d a265 303e
00000120: 8fb5 b93b b6d5 3fbe 1553 a4bd 90db 85bd
00000130: 5b91 0f3e 0612 303e d917 c33d bf10 98bd
00000140: 4200 0a3e 354d a23d 4e66 69be 101a d33c
00000150: ae70 44be fb76 cbbd 79a5 eebc 1d1d babc
00000160: a3ac 963b 5f26 da3d 47ef ad3c dfc8 9abc
00000170: 76d9 4bbe 3997 80bb 6639 fe3c 9ebf 1c3e
00000180: e8a4 423e 1ab3 d2bb 7be1 0d3d d666 0bbe
00000190: 7e6d b23c 13a6 b8bd 5080 433e b1b1 5abe
000001a0: c8e2 59be 9f11 56bb 32cd 903d 6fe0 e63d
000001b0: 0453 883d 578c 5cbd 55de c7bc 068e cf3d
000001c0: c08c 04be 1817 48be 308f 513e 26e7 b93d
000001d0: 806a 913e 3f6d ee3d 4deb 3a3d 8a66 6cbd
000001e0: 5645 533e 6256 c4bd 8810 593e 52fd bfbd
000001f0: 2d8e b0bd 1d7f b13b 2ac1 d8bd d115 b7bd
00000200: 68cb b3bd ae65 523e 89ad 27be 4c6c 84bd
00000210: 0e45 033e 96a2 933d dbc0 883d af36 28be
00000220: aa9a f53b 57f7 4ebd e252 ecbd 42f3 5a3e
00000230: c6cf ddbc 8606 df3d 1158 7ebd 1eb9 a43d
00000240: cf00 80be 6b99 a73d 6732 2abb 9b6a fa3d
00000250: f335 083d d873 fe3d e922 41bd b162 583c
00000260: 0007 7d3d 783e b33d 053c 8fbd a7da 153c
00000270: c473 6dbd 8c7a 40be f513 25be b8b1 983d
00000280: 5463 1e3e 0239 00be 92dd 0ebd 1c54 053d
00000290: 1b84 38be 9883 8a3d 204f 813d d518 a53d
000002a0: 312b d8bc ff5c 2fbe 362b 65be 84a6 c3bd
000002b0: cb0a 1c3e 87b8 393d 3fce 5e3d 26f2 cdbd
000002c0: fa82 e73d e453 843e 026d 58bd d5fb 1dbe
000002d0: 3e74 3abd b158 bd3c 623e 593e 49fe ab3d
000002e0: 10c1 0abe 9195 3c3c ab55 1d3e 8a36 9b3c
000002f0: 33e3 d43d a256 753e 9ff3 023e 8b2e ea3d
00000300: 2a1f 063e cf63 683d 17c7 4e3c 65e8 ed3d
00000310: d0a6 f33c 5cd3 f4bd 34b0 703e 58ff 85bd
00000320: 8b9a 60be dc38 8abd dac1 ab3d 203c c3bc
00000330: 9cbe e8bb 5732 f2bd 7ba9 1abe ff68 273e
00000340: 134b 37be 73ea 363d 08d6 e83d dcef 67bd
00000350: 5413 183e 1e61 1a3e dd01 d9ba ff97 60bd
00000360: 646f 48bd cdc3 0f3e 2ae5 2d3e b01d bebd
00000370: b704 0ebb acbd 74be 124f b9bc 37a8 f4bd
00000380: 53dd 38be dea7 fbbd 4212 a6bd d1e7 343e
00000390: 9716 183e 9b98 4e3e 795f ee3c d506 9a3d
000003a0: 49b1 443e 6728 123d 7e4c 8dbc d38a b7bc
000003b0: 5766 4cbc d73e 4f3d 2cb1 bbbd d94b a43c
000003c0: 8dc5 743e 0fa4 173d c5d7 16be 4633 22be
000003d0: 4991 28be feb0 1a3d d1a6 bf3d 41f6 cabd
000003e0: edc9 76be a24a 23be 675f 263e ff10 233e
000003f0: affc 83bb 7a29 1b3e 932e ed3d 467d 40bc

fc3.bias f4 [16]
0.15428157 0.21054599 0.084308214 0.19546442 0.15549609 0.12589082 0.11914896 0.19384667
-0.15722577 0.17050666 0.121252015 -0.024971988 0.030793669 0.04987327 -0.08256887 0.19113892
00000000: fdfb 1d3e 5e99 573e c9a9 ac3d d327 483e
00000010: 5e3a 1f3e 86e9 003e 5f04 f43d be7f 463e
00000020: cbff 20be 4c99 2e3e fa52 f83d 0e92 ccbc
00000030: 0143 fc3c ea47 4c3d de19 a9bd ecb9 433e

fc_mu.weight f4 [1, 16]
-0.1788005 -0.26281342 0.23698072 -0.3803836 -0.2820297 0.31696394 -0.2512436 0.31400296
-0.22426145 -0.22912836 0.32936472 0.33417425 0.17861563 -0.16462961 -0.26544857 0.103914864
00000000: 7a17 37be 7b8f 86be 13ab 723e a4c1 c2be
00000010: 3266 90be 1949 a23e 00a3 80be ffc4 a03e
00000020: cba4 65be a0a0 6abe 7ea2 a83e e318 ab3e
00000030: 04e7 363e aa94 28be e0e8 87be 51d1 d43d

fc_std.weight f4 [1, 16]
-0.05992452 -0.24614489 0.140492 -0.18515758 -0.19227846 -0.08158823 0.20086932 -0.03343225
0.034354635 -0.2508878 0.074055456 -0.03448238 0.018548356 -0.087298356 -0.25585416 -0.29172796
00000000: 6a73 75bd 680d 7cbe 23dd 0f3e f399 3dbe
00000010: a5e4 44be bb17 a7bd b0b0 4d3e 41f0 08bd
00000020: 72b7 0c3d 5e74 80be 63aa 973d 653d 0dbd
00000030: b9f2 973c 7bc9 b2bd 51ff 82be 5e5d 95be

exp_avg f4 [64, 3]
-1.2389855 -0.27061167 0.32497522 0.21482953 0.051798686 0.13655712 -0.45960096 -0.05474058
-0.15731417 -0.883449 -0.16011167 0.12245473 -0.01684374 -0.0019173552 0.108948186 -0.05625496
-0.03889973 0.013779313 -0.06401239 -0.040492307 -0.16582707 -0.29317337 -0.034095638 -0.092508085
-0.018831044 -0.00922867 -0.08756528 -0.0367955 0.0004301318 -0.013715226 -0.5870157 -0.07732057
-0.11140148 0.0117641715 -0.016259622 0.14791685 0.08964681 0.069486946 0.057851806 0.0623241
0.03061405 -0.14871347 0.005315756 -0.003314452 0.027914273 -0.23546168 -0.06605334 -0.026226392
0.35580552 0.08842517 -0.15401477 -0.27493396 -0.023348976 -0.13621233 0.109024756 0.02149848
0.0030173773 0.8370802 0.19496897 -0.06888022 0.05426493 0.020786399 -0.06343291 0.028899806
-0.026810149 0.29782817 0.25681525 0.07261921 0.049917143 0.43406436 0.10746587 -0.04937615
-0.07140586 -0.044184532 -0.068255104 0.56594765 0.15104616 0.044687413 0.9653108 0.20622617
-0.114488125 -0.01023309 -0.008960441 -0.04398155 -0.04977782 -0.02329678 -0.14762793 -0.08097615
-0.06453571 -0.42663535 0.009906999 -0.015456653 0.12683366 0.03894865 -0.037395995 0.34926358
-0.010338802 -0.0046108332 0.10820712 -0.011921058 -0.0075240773 -0.13990037 0.0068130074 -0.0017198416
0.0058363383 0.03874197 0.023339 -0.0916299 -0.06105423 -0.035115525 -0.29574135 -1.0787249
-0.20647573 0.036650274 0.2590394 0.07429564 0.05252122 -0.11581668 -0.07269654 -0.06639898
-0.28211004 -0.034879256 -0.05403957 1.563345 0.42618245 -0.036876068 -0.15605074 -0.022781841
-0.021644585 -0.052123494 -0.014223965 -0.48538005 -0.1688694 -0.026398452 -0.0025396906 -0.3442242
-0.03501374 -0.117928535 -0.17152117 -0.008498097 -0.11276242 -0.008993525 0.018324781 -0.18444549
-0.023180543 -0.008058585 0.2124036 0.77571505 0.21100771 0.019754212 0.015704285 -0.018835297
0.20377204 -0.043389924 0.0053274306 0.11991996 -0.5149256 -0.09290143 0.018839112 0.023987021
-0.019722255 0.3208977 -0.07093173 -0.051064145 0.03347963 -0.46926984 -0.064201884 -0.101662554
0.018815637 -0.016790997 0.17017522 0.0 0.0 0.0 -0.0405827 -0.014704868
-0.36409327 -0.5278536 -0.13793328 -0.027660666 0.018551562 -0.025692476 0.21552242 -0.5946258
-0.06671014 -0.15354238 -0.055453606 -0.034641635 -0.0056978776 -0.3433511 -0.039798588 -0.12488112
00000000: 1497 9ebf 9d8d 8abe 2763 a63e 46fc 5b3e
00000010: dc2a 543d a1d5 0b3e d150 ebbe a937 60bd
00000020: f716 21be b729 62bf 50f4 23be 8cc9 fa3d
00000030: e2fb 89bc c44f fbba 3a20 df3d 9a6b 66bd
00000040: 5355 1fbd a1c2 613c ee18 83bd 43db 25bd
00000050: 92ce 29be d21a 96be dea7 0bbd e174 bdbd
00000060: 9043 9abc d933 17bc 6d55 b3bd e1b6 16bd
00000070: 5083 e139 d4b5 60bc a946 16bf 3f5a 9ebd
00000080: 7626 e4bd 83be 403c e632 85bc 8477 173e
00000090: bf98 b73d 2c4f 8e3d 04f6 6c3d 8e47 7f3d
000000a0: 51ca fa3c 5848 18be cb2f ae3b 4737 59bb
000000b0: 79ac e43c de1c 71be f946 87bd bbd8 d6bc
000000c0: 242c b63e 4118 b53d 0cb6 1dbe 25c4 8cbe
000000d0: 5a46 bfbc 3f7b 0bbe 5f48 df3d 951d b03c
000000e0: 31bf 453b e34a 563f f2a5 473e 1311 8dbd
000000f0: e744 5e3d 3d48 aa3c 1de9 81bd 49bf ec3c
00000100: f5a0 dbbc ef7c 983e 4a7d 833e 61b9 943d
00000110: eb75 4c3d af3d de3e 1117 dc3d a53e 4abd
00000120: 3c3d 92bd d7fa 34bd 55c9 8bbd f2e1 103f
00000130: d8ab 1a3e 260a 373d 9c1e 773f f42c 533e
00000140: c078 eabd b1a8 27bc d0ce 12bc ff25 34bd
00000150: d4e3 4bbd e4d8 bebc c72b 17be d3d6 a5bd
00000160: 4c2b 84bd f36f dabe f750 223c e73d 7dbc
00000170: afe0 013e 9f88 1f3d 8b2c 19bd add2 b23e
00000180: 1464 29bc 7916 97bb b29b dd3d 8b50 43bc
00000190: 898c f6bb 0b42 0fbe a63f df3b 4f6c e1ba
000001a0: c13e bf3b e6af 1e3d 6e31 bf3c 75a8 bbbd
000001b0: 0014 7abd 4cd5 0fbd 696b 97be a813 8abf
000001c0: 606e 53be 991e 163d d0a0 843e 5028 983d
000001d0: 7e20 573d 4c31 edbd ece1 94bd 30fc 87bd
000001e0: ba70 90be 8ddd 0ebd 9958 5dbd b01b c83f
000001f0: 9634 da3e 5c0b 17bd c4cb 1fbe fca0 babc
00000200: fc4f b1bc 727f 55bd a20b 69bc bc83 f8be
00000210: 1aec 2cbe 9141 d8bc f070 26bb 283e b0be
00000220: 916a 0fbd 8484 f1bd 3fa3 2fbe 9a3b 0bbc
00000230: fcef e6bd 9459 13bc da1d 963c 47df 3cbe
00000240: 1fe5 bdbc 2808 04bc 5480 593e 4395 463f
00000250: 6812 583e 96d3 a13c 46a6 803c 7b4c 9abc
00000260: 9ea9 503e a2b9 31bd ba91 ae3b 9998 f53d
00000270: 2ad2 03bf 1b43 bebd 7b54 9a3c 6e80 c43c
00000280: 9190 a1bc b44c a43e a844 91bd a328 51bd
00000290: f021 093d 2344 f0be 477c 83bd 7534 d0bd
000002a0: 4023 9a3c 468d 89bc 6a42 2e3e 0000 0000
000002b0: 0000 0000 0000 0000 0c3a 26bd b0ec 70bc
000002c0: 6f6a babe 6a21 07bf 623e 0dbe 9f98 e2bc
000002d0: 72f9 973c 0779 d2bc e9b1 5c3e 6539 18bf
000002e0: 539f 88bd 373a 1dbe 5223 63bd 63e4 0dbd
000002f0: 43b5 babb b7cb afbe d803 23bd acc1 ffbd

exp_avg_sq f4 [64, 3]
25.426653 3.6538115 130.58984 0.62552285 0.257439 10.140192 4.660857 0.47344723
14.804395 8.272516 1.1861725 31.15331 0.05544331 0.109440215 4.953841 0.111773595
0.20570135 7.231656 0.20597151 0.46054614 19.098171 1.416416 0.10527289 2.9836373
0.027643835 0.05881634 2.5224304 0.014178009 0.0034281155 0.12006364 6.122277 0.32753983
6.9526157 0.08636046 0.18056257 8.088439 0.26456293 0.5788658 21.603106 0.41032556
0.05154656 1.0473843 0.0048793275 0.009533184 0.49528554 0.5808368 0.16261713 5.3524113
1.852641 0.1385069 2.4030726 1.4109079 0.14875618 4.9581175 0.14598468 0.016457053
0.49472314 9.23246 1.5400776 40.64994 0.066191025 0.030109355 1.1465024 0.3290295
0.80855167 38.85324 1.1915617 0.2501318 8.465952 2.670764 0.34871408 9.095944
0.17712605 0.37283087 14.20207 5.3179407 0.98430014 30.89095 12.412634 1.7287452
41.166218 0.010964426 0.023407126 0.85732055 0.10853399 0.24775301 10.225738 0.72562045
1.697967 68.52751 0.06293785 0.13888589 6.43751 0.38616836 0.9396599 44.820972
0.080685005 0.16899826 7.7899985 0.03347755 0.06908868 3.040929 0.0072051263 0.014525065
0.71200794 0.06344683 0.052875247 2.2326658 0.04608878 0.12628265 5.8332624 8.566422
1.5749559 45.92084 1.0993515 0.22994652 7.7934904 0.40488955 0.85999393 31.848324
1.5723034 0.10759306 2.2370162 34.764885 6.114109 187.64735 0.41099757 0.013187711
0.060025726 0.2540273 0.64494514 29.779306 0.48739976 0.015258799 0.035982963 1.8598545
0.20432527 6.411929 0.65428215 0.10293117 3.6800294 0.094857536 0.20768425 9.006818
0.2669831 0.54286915 24.467302 9.4911175 1.8128741 55.865864 0.14162606 0.34925318
16.400179 0.14868425 0.25318715 11.307215 1.1568605 0.42841274 13.747757 0.3946556
0.94045657 49.969612 0.17309003 0.3129926 10.414099 3.761528 1.0539209 40.28704
0.11604712 0.29054332 13.853635 0.0 0.0 0.0 0.1392495 0.34846932
15.766579 3.4415836 0.6308485 18.213196 0.1717395 0.3971701 18.191992 5.473736
0.5542389 15.43275 0.10184278 0.21881291 7.8739266 2.9253566 0.29638577 9.264114
00000000: c969 cb41 0cd8 6940 0097 0243 4422 203f
00000010: 0bcf 833e 3a3e 2241 be25 9540 ad67 f23e
00000020: cdde 6c41 3a5c 0441 80d4 973f fb39 f941
00000030: 8618 633d 3122 e03d de85 9e40 8ee9 e43d
00000040: 60a3 523e ba69 e740 32ea 523e b4cc eb3e
00000050: 0ec9 9841 1f4d b53f 5099 d73d eaf3 3e40
00000060: 5375 e23c 67e9 703d 806f 2140 e14a 683c
00000070: 3caa 603b ede3 f53d b1e9 c340 4db3 a73e
00000080: d47b de40 c1dd b03d 65e5 383e 3f6a 0141
00000090: cb74 873e 8d30 143f 29d3 ac41 3116 d23e
000000a0: 7c22 533d b010 863f c4e2 9f3b 1231 1c3c
000000b0: 1196 fd3e b8b1 143f 1b85 263e f446 ab40
000000c0: 5723 ed3f c1d4 0d3e f1cb 1940 a198 b43f
000000d0: 8a53 183e e6a8 9e40 027d 153e f1d0 863c
000000e0: 5a4c fd3e 28b8 1341 4321 c53f 8a99 2242
000000f0: 298f 873d e5a7 f63c 97c0 923f 8e76 a83e
00000100: 3efd 4e3f b869 1b42 1885 983f 4611 803e
00000110: 8a74 0741 cced 2a40 a78a b23e fd88 1141
00000120: 8860 353e b0e3 be3e ae3b 6341 922c aa40
00000130: 18fb 7b3f aa20 f741 269a 4641 8647 dd3f
00000140: 35aa 2442 23a4 333c 4dc0 bf3c 5c79 5b3f
00000150: 1247 de3d f7b2 7d3e 9f9c 2341 43c2 393f
00000160: fc56 d93f 160e 8942 8fe5 803d 1a38 0e3e
00000170: 1500 ce40 dcb7 c53e 8d8d 703f ad48 3342
00000180: 2e3e a53d e10d 2d3e ab47 f940 c11f 093d
00000190: 5e7e 8d3d 959e 4240 fb18 ec3b 8afa 6d3c
000001a0: 2746 363f 69f0 813d b793 583d ffe3 0e40
000001b0: 97c7 3c3d 3d50 013e 16aa ba40 1110 0941
000001c0: 2898 c93f f1ae 3742 8db7 8c3f 1a77 6b3e
000001d0: 4664 f940 af4d cf3e 9028 5c3f 5ec9 fe41
000001e0: 3d41 c93f c059 dc3d 462b 0f40 3e0f 0b42
000001f0: c8a6 c340 b9a5 3b43 466e d23e 4511 583c
00000200: 89dd 753d de0f 823e 201b 253f 053c ee41
00000210: 768c f93e 0b00 7a3c df62 133d b60f ee3f
00000220: a53a 513e 862e cd40 097f 273f 94cd d23d
00000230: 9a85 6b40 ab44 c23d 2eab 543e ed1b 1041
00000240: 02b2 883e 79f9 0a3f 09bd c341 9edb 1741
00000250: 420c e83f a576 5f42 6c06 113e 50d1 b23e
00000260: 9133 8341 af40 183e bfa1 813e 5aea 3441
00000270: 0114 943f ea58 db3e d0f6 5b41 4c10 ca3e
00000280: c3c1 703f e2e0 4742 833e 313e 9140 a03e
00000290: 26a0 2641 e0bc 7040 e1e6 863f ee25 2142
000002a0: 1daa ed3d 18c2 943e 7da8 5d41 0000 0000
000002b0: 0000 0000 0000 0000 6c97 0e3e 926a b23e
000002c0: e843 7c41 e842 5c40 4a7f 213f a0b4 9141
000002d0: 7bdc 2f3e e159 cb3e 3389 9141 d828 af40
000002e0: 9ae2 0d3f 8bec 7641 f392 d03d 7e10 603e
000002f0: 35f7 fb40 0b39 3b40 e0bf 973e d039 1441

exp_avg f4 [64]
-1.2974628 0.14806007 -0.49666804 -0.7794378 -0.0056939647 -0.011807588 0.03171118 -0.31635267
0.021198787 -0.034322582 -0.6211034 0.02697243 0.0114133535 0.059978157 0.0015119144 -0.19025144
0.34189925 -0.30720893 0.09744545 0.71599275 0.042039987 0.039426293 0.20579106 0.38952488
0.006332237 0.47489077 0.87615204 0.008397956 0.032883175 0.08276175 0.022886012 0.054903213
-0.0019325659 0.028764177 -0.0024469881 0.021250037 0.069246806 -0.98423415 0.20186245 2.2921155e-05
-0.29175648 1.3224862 -0.17311999 0.084452584 -0.17206295 -0.36577213 -0.19780028 -0.04520027
-0.015607569 0.65759534 0.031975523 -0.030916153 -0.4382631 0.043906022 -0.019617893 -0.5539148
0.019040577 0.0 0.068797074 -0.44688225 0.031648856 -0.60657763 0.004676154 -0.37374914
00000000: 4313 a6bf 0f9d 173e 464b febe 3c89 47bf
00000010: 7094 babb 9d74 41bc 95e3 013d faf8 a1be
00000020: 14a9 ad3c d695 0cbd a200 1fbf 49f5 dc3c
00000030: 13ff 3a3c a8ab 753d 6e2b c63a 46d1 42be
00000040: 6b0d af3e 7d4a 9dbe 7b91 c73d 4d4b 373f
00000050: 1f32 2c3d 777d 213d e4ba 523e ce6f c73e
00000060: a77e cf3b e224 f33e 804b 603f 9597 093c
00000070: 82b0 063d fe7e a93d 727b bb3c 31e2 603d
00000080: 274e fdba daa2 eb3c a65d 20bb 8f14 ae3c
00000090: 45d1 8d3d c5f6 7bbf 08b5 4e3e ce46 c037
000000a0: 1b61 95be 3a47 a93f 5e46 31be 7af5 ac3d
000000b0: 4531 30be 7c46 bbbe 288c 4abe eb23 39bd
000000c0: e4b6 7fbc 2b58 283f c4f8 023d df43 fdbc
000000d0: 0564 e0be cdd6 333d b4b5 a0bc 5ccd 0dbf
000000e0: fcfa 9b3c 0000 0000 7be5 8c3d c0cd e4be
000000f0: 3ba2 013d ac48 1bbf 6c3a 993b 0c5c bfbe

exp_avg_sq f4 [64]
29.403004 0.84563005 5.180475 9.368605 0.17757429 0.27630314 0.5625223 1.5317572
0.069766745 0.017884834 6.477136 0.28665766 0.7225565 0.46568257 0.015392251 0.71139574
2.0001483 1.5768615 0.16273588 10.6916895 0.099279314 1.214832 1.4204504 3.00282
0.4692885 6.224796 14.095002 0.025756564 0.30126658 2.081649 0.2150382 1.4020557
0.26718777 0.084594555 0.022961602 0.12215775 0.17916098 10.008671 1.3069284 1.0847956
1.687574 40.11635 0.4239096 0.79326844 0.50287247 2.085413 0.76598126 0.32677716
0.8626704 11.12946 0.5217403 0.4303142 1.5192575 1.4209908 0.4345493 4.94511
0.43204832 0.0 0.41895485 3.9987874 0.60665226 6.082291 0.27465862 3.2477963
00000000: 5a39 eb41 367b 583f 74c6 a540 cee5 1541
00000010: 09d6 353e 9b77 8d3e 7601 103f 9f10 c43f
00000020: dee1 8e3d 3783 923c b344 cf40 cbc4 923e
00000030: 76f9 383f f26d ee3e c82f 7c3c 081e 363f
00000040: 6e02 0040 99d6 c93f 3ca4 263e 2911 2b41
00000050: f452 cb3d 9d7f 9b3f 52d1 b53f 342e 4040
00000060: 9546 f03e 8731 c740 2185 6141 6eff d23c
00000070: 9d3f 9a3e bd39 0540 f932 5c3e 9076 b33f
00000080: d6cc 883e e93f ad3d f819 bc3c d82d fa3d
00000090: fa75 373e 8423 2041 6e49 a73f 95da 8a3f
000000a0: 6d02 d83f 2477 2042 ae0a d93e a413 4b3f
000000b0: 40bc 003f 6877 0540 5917 443f 564f a73e
000000c0: f8d7 5c3f 4512 3241 c690 053f 2552 dc3e
000000d0: 0877 c23f 07e3 b53f 3f7d de3e 573e 9e40
000000e0: 7035 dd3e 0000 0000 4081 d63e 22ec 7f40
000000f0: 904d 1b3f 21a2 c240 0ea0 8c3e e5db 4f40

exp_avg f4 [32, 64]
-0.0012280531 0.0040974985 4.2463915e-05 0.013110307 0.0015346948 0.024284974 0.019449525 2.3553883e-05
0.020653864 0.008160507 7.149957e-07 0.0021660372 0.0025827505 0.019010121 0.0014115961 0.009021725
0.02044621 -4.2075996e-07 0.016233265 0.012741095 1.0604681e-05 0.0013226325 0.006709383 0.016105969
0.008374067 0.006309852 0.020335047 0.015458709 0.013409319 0.0049642576 0.0008808637 0.00023632175
0.002558172 0.019743945 0.0009646811 -8.010016e-05 0.007538185 0.007566581 0.004091828 0.017744023
0.0008599636 -0.0012649269 0.0018106308 0.0076158256 0.0008981558 0.0015542256 1.1784359e-06 3.2017303e-07
0.00037595548 0.011640574 0.001089375 0.0025058978 0.014292246 0.00086578017 0.0049300143 -0.0060439566
0.00024899654 0.0 0.002757856 0.0013225111 0.001612004 0.00038307093 0.021593712 2.328974e-06
-0.22589423 -0.28539732 -0.3536119 -0.40363836 -0.13514766 -0.16359667 -0.026895918 -0.11377776
-0.13326031 -0.39141816 -0.1174531 -0.13723299 -0.03009586 -0.09930164 -0.065611154 -0.37094074
-0.19113263 -0.17905147 -0.22464637 -0.29069245 -0.27699995 -0.048839424 -0.47924638 -0.49886787
-0.05038502 -0.69197863 -0.24041133 -0.024018599 -0.03504065 -0.008019021 -0.04874986 -0.032282252
-0.14815655 -0.056745812 -0.13447124 -0.2597636 -8.57663e-05 -0.21992849 -0.24727267 -0.07927055
-0.66168135 -0.12964892 -0.17439122 1.0659146e-05 -0.22150788 -0.44890082 -0.305044 -0.051101834
-0.06301934 -0.62184817 -0.0877767 -0.17609772 -0.2558927 -0.030355202 -0.059192423 -0.7491757
-0.028982075 0.0 -4.7528385e-08 -0.6514253 -0.0893741 -0.22784005 -0.06219401 -0.34642074
6e-45 0.0 6e-45 0.0 6e-45 0.0 0.0 6e-45
0.0 0.0 6e-45 6e-45 0.0 0.0 0.0 6e-45
0.0 6e-45 0.0 0.0 6e-45 0.0 6e-45 0.0
0.0 6e-45 0.0 0.0 0.0 0.0 0.0 0.0
6e-45 0.0 0.0 6e-45 0.0 0.0 0.0 0.0
6e-45 0.0 6e-45 0.0 6e-45 6e-45 6e-45 6e-45
0.0 6e-45 0.0 6e-45 0.0 0.0 0.0 6e-45
0.0 0.0 0.0 6e-45 0.0 6e-45 0.0 6e-45
0.0024617503 0.0 0.053125247 -0.0047311117 0.044545528 -0.0034894529 -0.006570754 0.024484256
-0.00051515835 0.0 0.019974401 0.03764523 0.0 -0.00032966083 0.016641378 -0.0049002944
-0.0006452467 0.042183578 0.0 0.00088224484 0.04809292 0.011270763 0.0 0.0
-0.0025442364 0.0 -0.0048888014 2.5879533e-06 -0.0046677818 8.505825e-07 0.012735004 0.009382813
0.042103883 -4.8002166e-06 0.042601626 0.016243525 -0.003056258 -0.0040198625 0.0 -0.0053843264
0.056101296 0.0 0.05217229 1.07147374e-10 0.041857682 0.04101617 0.05308159 0.018348228
0.018449606 -3.875431e-05 0.025704026 0.055525612 -0.005726986 0.0065581957 -0.0018027453 0.017952243
0.00863685 0.0 0.0 -0.0014373481 0.023264218 0.01667565 -0.0013612468 0.055937268
00000000: a0f6 a0ba 4f44 863b 481b 3238 9dcc 563c
00000010: d027 c93a 48f1 c63c 9c54 9f3c 9495 c537
00000020: 4b32 a93c a6b3 053c 21ee 3f35 13f4 0d3b
00000030: 5d43 293b 1dbb 9b3c 4e05 b93a dbcf 133c
00000040: cf7e a73c cfe4 e1b4 a0fb 843c 07c0 503c
00000050: c2ea 3137 2f5c ad3a 62da db3b aaf0 833c
00000060: 6233 093c e0c2 ce3b af95 a63c 8646 7d3c
00000070: c3b2 5b3c 36ab a23b c3e9 663a 23cd 7739
00000080: 01a7 273b 0ebe a13c a7e2 7c3a 72fb a7b8
00000090: e102 f73b 15f1 f73b be14 863b ea5b 913c
000000a0: 2e6f 613a e7cb a5ba b052 ed3a 2d8e f93b
000000b0: 3772 6b3a 28b7 cb3a c02a 9e35 3fe4 ab34
000000c0: e41b c539 1bb8 3e3c 5cc9 8e3a fd39 243b
000000d0: 062a 6a3c 86f5 623a f58b a13b 620c c6bb
000000e0: c08b 8239 0000 0000 25bd 343b 1c58 ad3a
000000f0: e149 d33a e9d6 c839 4ce5 b03c 784b 1c36
00000100: d150 67be 991f 92be 9e0c b5be b0a9 cebe
00000110: 2664 0abe e385 27be d454 dcbc 5004 e9bd
00000120: 6475 08be f667 c8be 408b f0bd ce86 0cbe
00000130: 988b f6bc a95e cbbd 245f 86bd f2eb bdbe
00000140: 46b8 43be 4559 37be b309 66be a4d5 94be
00000150: f0d2 8dbe d90b 48bd c85f f5be 9c6b ffbe
00000160: 8660 4ebd 8325 31bf 632e 76be a7c2 c4bc
00000170: c986 0fbd 3662 03bc efad 47bd 653a 04bd
00000180: 5ab6 17be 4c6e 68bd d4b2 09be bcff 84be
00000190: 6fdd b3b8 ef34 61be 0c35 7dbe 9958 a2bd
000001a0: f363 29bf b0c2 04be 9d93 32be afd4 3237
000001b0: f6d2 62be 54d6 e5be ba2e 9cbe 2850 51bd
000001c0: 4910 81bd 7131 1fbf 45c4 b3bd f652 34be
000001d0: 5e04 83be 79ab f8bc c173 72bd fbc9 3fbf
000001e0: d16b edbc 0000 0000 0322 4cb3 cfc3 26bf
000001f0: c509 b7bd e74e 69be 25bf 7ebd 0f5e b1be
00000200: 0400 0000 0000 0000 0400 0000 0000 0000
00000210: 0400 0000 0000 0000 0000 0000 0400 0000
00000220: 0000 0000 0000 0000 0400 0000 0400 0000
00000230: 0000 0000 0000 0000 0000 0000 0400 0000
00000240: 0000 0000 0400 0000 0000 0000 0000 0000
00000250: 0400 0000 0000 0000 0400 0000 0000 0000
00000260: 0000 0000 0400 0000 0000 0000 0000 0000
00000270: 0000 0000 0000 0000 0000 0000 0000 0000
00000280: 0400 0000 0000 0000 0000 0000 0400 0000
00000290: 0000 0000 0000 0000 0000 0000 0000 0000
000002a0: 0400 0000 0000 0000 0400 0000 0000 0000
000002b0: 0400 0000 0400 0000 0400 0000 0400 0000
000002c0: 0000 0000 0400 0000 0000 0000 0400 0000
000002d0: 0000 0000 0000 0000 0000 0000 0400 0000
000002e0: 0000 0000 0000 0000 0000 0000 0400 0000
000002f0: 0000 0000 0400 0000 0000 0000 0400 0000
00000300: 5155 213b 0000 0000 dc99 593d 7107 9bbb
00000310: 5f75 363d 4eaf 64bb 7b4f d7bb 3593 c83c
00000320: b10b 07ba 0000 0000 5ba1 a33c e231 1a3d
00000330: 0000 0000 54d6 acb9 8053 883c a692 a0bb
00000340: c625 29ba b0c8 2c3d 0000 0000 7346 673a
00000350: 15fd 443d 02a9 383c 0000 0000 0000 0000
00000360: 34bd 26bb 0000 0000 3d32 a0bb b3ac 2d36
00000370: 31f4 98bb 9653 6435 7aa6 503c 5fba 193c
00000380: 1f75 2c3d 8c11 a1b6 0b7f 2e3d 2411 853c
00000390: 804b 48bb 0db9 83bb 0000 0000 016f b0bb
000003a0: 79ca 653d 0000 0000 9cb2 553d 9c9e eb2e
000003b0: f672 2b3d 9200 283d 156c 593d 064f 963c
000003c0: a123 973c 208c 22b8 4091 d23c d36e 633d
000003d0: 71a9 bbbb 22e6 d63b 184a ecba 9510 933c
000003e0: 9381 0d3c 0000 0000 0000 0000 6665 bcba
000003f0: 9a94 be3c 5f9b 883c dd6b b2ba 7a1e 653d

exp_avg_sq f4 [32, 64]
7.5796546e-05 0.15813091 1.0453156e-05 0.29689163 7.9229125e-05 0.3539212 0.050335556 2.7799924e-06
0.26913124 0.32287654 9.957986e-07 0.00023075039 0.0146927005 0.16678432 6.324649e-05 0.12927094
0.25252992 4.7818057e-06 0.32008424 0.081795685 4.0963446e-06 5.79704e-05 0.21252428 0.38457742
0.035206012 0.2992618 0.13167736 0.04790035 0.034810744 0.004097857 4.780241e-05 3.051866e-06
0.00044889303 0.10761601 2.7631533e-05 1.143333e-05 0.0032767882 0.080166005 0.09282052 0.10594093
3.1229738e-05 0.009131268 9.82577e-05 0.0076203933 2.3194174e-05 8.153848e-05 5.336431e-06 1.0142129e-06
8.9796515e-05 0.22344539 3.1065083e-05 0.0003466814 0.26008838 2.001934e-05 0.03476726 0.013376436
1.9271342e-06 0.0 0.0011520048 0.16612984 0.00014891771 1.3165215e-05 0.1204452 6.3262473e-06
0.55214727 1.140327 7.1482263 2.3036733 5.1407614 1.3879842 0.050708756 1.3446286
1.0116181 2.321645 0.9976537 4.0238204 0.048498556 0.47955188 0.67551386 1.5641342
0.99348515 4.347039 1.4585673 1.4688321 6.6191096 0.36023107 2.7008066 3.4275727
0.14555228 5.558749 1.0665896 0.050270725 0.07601234 0.0049361144 0.5078085 0.28021753
5.321127 0.21023127 4.2995477 1.6848181 9.320086e-05 0.68867385 0.78627294 0.36507663
11.403053 0.2979132 6.89641 7.816752e-06 4.357559 5.4951043 7.963672 0.8203174
1.1364725 5.088407 1.5370978 8.6916485 1.5715411 0.08964182 0.1862652 7.3029213
0.18164693 0.0 1.5371247e-06 4.429796 1.6631968 0.9940521 0.2532477 8.885407
2.104878e-09 0.0 1.693012e-08 0.0 4.955876e-09 0.0 0.0 7.2009887e-10
0.0 0.0 7.1022294e-10 8.4985247e-10 0.0 0.0 0.0 9.501089e-10
0.0 3.7300767e-09 0.0 0.0 7.896132e-09 0.0 1.1924323e-10 0.0
0.0 2.5769e-09 0.0 0.0 0.0 0.0 0.0 0.0
1.1649675e-09 0.0 0.0 3.1206704e-09 0.0 0.0 0.0 0.0
3.6786897e-08 0.0 2.7887705e-09 0.0 9.082148e-09 1.7145183e-08 1.4557062e-08 2.1066339e-12
0.0 2.705713e-09 0.0 3.7340335e-09 0.0 0.0 0.0 2.7010488e-08
0.0 0.0 0.0 8.093476e-09 0.0 2.2667241e-09 0.0 1.7213303e-08
0.010720917 0.0 1.3519859 0.0003313542 1.0793573 0.00012225623 0.00040874688 0.28051284
1.0207796e-05 0.0 0.2053171 0.85113615 0.0 1.206104e-05 0.15368521 0.0005986326
1.7818014e-05 0.90146744 0.0 0.00026002582 1.2468299 0.08207963 0.0 0.0
7.631809e-05 0.0 0.0003791847 4.5062185e-07 0.00021437008 1.4615765e-09 0.10798961 0.06072044
1.1111268 3.092962e-06 0.9222903 0.15356882 8.4444415e-05 0.0025180394 0.0 0.0002993157
1.5639266 0.0 1.4546162 4.1652808e-14 0.9046017 0.8650928 1.5311649 0.17877334
0.23188329 3.0547972e-06 0.34044302 1.8088568 0.0005122352 0.022078227 7.956457e-05 0.15679832
0.040097333 0.0 0.0 0.0007113783 0.35496473 0.13426216 2.6126128e-05 1.6707655
00000000: f6f4 9e38 12ed 213e f75f 2f37 2e02 983e
00000010: d027 a638 2935 b53e a82c 4e3d e88f 3a36
00000020: 92cb 893e 1350 a53e 61a7 8535 96f5 7139
00000030: a7b9 703c 82c9 2a3e 33a3 8438 9a5f 043e
00000040: 9a4b 813e 6673 a036 15e2 a33e 7f84 a73d
00000050: 5573 8936 3e25 7338 f79f 593e 55e7 c43e
00000060: 2e34 103d d838 993e 6ed6 063e 2833 443d
00000070: b695 0e3d 5147 863b 727f 4838 a9ce 4c36
00000080: 6759 eb39 c865 dc3d 44ca e737 c7d1 3f37
00000090: 62bf 563b 132e a43d af18 be3d 8ff7 d83d
000000a0: adfc 0238 509b 153c b30f ce38 7eb4 f93b
000000b0: 1c91 c237 a3ff aa38 980f b336 1720 8835
000000c0: 2351 bc38 dece 643e e14b 0238 cac2 b539
000000d0: 4e2a 853e 35ef a737 1d68 0e3d d728 5b3c
000000e0: ea53 0136 0000 0000 defe 963a f11d 2a3e
000000f0: cb26 1c39 2be0 5c37 f9ab f63d 0d46 d436
00000100: 8659 0d3f 3cf6 913f 45be e440 626f 1340
00000110: 1e81 a440 77a9 b13f fcb3 4f3d ca1c ac3f
00000120: b47c 813f d595 1440 3c66 7f3f 23c3 8040
00000130: 6ca6 463d d387 f53e 7aee 2c3f 8d35 c83f
00000140: 0b55 7e3f f21a 8b40 55b2 ba3f b102 bc3f
00000150: bfcf d340 3570 b83e 04da 2c40 5a5d 5b40
00000160: a80b 153e 46e1 b140 0286 883f ade8 4d3d
00000170: 5cac 9b3d 21bf a13b bdff 013f ac78 8f3e
00000180: ac46 aa40 de46 573e e595 8940 1fa8 d73f
00000190: d574 c338 ee4c 303f 2f49 493f 53eb ba3e
000001a0: e872 3641 1488 983e 64af dc40 b224 0337
000001b0: 2071 8b40 e5d7 af40 67d6 fe40 5200 523f
000001c0: ee77 913f 3bd4 a240 9fbf c43f fe10 0b41
000001d0: 4228 c93f 2196 b73d 4ebc 3e3e 88b1 e940
000001e0: a701 3a3e 0000 0000 344f ce35 e4c0 8d40
000001f0: a2e3 d43f 337a 7e3f afa9 813e a12a 0e41
00000200: 68a5 1031 0000 0000 ba6d 9132 0000 0000
00000210: 5948 aa31 0000 0000 0000 0000 74f0 4530
00000220: 0000 0000 0000 0000 7f39 4330 0d9b 6930
00000230: 0000 0000 0000 0000 0000 0000 fc94 8230
00000240: 0000 0000 1a2a 8031 0000 0000 0000 0000
00000250: 8ea7 0732 0000 0000 fc1b 032f 0000 0000
00000260: 0000 0000 4e15 3131 0000 0000 0000 0000
00000270: 0000 0000 0000 0000 0000 0000 0000 0000
00000280: a61c a030 0000 0000 0000 0000 6a73 5631
00000290: 0000 0000 0000 0000 0000 0000 0000 0000
000002a0: 9fff 1d33 0000 0000 92a4 3f31 0000 0000
000002b0: b607 1c32 a846 9332 a316 7a32 be3d 142c
000002c0: 0000 0000 68ef 3931 0000 0000 e84c 8031
000002d0: 0000 0000 0000 0000 0000 0000 b104 e832
000002e0: 0000 0000 0000 0000 0000 0000 7c0b 0b32
000002f0: 0000 0000 a2c4 1b31 0000 0000 74dc 9332
00000300: c9a6 2f3c 0000 0000 e00d ad3f 9cb9 ad39
00000310: 6128 8a3f e831 0039 144d d639 619f 8f3e
00000320: 2642 2b37 0000 0000 a53e 523e 0fe4 593f
00000330: 0000 0000 c659 4a37 a85f 1d3e 8eed 1c3a
00000340: e577 9537 92c6 663f 0000 0000 1354 8839
00000350: 1f98 9f3f 5d19 a83d 0000 0000 0000 0000
00000360: f60c a038 0000 0000 4fcd c639 ffec f134
00000370: 88c8 6039 a7e0 c830 a829 dd3d ffb5 783d
00000380: 6739 8e3f af90 4f36 381b 6c3f 2541 1d3e
00000390: c017 b138 b105 253b 0000 0000 79ed 9c39
000003a0: bf2e c83f 0000 0000 dd30 ba3f 6b96 3b29
000003b0: fa93 673f b976 5d3f 36fd c33f 5c10 373e
000003c0: d072 6d3e 0401 4d36 8c4e ae3e 9f88 e73f
000003d0: 8647 063a 66dd b43c e7db a638 bd8f 203e
000003e0: 1a3d 243d 0000 0000 0000 0000 ca7b 3a3a
000003f0: f0bd b53e 057c 093e 6f29 db37 a5db d53f

exp_avg f4 [32]
0.0052464376 -0.65205437 6e-45 0.012438856 0.025617005 0.22594486 -0.5239862 0.62969744
0.5094282 0.05274763 -0.37696826 -0.40474293 -0.030566387 0.35411257 0.011940361 -0.36494422
0.6818676 0.40072602 -0.94164026 -0.40948483 -0.65563816 -0.019637872 0.016017446 0.0052782064
-0.6564936 -0.25384676 -0.049019594 0.019133301 -0.3282964 0.4870993 0.03132532 0.28269908
00000000: 4fea ab3b 09ed 26bf 0400 0000 58cc 4b3c
00000010: c1da d13c 175e 673e f623 06bf da33 213f
00000020: e369 023f e60d 583d fc01 c1be 773a cfbe
00000030: 5c66 fabc 3e4e b53e 81a1 433c f8d9 babe
00000040: e08e 2e3f f62b cd3e 560f 71bf ffa7 d1be
00000050: e7d7 27bf 9adf a0bc 0537 833c cef4 ac3b
00000060: f70f 28bf 34f8 81be c5c8 48bd 71bd 9c3c
00000070: 7716 a8be 1465 f93e fb4e 003d efbd 903e

exp_avg_sq f4 [32]
0.03372394 5.491426 1.9948217e-08 0.14134403 0.14191607 2.1200287 7.008819 10.484765
7.999539 0.33770806 3.2038748 3.761985 0.007897598 3.0526943 0.09486836 3.6645799
13.225104 5.5471754 13.66498 3.5994375 7.8717127 0.37153164 0.27503547 0.0511003
11.093514 1.2271136 0.034594234 0.17505524 2.3192508 7.3809566 0.49412978 2.4704173
00000000: 1d22 0a3d c3b9 af40 985a ab32 7dbc 103e
00000010: 7252 113e 8dae 0740 3f48 e040 99c1 2741
00000020: 39fc ff40 12e8 ac3e 490c 4d40 5dc4 7040
00000030: ed64 013c 585f 4340 584a c23d 7a88 6a40
00000040: 079a 5341 7682 b140 c2a3 5a41 2f5d 6640
00000050: 12e5 fb40 6539 be3e 73d1 8c3e 8c4e 513d
00000060: 097f 3141 0f12 9d3f afb2 0d3d ae41 333e
00000070: 9b6e 1440 cc30 ec40 94fe fc3e 511b 1e40
