pytorch-DS-051/rackhun/1_A2C_pendulum/saved_model/A2C_CRITIC.pth (torch_old, 37842 bytes, 21 tensors)

fc1.weight f4 [64, 3]
000000 b1 ba bf bc 94 39 79 3f ef 95 1f 3e de f2 fc bb
       -0.023404451 0.9735348 0.15584539 -0.0077193817
000010 f3 63 8f bf dd 14 23 be d3 7a bc 3e 8b 00 0b be
       -1.1202377 -0.15925927 0.36812457 -0.13574426
000020 b4 0b 0e be 8d fc bd 3d 65 5a 96 3f c9 9f 66 3e
       -0.13871652 0.09276686 1.1746336 0.2252189
000030 c0 75 0a 3f bb f2 01 3f 3b 48 22 3e b8 65 20 be
       0.5408592 0.50761 0.15847866 -0.15663803
000040 15 bc 60 bf 46 52 02 be 9e 8d 31 3f 72 6d 86 bf
       -0.8778699 -0.12726697 0.69356716 -1.050215
000050 71 51 9c be 97 0b 17 3e b9 49 eb 3e 5a ef 41 be
       -0.30530885 0.14750515 0.45954683 -0.18938962
000060 31 97 0a be ff 37 42 3f 6b ce 1d 3c 72 c9 27 3f
       -0.13534237 0.75866693 0.009631733 0.65541756
000070 66 e1 bc bb 0e 1a 2e bd 8d 62 32 3f b3 b5 e5 be
       -0.0057641743 -0.042505316 0.69681627 -0.44865188
000080 cb 95 31 3e d2 66 44 3e bd cc 89 be 4d f7 95 bd
       0.17342298 0.19179848 -0.26914015 -0.073225595
000090 d1 37 c8 3e a7 84 8f bf af 11 81 be 3a 10 15 3f
       0.39105085 -1.1212357 -0.25208804 0.58227885
0000a0 c8 ef bb bd 39 2b 97 be 6e 34 f1 be 25 55 34 bf
       -0.09176594 -0.29525164 -0.47110313 -0.7044242
0000b0 23 54 29 be 79 0c 35 3f d2 4c 26 bf 81 79 93 be
       -0.16536002 0.70722157 -0.6496097 -0.28803638
0000c0 69 f4 d1 3e 08 8e 25 3d 0b 91 e3 be fd de 21 3f
       0.41006783 0.040418655 -0.44446597 0.6323088
0000d0 52 22 10 bf 3a 3c 70 be a4 6c b5 3e ec 33 85 bf
       -0.5630237 -0.23460475 0.3543445 -1.040647
0000e0 e3 93 a0 be f6 8f 26 bf e8 79 a1 be 28 74 5f be
       -0.3136283 -0.65063417 -0.3153832 -0.21821654
0000f0 c3 6a c5 be 9c f1 e1 bd e8 39 58 3d aa 1a 11 3f
       -0.38558015 -0.110324115 0.0527896 0.5668131
000100 85 a3 10 be 5e 2a 60 3e 60 01 13 3f b5 07 b0 3e
       -0.14124878 0.21891162 0.57423973 0.3438088
000110 f3 28 33 3e 86 de a4 3e c0 f9 13 3f b9 74 14 3e
       0.1749609 0.32201022 0.57802963 0.14497651
000120 2a ca 8d bd 9a 2d 78 be a0 ce 94 3e da 06 21 3f
       -0.06923325 -0.24236146 0.29063892 0.6290108
000130 ba 94 17 3f 58 2a 6f 3e c9 0c d6 be 80 ed 5a 3f
       0.59211314 0.23355997 -0.4180663 0.85518646
000140 01 d2 c6 3d 7f 56 c9 be 93 cc d1 3e 27 3c a1 bc
       0.09708024 -0.39323804 0.4097639 -0.019682003
000150 e8 6c e7 3e 09 86 b5 3c b1 96 4d 3e 63 ea 76 3e
       0.45200276 0.02215864 0.20077015 0.24112849
000160 24 0d 47 bf b8 3d 05 be 9f 40 3b be 98 0f dd be
       -0.77754426 -0.13011825 -0.1828637 -0.4317596
000170 d8 14 a5 bd b6 d7 dc 3e 74 48 00 3f 45 27 27 3e
       -0.08060616 0.43133324 0.50110555 0.16323574
000180 a1 3b 04 3f 47 73 dc be 1c f5 e8 bd 1d 20 65 3e
       0.51653486 -0.430567 -0.11374876 0.22375531
000190 31 38 2e bf 80 2a ce bd 25 47 06 bf ac f3 29 bf
       -0.6805449 -0.100667 -0.5245231 -0.6638744
0001a0 9b 77 23 be 68 4d d6 3e fc b3 30 be 6c dd de be
       -0.15963595 0.4185593 -0.17256159 -0.43528306
0001b0 41 1e e9 3e 4f b8 7d bf 5e c1 80 be e9 f4 96 be
       0.45530894 -0.9910936 -0.25147527 -0.29483727
0001c0 b4 f6 3e 3f fe 8d fe 3d 39 c0 24 3f c7 00 29 3f
       0.7459519 0.124294266 0.6435581 0.6601681
0001d0 65 2b 1a 3e 72 1b d4 3e c9 03 90 3e 23 39 d3 3e
       0.15055616 0.4142719 0.28127888 0.4125453
0001e0 2f 92 0a 3f 88 10 38 3f 8d c4 5f 3e a5 db 70 3f
       0.5412931 0.71900225 0.21852322 0.9408515
0001f0 bf 2c 04 3f 18 c5 74 3e 60 16 17 3e 25 ac 63 bf
       0.5163078 0.2390331 0.14754629 -0.88934547
000200 22 eb 47 3d 0a 7d 36 3d a0 3f ad 3f 1e 67 80 3e
       0.048808224 0.04455284 1.3535042 0.25078672
000210 77 ba e9 be 9a 39 13 3d f2 28 41 3e 06 44 b2 be
       -0.45650074 0.035943605 0.18863276 -0.34817523
000220 50 8a 7a bf 87 58 39 be 3a a2 20 bf 09 54 55 3d
       -0.978673 -0.18100177 -0.6274754 0.052082095
000230 ac f0 1a be e6 aa 86 3d 33 32 3d 3d 15 c6 74 be
       -0.15130872 0.06575565 0.04619045 -0.23903687
000240 4f b3 26 bd 40 92 46 be c8 c8 09 bd f6 fa 11 3f
       -0.040698346 -0.19391727 -0.033638746 0.5702356
000250 f5 45 c4 bd 7f 97 b0 be 17 7a c9 3e ac 88 b4 3e
       -0.09583656 -0.34490582 0.3935096 0.35260522
000260 3b 1a 91 3e dd b8 d9 be b7 bd 6e be e1 74 29 3e
       0.28340325 -0.42523852 -0.23314558 0.16548492
000270 f0 34 01 bf ad bf 20 3f 39 df 19 3e e6 46 6f be
       -0.504714 0.62792474 0.15026559 -0.2336689
000280 0e 49 18 3f a6 2e b9 bb 08 ef 80 3e 3b e1 26 bf
       0.5948647 -0.005651313 0.25182366 -0.65187424
000290 8e 89 39 be 5a 36 8c be 7b 52 79 bf 07 00 41 3d
       -0.18118879 -0.27385217 -0.9739148 0.047119167
0002a0 0a b6 b4 3e 0c 26 09 be ff 21 97 be aa 7c f1 b8
       0.35295135 -0.1339342 -0.29518124 -0.00011514996
0002b0 08 65 1e 3f 1f e5 7d bd 28 13 06 3f d5 5e e6 3e
       0.6187291 -0.061986085 0.5237298 0.44994226
0002c0 37 71 87 3e b9 15 4d 3a c9 6e 97 3f 55 15 8b 3e
       0.26453564 0.00078233663 1.1830684 0.27164713
0002d0 c8 30 02 bf b3 37 2c be fe 6f 48 3d e8 99 14 be
       -0.50855684 -0.16818123 0.04893493 -0.14511836
0002e0 a9 5b 99 bf 93 8e 32 be aa a3 7a 3d 07 e9 24 3d
       -1.1981097 -0.174372 0.06119124 0.040261295
0002f0 89 38 da 3c 00 7c 37 be 75 09 87 3f 8c 7c 52 3e
       0.026638286 -0.17918396 1.0549761 0.20555323

fc1.bias f4 [64]
000000 60 58 d6 be e0 9e af 3c 9a 23 27 bf 1a 93 c9 be
       -0.418643 0.021438062 -0.652887 -0.39370042
000010 76 2f d3 3e 33 b7 6d 3e 55 fb 0b 3f f2 e8 11 3f
       0.41247147 0.23214416 0.5468038 0.5699607
000020 e6 91 02 bd 0a 0e 93 be b0 30 18 3f 11 86 19 3d
       -0.03187742 -0.28721648 0.5944929 0.03748137
000030 af 5e 17 bf 96 52 27 3f a7 7e 5d be 5d cc 7a bf
       -0.5912885 0.6536039 -0.21630345 -0.97968084
000040 14 74 ec bd ba 84 43 bf b0 18 17 bf 95 b1 fb be
       -0.11545578 -0.763744 -0.59022045 -0.49158922
000050 a1 eb 91 3e fb b2 41 3f c8 db 32 bf 00 a3 88 be
       0.28500083 0.7566373 -0.6986661 -0.2668686
000060 32 21 c8 3e 62 20 4d bf f5 da 33 bd 29 4c 55 3f
       0.39087826 -0.8012754 -0.043909986 0.83319336
000070 1d f1 c1 be 88 8a 80 3e 58 02 1f 3e f1 0a 11 bf
       -0.37879267 0.2510569 0.15528238 -0.5665732
000080 d3 ca 1a 3f 38 cb 33 be 7b f8 c6 3e fa 33 90 3d
       0.60465735 -0.1755799 0.3886145 0.07041164
000090 91 6e 20 bf 3b 59 d7 3d 63 4a 32 bf 83 91 66 3e
       -0.6266871 0.10515066 -0.69644755 0.22516446
0000a0 8d d4 33 bf ec 0d f7 3e 1e 92 8e 3e 00 5f 91 be
       -0.702462 0.4825281 0.27845854 -0.28392792
0000b0 e8 83 77 bd cc eb 5f 3e 30 86 f5 be 58 56 60 be
       -0.06042853 0.21867293 -0.4795394 -0.21907938
0000c0 ae 35 62 3c 08 92 0b 3f 22 11 80 be 26 19 bf 3e
       0.013806744 0.545197 -0.2501307 0.37323874
0000d0 8e 42 92 3e 92 29 aa bd eb ed f7 3e 18 1e 9d be
       0.28566402 -0.0830871 0.48423705 -0.30687022
0000e0 15 55 0d 3e 16 5b 05 bf 8c f8 63 bf c9 2f 74 be
       0.13801987 -0.5209211 -0.8905113 -0.23846354
0000f0 b8 53 24 3f a5 55 42 3d 33 d3 74 3f 74 94 dd be
       0.64190245 0.04744496 0.95634764 -0.43277323

fc2.weight f4 [32, 64]
000000 7d 29 b7 3c 45 47 62 be 27 43 f0 3b 4f c6 4c 3d
       0.02235865 -0.220975 0.007332224 0.04999381
000010 ea 13 ff 3d 44 9d 00 3e 69 3d 30 3e 95 a2 06 3e
       0.1245497 0.12559992 0.17210926 0.13147958
000020 79 99 85 3d 92 21 0c be 38 1b 2a 3e fc be 4b bd
       0.06523413 -0.13684681 0.16611946 -0.049742684
000030 c1 4b d2 bc f2 80 a8 3d e4 7c 7e 3e 20 13 aa bd
       -0.025670888 0.08227719 0.2485233 -0.08304429
000040 9e eb ab bc c1 c5 07 be 40 89 26 be 47 0a df 3d
       -0.020986374 -0.13259031 -0.16263294 0.10890632
000050 65 fd 27 3e 4c d1 eb 3c 50 43 94 be 2e 59 de bd
       0.16405256 0.028786324 -0.28957605 -0.108568534
000060 94 34 17 3d ba e2 38 be c1 c2 5f 3e d7 2a 2d 3d
       0.036915377 -0.1805524 0.21851636 0.042277183
000070 ba ca bf bb 43 76 3b 3d 42 00 13 bc c2 b6 71 bd
       -0.0058530243 0.04576708 -0.008972229 -0.059012182
000080 27 f6 1b 3e 8f d1 9f 3d 43 33 71 3d 67 f8 23 3e
       0.15230618 0.07803642 0.058886778 0.16012727
000090 41 a2 30 be 74 ea 6d be 7d c9 c8 bd e1 96 e9 3c
       -0.17249395 -0.23233968 -0.09804056 0.028514327
0000a0 2a 09 b6 be e6 84 4e 3d b3 23 67 3e 2a 38 97 bb
       -0.35553867 0.05041971 0.22572212 -0.0046148496
0000b0 1d 7e 0f 3e b7 22 16 be bb 88 bd 3d ae 9e 2f 3d
       0.14012952 -0.1466168 0.09254595 0.042875938
0000c0 16 ec 8f bd 9f 69 21 3e a1 91 ca bc c7 b0 19 3e
       -0.07027452 0.15762947 -0.024727644 0.15008841
0000d0 73 ca ec bd 36 c4 72 3e 11 28 54 3d 14 05 20 3e
       -0.115620516 0.23707661 0.051796023 0.15626937
0000e0 24 5f 48 3e 33 8d 58 3d 22 f5 60 be 63 d1 15 be
       0.19567543 0.052869033 -0.21968511 -0.14630656
0000f0 81 52 05 3d 50 f3 2a be 1a 27 89 3e 60 36 d3 3d
       0.032549385 -0.16694379 0.26787645 0.103131056
000100 ac 76 2d 3e 75 39 0f be 66 7d a4 bd 7c 59 3c 3e
       0.16939801 -0.13986762 -0.0803173 0.1839351
000110 69 fb 01 3e f2 1a e8 3d c0 a1 a0 3e 36 01 f0 3c
       0.12693562 0.113332644 0.31373405 0.029297452
000120 5a 87 37 3c 97 8b 48 3e f1 4f 8d 3e 23 e6 c1 bd
       0.011201704 0.195845 0.27600053 -0.09467723
000130 75 ae 9b bd 8a df 33 3e 9d c7 76 3e 02 f7 91 be
       -0.076016344 0.17565742 0.24099584 -0.28508765
000140 5f 6c 91 3d 3b 4b ea bd 56 10 56 be f4 61 d0 bd
       0.07100748 -0.1144013 -0.20904669 -0.10174933
000150 60 2f 03 3e 79 2a fb 3d 33 53 3a bc d0 7f bc 3d
       0.12811041 0.122639604 -0.011372375 0.09204066
000160 e9 db c0 3d 5e 18 ea bc 25 7c 69 3e 89 32 58 3c
       0.094169445 -0.028576072 0.22801264 0.013195642
000170 23 6f 38 3d 08 93 19 bd a3 73 67 bd b8 ca c7 bd
       0.045027863 -0.037493736 -0.056506764 -0.097554624
000180 53 50 1f 3e bb 13 df bd 5f 38 a8 3d b5 b4 9e 3d
       0.15557985 -0.10892435 0.08213877 0.07749311
000190 15 df 78 be a0 74 84 be 10 c8 76 be 90 ed 0a 3e
       -0.24303849 -0.25870228 -0.24099755 0.13567185
0001a0 8e 7d 0c be bb 09 ab 3b df f4 b7 3e f0 09 1e bd
       -0.1371977 0.005219666 0.3592901 -0.038583696
0001b0 2c eb 36 3e f9 fa e6 bd c7 94 e1 3d 00 b2 e3 3c
       0.17863148 -0.11278338 0.11014705 0.027794838
0001c0 ec f5 91 bd 04 9e b4 3c 9a 46 43 3d bc d9 eb 3d
       -0.07126984 0.022048004 0.047674753 0.11516139
0001d0 7f ce 68 be 82 b3 2c be 0a b4 2b 3e a0 57 71 3d
       -0.22735022 -0.16865352 0.16767898 0.058921456
0001e0 bc 19 9d 3d a3 db 4e 3c 60 3f a0 bd f3 5b 06 be
       0.07670924 0.012625608 -0.07824588 -0.13121013
0001f0 2b 3f 09 3d 03 24 a6 bd 47 8a 87 3e c9 18 f2 3e
       0.033507507 -0.081123374 0.26472685 0.47284535
000200 88 3e ad 3c f9 6d 83 bc fc 8b e7 3d e4 d9 19 bd
       0.021147981 -0.01604365 0.11305997 -0.037561312
000210 d0 76 55 3c df 6b b9 bc 95 fe ff bd 04 15 90 3c
       0.013028815 -0.022634445 -0.124997295 0.017588146
000220 96 90 c0 bd d4 07 29 bd da 3c f4 bd 62 a8 86 3d
       -0.094025776 -0.04126723 -0.11925669 0.06575085
000230 aa a9 c4 bd 6f 12 d8 bd 7b 3d 53 3d f0 16 32 bd
       -0.09602673 -0.10550391 0.051572304 -0.043478906
000240 e0 fe be bb 52 d6 dc bd aa 68 97 bd 12 f2 4b bd
       -0.0058287233 -0.10783066 -0.0739301 -0.049791403
000250 27 58 ea bd 6a 0c aa 3d 7c 4a a7 bd 18 3e 59 3d
       -0.11442595 0.08303149 -0.08168504 0.053037733
000260 6b 9d 0f be ee 86 f6 bd 2f 55 20 bc e9 ac a9 3d
       -0.14024894 -0.120374545 -0.009785934 0.08284933
000270 00 84 ea bd 71 76 5f 3d 75 11 13 be 5c 8e 02 3d
       -0.11450958 0.054556314 -0.14362128 0.031874046
000280 ba 80 cd bd 8a 30 5c bd 3b 3d 04 be 43 6a 57 bd
       -0.10034318 -0.053757228 -0.12913983 -0.052591573
000290 ee 7f fb bd 50 60 3a bd a0 5d 9a 3b 00 a0 e4 bc
       -0.1228026 -0.045502007 0.004710868 -0.027908325
0002a0 50 15 dd bc 80 51 d4 3c 25 37 86 bd a0 f7 af bd
       -0.026987702 0.025917768 -0.06553487 -0.085921526
0002b0 f4 a9 68 bd 7b 2d ec 3c e7 6a e4 39 48 a4 18 be
       -0.056802705 0.02883028 0.00043567197 -0.14906418
0002c0 82 33 b9 bd f8 5f 98 3c b8 45 54 bd a1 21 16 3d
       -0.090430275 0.018600449 -0.0518243 0.036653165
0002d0 3b e0 06 3c 17 48 e0 bd 3e 5a e8 bd 48 83 9a 3d
       0.008232172 -0.1095125 -0.11345337 0.07544571
0002e0 09 f4 4d 3d c4 43 e4 3d f0 e3 58 bc 66 3f b2 bd
       0.05028156 0.11145738 -0.013237938 -0.087034985
0002f0 fb 87 d3 3c e8 33 97 3d 75 c2 1d be f8 aa 9f bc
       0.025821676 0.07382947 -0.1540621 -0.019490704
000300 06 0a cb 3d a3 e7 bb 3b 99 6f 04 be 68 28 ee bc
       0.09914021 0.0057344004 -0.12933196 -0.029072002
000310 75 4d 2a 3b 08 ee 89 bd 74 7e d0 3c 7c 12 5f 3d
       0.002598611 -0.06734854 0.025450923 0.054460987
000320 ec 3c ac bd 66 08 69 bc 82 af 3a bd 96 e2 7e 3c
       -0.084100574 -0.014223194 -0.045577534 0.015556952
000330 5f 36 fb bd 4e e1 96 bc a9 35 64 bd b0 33 bb bd
       -0.1226623 -0.01841798 -0.055715237 -0.09140718
000340 0f 82 f9 bd 02 c7 13 3d b6 05 a7 3d e2 70 bf bd
       -0.1218301 0.03607846 0.08155386 -0.093477026
000350 c9 55 fc bd e2 f5 9d bd 29 36 f3 bc 85 2c f4 bd
       -0.1232105 -0.07712914 -0.029688912 -0.11922554
000360 a3 03 80 3d 40 37 dc 3d 53 a7 dc bc 3e ba 73 3d
       0.06250694 0.107527256 -0.026935255 0.059503786
000370 40 06 de bb e7 de af 3d 57 ce 07 be a5 5f af 3d
       -0.0067756474 0.08587437 -0.13262306 0.085631646
000380 c3 5e 0d bd 85 eb 02 bd 5c 02 08 be 78 b0 72 bc
       -0.0345142 -0.03196289 -0.1328215 -0.014812581
000390 95 23 06 be b5 97 27 3d 0a 1b c4 bd 38 c6 88 bd
       -0.13099511 0.040916163 -0.0957547 -0.06678432
0003a0 1b 43 84 bd 28 ab 58 bd 7d ed 80 3d f3 84 8f bd
       -0.06458112 -0.052897602 0.06295297 -0.0700778
0003b0 59 4d 29 bd b8 ce 38 bc 3a 91 7c bc 25 f7 a1 3d
       -0.04133353 -0.011279754 -0.015415484 0.07908467
0003c0 08 57 ca 3d 3a 27 fd bc fb ac 25 3c e9 cd 7a bd
       0.09879881 -0.030902494 0.010112043 -0.061231527
0003d0 86 e6 dc 3d 2c 90 e7 bd 9d 1f c5 3d f6 dc 92 3c
       0.10786156 -0.113067955 0.096251704 0.017927628
0003e0 ba c8 9c bc 95 d7 0b bc e8 fd a7 bd ce c6 84 bc
       -0.019138683 -0.0085352855 -0.08202726 -0.016208079
0003f0 41 ca d9 bd 1c c0 c8 3d a8 03 52 bd 24 2d 3c 3d
       -0.1063428 0.09802267 -0.051273018 0.045941487

fc2.bias f4 [32]
000000 c8 50 5a 3e 67 71 49 3e fa a2 ea bd ae fa a4 3d
       0.21319878 0.19672166 -0.114568666 0.08055626
000010 4d f9 ca 3e 60 df c0 3e e9 b7 15 3d 78 ad 49 3e
       0.39643326 0.37670422 0.036552344 0.1969508
000020 aa 40 e9 bd 9f 6f bb 3e c8 fc b5 bd 4c df 7c be
       -0.11389287 0.36608598 -0.08886105 -0.24694556
000030 9e c9 95 3e 9e cb bd 3e a2 df 89 3e 9a ce 81 3e
       0.29255384 0.3706941 0.2692843 0.25352937
000040 c8 64 bf bd 38 0a 8c 3e c2 e6 67 3e 3a cf d6 bd
       -0.093453944 0.27351546 0.22646621 -0.10488744
000050 89 1b ba 3e 4d 4f 94 3e d1 00 89 3e cf d6 7e 3e
       0.36349133 0.28966752 0.26758435 0.2488663
000060 f1 f4 65 be 36 eb 60 3e e9 a2 c9 3e a1 eb 45 bc
       -0.22456719 0.21964726 0.39382103 -0.012080104
000070 7e 1c d8 be 52 ca 6c 3e 1c 33 d3 bd 08 a5 f0 bc
       -0.42209238 0.23124054 -0.10312483 -0.029375568

fc3.weight f4 [16, 32]
000000 26 44 97 be 9c a0 d1 bd 9c 66 65 3d 38 8d a7 3d
       -0.2954418 -0.10235712 0.05600606 0.08181232
000010 eb 72 55 be 9a 88 eb 3c ae 7d 05 3e fa c6 0d bd
       -0.20844619 0.02875166 0.13036224 -0.034613587
000020 7d 7e 1f 3e f8 4f 43 bc bb 15 d7 3d f6 6f 70 3e
       0.15575595 -0.0119209215 0.10502192 0.2348021
000030 ff 83 6c be b9 9e 28 be 35 11 97 bd 9e 30 f7 bb
       -0.23097228 -0.16466798 -0.07376329 -0.0075436374
000040 f7 05 24 3e db fd 7f be e0 dd d6 3d 3a bf 6c bd
       0.160179 -0.24999182 0.10491538 -0.057799555
000050 8c 44 83 be d7 d1 95 be 09 9a 17 bd f6 e8 88 3d
       -0.25638235 -0.29261658 -0.037012134 0.06685059
000060 2b 38 4d 3e a8 03 bb be 36 09 c1 be c1 41 3b bd
       0.20040958 -0.36526227 -0.3770234 -0.045717005
000070 8b 41 38 be 1d 52 24 bc 59 65 89 bd 01 63 39 be
       -0.17993753 -0.010029343 -0.06708784 -0.18104173
000080 3c 5c 13 bd 35 8e eb 3d 84 87 6d bd 65 4c f1 3c
       -0.035976633 0.11501733 -0.057990566 0.029455373
000090 cd 83 4a 3e a2 ab 3f 3e be 89 bb bd d2 06 06 3e
       0.1977684 0.18717816 -0.091571316 0.13088539
0000a0 58 db 17 be 20 24 fc 3d 5c 36 04 3e 8c 99 1c be
       -0.14829767 0.12311578 0.12911361 -0.15292948
0000b0 43 43 be 3c d6 33 7d 3d d2 a7 19 3f 7d b7 7f 3e
       0.023225432 0.061817013 0.600217 0.24972339
0000c0 34 fa 1c bd 0f ed 30 3e 45 21 86 3e 6a 40 91 bd
       -0.03832455 0.1727793 0.26197258 -0.07092364
0000d0 89 05 29 3d 68 5c f0 bc c6 0b 91 3e 8a ea c2 3d
       0.041265044 -0.029340938 0.28329295 0.09517391
0000e0 79 14 3e 3c 32 b1 6f bd 86 ad 42 3e 4f 04 f9 bd
       0.011601561 -0.058518596 0.19011506 -0.12159025
0000f0 ae 47 1d be 9b b6 b4 3e b0 e5 28 bd 9e 10 02 3e
       -0.15359375 0.35295567 -0.041234672 0.12701651
000100 25 78 31 3d ec d3 3d 3e 94 35 92 3d f6 71 00 be
       0.04332747 0.18537873 0.071391255 -0.12543473
000110 1f 0d 93 3e 8e 22 2d 3e c7 aa b8 bd 77 d7 d1 3e
       0.28720948 0.16907713 -0.09016948 0.409847
000120 96 4d 7d be 4c f4 6e 3e 9d 73 4d bd 92 01 00 be
       -0.24736628 0.2333538 -0.050159086 -0.12500599
000130 50 74 0c 3d fc d2 80 3e e4 aa 33 3f 4e c9 66 3d
       0.03429061 0.25160968 0.70182633 0.056344323
000140 6c c0 24 3d c6 9f 85 3e 56 95 a7 3e 12 96 23 be
       0.04022257 0.2609846 0.32731122 -0.15975216
000150 2d 4e 65 bd b3 af cf 3c 14 b7 42 3e fb 58 43 3e
       -0.055982757 0.025352335 0.19015151 0.19076912
000160 e7 90 42 bc b6 0a 85 3e c5 e1 af 3e f9 b1 ad 3d
       -0.011875368 0.25984734 0.34351936 0.08481211
000170 2a 0e 4a be 64 5b fc 3d a3 8f b9 bd 8e 1a 25 3e
       -0.19731966 0.12322119 -0.090606 0.16123411
000180 c6 08 67 3e 44 9c 61 3e 19 30 15 3b ea 25 86 3d
       0.2256194 0.22032267 0.0022764264 0.065502
000190 a8 11 10 3d 94 a1 5e 3e 8c 56 57 be 14 a8 cf 3e
       0.03517309 0.21741325 -0.21029109 0.4055792
0001a0 e9 72 29 be 54 cd 23 3e b4 77 fb 3d bf 58 14 be
       -0.16547741 0.15996295 0.12278691 -0.14486979
0001b0 58 e8 8f 3d 95 71 77 3e c8 b1 32 3f 87 ed 4f 3e
       0.07026738 0.24164422 0.6980252 0.20305453
0001c0 8f d1 8f bd cb 6a a3 3d 13 ba 7e 3e 68 e9 31 be
       -0.07022392 0.079793535 0.24875669 -0.17374194
0001d0 cc 5e 88 3e 8f e0 68 bb 81 93 96 3e 19 92 49 3e
       0.26634824 -0.0035534238 0.29409412 0.19684638
0001e0 40 de 2d be 81 6f 40 3e e4 a8 af 3d 42 b0 11 3c
       -0.16979313 0.18792535 0.08577135 0.008892121
0001f0 23 64 f7 bc 8d a4 70 3d a5 13 14 be 5c ed ed 3d
       -0.030199116 0.058750678 -0.14460619 0.11617538
000200 2c d1 0a 3e 7a 8b 70 bd 28 fe e5 3d ec 67 c6 bd
       0.13556355 -0.058726765 0.11230117 -0.0968779
000210 73 41 44 3d 5b a6 4b 3d 0d 60 42 be 1e 5d 7f 3e
       0.04791398 0.049719196 -0.18981953 0.24937865
000220 a9 df 19 3d 6e 3b 2a 3e 04 7b 3d 3e ad 5c 8a be
       0.037566815 0.16624233 0.18503958 -0.2702383
000230 9e 6b 98 3d 1d 34 21 3e 94 73 01 3f a2 04 83 3e
       0.07442401 0.15742536 0.50566983 0.25589472
000240 f0 db 7b bc 52 ab 67 3e aa 4e aa 3e c7 da dc bd
       -0.015372261 0.22623947 0.3326314 -0.10783916
000250 7a e2 81 3e 5a be 12 3e e4 5d 1d 3e f0 4a 97 3e
       0.253681 0.14330426 0.15367848 0.2954936
000260 68 e1 bd bd 3d 26 bb bd 55 92 7e 3e e9 2f 54 bc
       -0.092715085 -0.09138153 0.24860509 -0.012950876
000270 be de 5c be 33 77 00 3e ee 58 c1 3d 08 93 a9 3d
       -0.21569344 0.12545471 0.0944079 0.08279997
000280 b0 37 1b ba c0 71 3a 3e 76 01 39 3c b7 5a 62 3d
       -0.0005921079 0.18207455 0.011291852 0.055262294
000290 4d 4d 29 be f0 8c 85 3b ac a6 28 be fa 4d 58 3e
       -0.16533394 0.004075639 -0.1646983 0.21123496
0002a0 c3 e0 3b 3e 9b 31 f6 3d 9e 87 a7 bd b0 12 38 3e
       0.18347459 0.1202118 -0.08180164 0.17975879
0002b0 3c ff 3e be b8 45 f4 3c ef ba 1e be 57 38 d9 3d
       -0.18652052 0.0298184 -0.15500997 0.10606449
0002c0 53 55 06 be 97 dd 4b 3d ce 87 41 be 88 81 c8 bd
       -0.13118486 0.04977187 -0.18899462 -0.09790331
0002d0 dc 17 45 be 8f 58 5b be 95 2d 64 bd 31 5c bc 3d
       -0.19247383 -0.21420501 -0.055707533 0.091972716
0002e0 bb a1 11 3e b5 0f 9b 3d 8c 35 93 be 4a 12 a2 3d
       0.14221852 0.07571355 -0.2875179 0.079136446
0002f0 77 3f 5a 3d d0 84 3f be bf 05 9c bc 52 f7 4a 3e
       0.05328318 -0.18703008 -0.019045709 0.19820908
000300 8c 97 b5 be a7 78 92 3e 35 ce 25 3e 56 e7 8b 3c
       -0.35467184 0.28607675 0.16191943 0.017078083
000310 2a 52 e6 3d 0d 94 30 3d b6 f4 6f bd 7d aa 7b be
       0.1124614 0.043109942 -0.058582984 -0.24576755
000320 a9 6a 37 be cf c3 4e 3d a9 3a 9c 3e 17 cb 87 3e
       -0.17911781 0.050479706 0.30513504 0.26522133
000330 2e 9c 30 be 67 de 93 be 19 a0 3f 3b 02 a3 8a be
       -0.17247078 -0.28880617 0.0029239713 -0.2707749
000340 bc 34 32 be 9b 81 ef bd 45 3d da bb 39 e2 28 3e
       -0.17402929 -0.11694642 -0.006660136 0.16492547
000350 ee 01 56 be 2a 6c 74 be 73 49 51 3d 91 05 21 3e
       -0.20899174 -0.23869386 0.051095437 0.1572478
000360 6f 59 8b 3e a0 ac 8c be 7a ea b2 3d 35 0d 8d bd
       0.2721667 -0.27475452 0.08736129 -0.06887285
000370 0b c6 36 3e 5f 11 6a bd 57 99 5f bc 71 32 de 3d
       0.17848985 -0.057145473 -0.013647399 0.10849465
000380 73 4e f4 3d 49 29 35 3e 7e 7e 7a 3d bf d1 07 be
       0.119290255 0.1769153 0.06115579 -0.13263606
000390 d1 c1 b7 3d 85 8c 79 3e f2 39 41 be ac 60 4f 3e
       0.089725144 0.2437001 -0.1886976 0.20251721
0003a0 35 32 32 be 89 ae a5 3e c6 51 77 bd b2 fb a5 bd
       -0.17401965 0.32359722 -0.06038072 -0.08104648
0003b0 e5 69 36 3e e9 5c 24 3e 4f 5a 09 3f 1f 9f 95 3d
       0.17813833 0.16051067 0.53653425 0.073057406
0003c0 e6 07 ec 3d e4 1a 2f 3e 24 0f 2d 3e 78 55 d1 3c
       0.11524944 0.17100102 0.16900307 0.02555345
0003d0 e8 03 6e 3d dc 03 48 3e 78 39 03 3e e8 3f 90 3e
       0.058109194 0.19532722 0.12814891 0.28173757
0003e0 e5 f2 ea bd e9 3d c2 3d f3 db 3e 3e aa 5b 1f bd
       -0.1147211 0.09484465 0.18638591 -0.038905777
0003f0 b9 17 02 be 54 39 7c 3e fa 69 5b 3d 24 10 b0 bd
       -0.12704362 0.24631244 0.053567864 -0.085968286

fc3.bias f4 [16]
000000 6c 24 fa 3d 97 6e 09 3f 8c 5a f4 3e 4a 9d ed 3e
       0.12213978 0.5368437 0.47725332 0.46409065
000010 35 e5 0a 3f 3f 2d 3f 3c b4 17 2b 3e e1 94 b5 3e
       0.5425599 0.011668502 0.16708261 0.35465148
000020 ac 18 2f be 0a e5 20 3c 4b 75 73 3e 72 99 00 3e
       -0.17099255 0.009820232 0.23775212 0.12558535
000030 f2 a6 8c 3d db b9 4f be db f0 1f be 9d 77 01 be
       0.0686778 -0.20285742 -0.15619223 -0.12643285

fc_value.weight f4 [1, 16]
000000 94 9f 1f be 3a aa b7 3e 80 1e 9c 3e e0 77 b9 3e
       -0.15588218 0.3587206 0.3049202 0.3622427
000010 73 67 8e 3e f2 7b 54 be 12 a4 8c be ce b8 a1 3e
       0.278133 -0.20750406 -0.27468926 0.31586307
000020 c8 81 46 bc 8e 32 6c be 90 4d ea 3e 87 79 f6 be
       -0.012115903 -0.2306616 0.457623 -0.48139593
000030 17 d0 de bb dd 10 81 be 33 d6 18 3e af c3 33 be
       -0.0067997086 -0.25208178 0.1492546 -0.17555116

exp_avg f4 [64, 3]
000000 4a 32 5e b9 b0 a2 36 ba f7 60 92 ba d4 8a 0a bd
       -0.00021190304 -0.00069669914 -0.0011167814 -0.033823803
000010 d3 a0 88 3c 52 08 96 bd 10 b0 c3 3a 78 bc 33 3b
       0.01667825 -0.07325806 0.001492979 0.0027425569
000020 15 ee 8f bc a8 fa 05 ba c4 aa 5f ba 9f 1b c6 3b
       -0.017569581 -0.0005110898 -0.0008532221 0.006045773
000030 24 4b 1f 3c e0 1c 0b bc d5 79 57 3c 5a e6 d1 bb
       0.009722505 -0.008490771 0.013151606 -0.006405634
000040 fa d9 27 3b ca 16 8c bc 49 85 87 3b 3f 9f 73 bc
       0.0025612102 -0.01710071 0.004135762 -0.01486951
000050 23 8f 81 3d b7 a7 67 b9 c6 05 07 bc 1c e6 ff 3c
       0.06326129 -0.00022092355 -0.008241123 0.031237654
000060 0a ad 7d b8 f2 94 20 ba 12 ee a0 3b 64 b1 44 3b
       -6.0481056e-05 -0.000612571 0.0049111927 0.003001296
000070 12 22 8a bb b4 2e b7 3c 02 2b 52 3c b1 17 18 bb
       -0.0042154873 0.022361137 0.012827637 -0.002320748
000080 6b ab 4f bb 2b 2b f6 3a dc 28 99 bb 0f c2 97 3c
       -0.0031687866 0.0018781176 -0.0046740603 0.018525152
000090 ce 7c 00 3b f5 5f 9f 3b ba c1 c3 bc 26 e7 98 3a
       0.001960564 0.004863734 -0.023896087 0.0011665567
0000a0 dd 98 31 bc 94 9d 1a 3d 90 76 8c bb 1d 7a 6e bb
       -0.010839668 0.037747934 -0.0042865947 -0.0036388703
0000b0 f8 05 b6 3c 27 77 2e 3c db df 31 3c 67 b6 72 bd
       0.022219643 0.010648525 0.010856594 -0.059255984
0000c0 79 6f 8f ba a1 36 5c bb 1f 0a 62 3c ca 22 4c 3c
       -0.0010943256 -0.0033601897 0.013796358 0.012459466
0000d0 26 67 07 3c 3d 60 30 bd 13 f8 2c 3c 53 9d 48 3c
       0.008264339 -0.04306053 0.010557192 0.01224454
0000e0 17 5f 8b bd 06 53 47 b9 ea cd 7a ba 27 ff 91 3b
       -0.06805246 -0.00019009048 -0.0009567427 0.0044554654
0000f0 f1 ae 8b 3a da d8 80 b9 db 53 1b 3a 5b e0 14 3c
       0.0010656995 -0.0002457563 0.0005925276 0.009086694
000100 68 b1 55 bb 45 7d 06 3c 9d 08 75 ba b1 aa 7e 3a
       -0.0032606963 0.0082085775 -0.0009347292 0.0009714766
000110 3a 20 f6 ba a4 3c 8e 39 9d b9 d2 b7 2a bb 36 bb
       -0.0018777915 0.0002712953 -2.5120384e-05 -0.0027882555
000120 73 9c f3 3b 6d a5 60 b8 77 41 09 bc 36 33 a9 ba
       0.0074344217 -5.3559826e-05 -0.008377424 -0.0012908939
000130 b5 5d 89 b9 4f fd 06 3c 92 53 cb 39 ec 3a 0f bb
       -0.00026200493 0.008239104 0.00038781442 -0.0021855189
000140 d1 d6 aa 3b 41 12 80 3a 84 b0 7a bb c5 b2 df 3a
       0.0052135964 0.0009771065 -0.0038252184 0.0017066827
000150 30 93 b9 3b af 30 07 38 c3 93 08 bc 77 fd 90 39
       0.005663298 3.223185e-05 -0.00833601 0.00027654666
000160 3e 33 15 bb 8a 5b f1 3b 89 90 95 b8 55 36 c2 3b
       -0.0022766138 0.0073656486 -7.1317954e-05 0.005926887
000170 9f 81 ed bc ef f9 1b b9 19 ac f6 39 7a 70 a7 b9
       -0.028992472 -0.0001487506 0.00047049 -0.00031936524
000180 b5 31 47 3b d0 05 3e bc 4e 0e 25 3d e9 fa e6 bb
       0.0030394618 -0.0115980655 0.040296845 -0.007048954
000190 19 7d 27 3b 97 68 3e bc f4 56 3f 3b ed 0b fe 3b
       0.0025556742 -0.011621616 0.0029196115 0.0077528865
0001a0 8c 1f fb bc f3 aa 99 39 20 8b ae bb 8e d9 ca 3c
       -0.030654691 0.000293098 -0.0053266436 0.024761941
0001b0 f0 8d 1e 3c 04 67 18 3c f2 00 41 bd 73 ee 3f ba
       0.009677395 0.009301905 -0.047120042 -0.00073216035
0001c0 89 4b 4a 3a c5 9c 99 3c 65 5a ed 3b da f6 38 3b
       0.0007716944 0.018751511 0.007243442 0.0028223307
0001d0 49 d9 35 ba 20 c1 e5 3b 21 1f c4 b9 36 d6 6c bc
       -0.000693698 0.0070115477 -0.00037407226 -0.014455369
0001e0 eb 44 23 b7 60 d0 60 3b c0 01 6b b9 c0 b5 41 3c
       -9.731603e-06 0.0034303889 -0.00022411998 0.011823118
0001f0 92 d6 f7 bb ff 49 46 3c 9d 3a 4b 3c 10 ba bc 39
       -0.0075634206 0.012102603 0.012404111 0.00035996782
000200 ff f5 23 bd fe 7f c4 ba 02 76 22 bb 99 a8 01 3d
       -0.040029522 -0.0014991758 -0.0024789576 0.031654928
000210 c4 44 7d 3a 9f a8 e4 39 7f 38 da bb aa 1f d4 3a
       0.0009661431 0.0004361318 -0.006659567 0.0016183753
000220 8b eb bd 3c 97 59 f0 bd 06 da a8 b7 69 c4 25 bb
       0.023183605 -0.11735838 -2.0128686e-05 -0.0025294072
000230 6d 81 6c 3c 67 56 cf ba 24 f7 76 ba 53 0d 27 3b
       0.014435154 -0.0015818597 -0.0009420982 0.002549012
000240 51 ae a7 ba 6d 70 91 38 32 67 b5 ba 41 8d fe 3a
       -0.0012793039 6.93508e-05 -0.0013839959 0.0019420759
000250 1a e7 40 bc ab d0 33 3d 85 f9 56 3b 36 d0 c2 b9
       -0.011773849 0.043900173 0.0032802534 -0.00037157693
000260 9c e8 d8 bb e0 bd d6 b9 b9 1e 03 3a d1 da 1a bc
       -0.006619526 -0.0004095873 0.00050018315 -0.009451584
000270 4e b9 a9 bb 24 e2 fe 3a 36 9c be 3b f8 0d 9b bb
       -0.0051795607 0.0019446057 0.0058169616 -0.00473189
000280 16 8d 02 bc eb 9e 39 3d 31 67 23 3b 82 6d 49 bc
       -0.007968208 0.04531757 0.0024933333 -0.012294175
000290 37 2b 52 3d 1c 2c 76 3a 3e 9d 0f 3b 50 2a 05 bd
       0.051310744 0.0009390728 0.0021913792 -0.032511055
0002a0 fa 1b b9 3a 1a bc 03 bc 5f 9c 0d 3d 10 2f 88 b4
       0.0014122718 -0.008040452 0.034572955 -2.5366217e-07
0002b0 ce f7 b9 b9 97 71 41 3b a9 e7 86 bb 5e 75 53 bb
       -0.0003547058 0.0029517168 -0.0041169715 -0.0032266001
0002c0 16 fc 07 3d d7 06 e0 b9 98 a5 89 ba 38 53 2e 3c
       0.033199392 -0.00042729705 -0.0010501621 0.010639958
0002d0 05 4e 88 ba 30 15 00 ba 37 6a 1f bb df ee bc bc
       -0.0010399228 -0.00048859697 -0.0024324784 -0.023063121
0002e0 0b 04 8f 3c 7a 9e 99 bd 1e 3b c8 3b 80 8a 65 bc
       0.017457983 -0.0750093 0.006110563 -0.014010072
0002f0 10 3d cc 3c 37 9f c3 3a 71 89 34 b8 36 4a ca bc
       0.02493146 0.0014924769 -4.3043347e-05 -0.02469359

exp_avg_sq f4 [64, 3]
000000 74 6d 9b 38 99 99 d5 38 5b 59 0b 3b f7 4b 94 3d
       7.411363e-05 0.00010185241 0.0021262977 0.07241052
000010 c5 81 ee 3c 76 e5 6c 3f 5a 3d 93 3a b2 42 98 3a
       0.029114613 0.9253763 0.0011233494 0.0011616556
000020 27 10 15 3d 29 a9 c3 39 37 df e6 39 36 ca 83 3c
       0.036392357 0.00037319332 0.00044035327 0.016087633
000030 b4 9a fd 3c 9b 36 89 3c 72 4f 19 3f 65 21 66 3a
       0.030957557 0.01674967 0.5988685 0.000877878
000040 be 71 85 39 29 20 1e 3c 4a fb bf 3c cc 37 25 3c
       0.0002545248 0.009651222 0.023435254 0.010084104
000050 6c ba be 3e 14 6d b2 3b d9 68 32 3b 82 0e af 3d
       0.37251604 0.005445132 0.0027223139 0.08547689
000060 e9 f9 dc 38 90 93 ae 38 8e 92 80 3b 9b 69 00 3b
       0.00010536967 8.324452e-05 0.0039237207 0.0019594196
000070 d7 70 f7 39 60 50 55 3c f1 aa aa 3c b7 f1 02 3c
       0.00047195583 0.013019651 0.020833464 0.0079922
000080 cc 31 7b 3e 1d a2 89 3b 0a 77 b5 3a 22 9b 82 3d
       0.24530715 0.0042002336 0.001384468 0.063772455
000090 e4 e7 9d 3b ca 19 1f 3b 2b 91 99 3d 8d 02 34 3c
       0.0048189033 0.0024276846 0.07498392 0.010986936
0000a0 0f 5e a8 3b 7b fd 1b 3e 5d b2 08 3b ba 0f 24 3b
       0.005138166 0.15233414 0.0020858266 0.0025033788
0000b0 15 fd b8 3d 9a 95 d4 3b 62 29 b8 3b 73 ff 43 3e
       0.090326466 0.0064875605 0.0056201676 0.19140415
0000c0 3b b1 9e 3a 25 02 1b 3a 95 77 a3 3c 0b 46 25 3c
       0.0012107262 0.00059131003 0.019954482 0.0100875
0000d0 d1 b2 c3 3b d3 3c 3b 3e 87 eb ff 3b 4c 01 c7 3b
       0.0059722443 0.18284921 0.0078100595 0.0060731526
0000e0 97 3d 51 3e 42 78 8e 39 ce c4 b9 39 ff 87 39 3c
       0.20433651 0.0002717395 0.0003543258 0.011323928
0000f0 33 71 c3 39 af 67 99 39 53 92 2d 3c 3d 5a b4 3c
       0.00037277638 0.00029259684 0.010593968 0.022015685
000100 e2 ef 24 3c 2c fd 98 3e fb fd cc 3b 07 43 bb 3b
       0.010066958 0.29880655 0.006255863 0.0057147774
000110 ab 75 58 3e a7 bb 00 39 c6 dd bf 38 88 be 54 3b
       0.21138637 0.00012276937 9.148898e-05 0.0032462198
000120 1b 0c 47 3b 67 ee 93 3a a7 c0 05 3d db c3 27 3b
       0.0030372206 0.0011286259 0.03265443 0.0025598917
000130 1b a4 16 3b ab b1 ae 3d 5d c3 19 3a bc 07 43 3a
       0.0022985998 0.08529981 0.0005865598 0.0007439812
000140 09 7b af 3c ac 41 f8 3b 61 4c b5 3b a6 a9 2d 3e
       0.021420972 0.007576188 0.0055327867 0.16959247
000150 a0 0c f2 39 09 65 54 39 bf 35 d3 3b 59 09 a7 3a
       0.00046167243 0.00020255534 0.006445616 0.0012743875
000160 a1 ec 26 3a f3 a4 17 3d 0d 87 a6 3a 68 62 30 3a
       0.0006367658 0.037022542 0.0012705043 0.0006728531
000170 c0 3d cf 3c 2c a4 6c 3a b4 4e 47 3a aa 38 e8 3c
       0.025298 0.0009027149 0.0007602975 0.028347332
000180 9d 65 8c 3c e7 04 14 3c 50 b3 a8 3e 79 6f b4 3a
       0.017138297 0.009034372 0.32949305 0.0013766132
000190 1d 5b fe 39 58 73 53 3c ee 8b 8d 3b 32 23 5a 3b
       0.0004851454 0.012905918 0.0043196594 0.0033285138
0001a0 f6 bd fb 3d 10 bc 2f 3b 39 c9 a7 3a e4 01 31 3d
       0.122920915 0.0026814975 0.0012801058 0.043214694
0001b0 8a 97 01 3d be 70 71 3c d9 62 fa 3e df e8 6f 3c
       0.03163866 0.0147363525 0.4890354 0.014642923
0001c0 a8 17 48 3c 26 f0 c8 3e 58 df 84 3c 6f a0 4a 3b
       0.012212671 0.3924572 0.01621978 0.003091838
0001d0 7d ac be 3d 61 bf 0c 3b 84 47 94 3a 0c 3b f3 3c
       0.09310243 0.0021476375 0.0011312817 0.029691242
0001e0 17 38 00 3d 04 1b b7 3c bc a2 48 3f 19 84 a9 3c
       0.03130349 0.02235175 0.7837331 0.020692872
0001f0 3c 47 0d 3c 99 23 93 3e 75 6a af 3c 5c b2 da 3b
       0.008622941 0.28738096 0.021413067 0.006674094
000200 b7 5c c3 3e 7d 5a 11 3c da 97 b5 3b 8a b7 4f 3e
       0.38156673 0.008871672 0.0055417838 0.20284858
000210 c4 1d e2 39 2c 5b 0a 3a fa e9 61 3c be 92 15 3d
       0.00043128256 0.0005277868 0.0137886945 0.036516897
000220 8f 1c a7 3c c7 94 29 3f e2 14 5d 3a f4 18 da 3a
       0.02039936 0.6624264 0.0008433593 0.0016639517
000230 69 46 44 3d 98 35 ed 39 66 a1 b0 39 93 87 42 3c
       0.04791871 0.00045244093 0.00033689587 0.011873144
000240 79 09 19 39 f7 f8 16 39 d8 15 97 3b 78 95 4d 3c
       0.00014594746 0.00014397861 0.0046107583 0.012547843
000250 76 ee b3 3b 9d a8 21 3e 24 4b 54 39 06 4a 1a 39
       0.0054910732 0.15786977 0.00020245888 0.0001471416
000260 31 15 8c 3b 4f 20 d0 3a 15 0a c7 3a d5 e9 42 3d
       0.004274987 0.0015878769 0.00151855 0.04758628
000270 ae f8 5d 3c 4a 70 57 3c 5c dd cc 3e 74 c5 20 3b
       0.013548059 0.01314933 0.40012634 0.0024531754
000280 23 4b 55 3b 89 54 01 3e 65 9a a4 3c 5c 8a 19 3c
       0.0032546006 0.12629904 0.020093152 0.009371366
000290 2f 01 bd 3e 47 20 8b 39 2b e1 b2 39 77 e2 63 3c
       0.36914966 0.00026536194 0.0003411857 0.013908974
0002a0 b1 d8 c3 3b 02 d4 2d 3b 31 9b a4 3d 16 b0 93 38
       0.0059767594 0.0026524072 0.08037413 7.042305e-05
0002b0 97 e1 72 38 5e 8e 37 3b 10 77 ff 3b 05 8e 03 3c
       5.7907393e-05 0.0028008441 0.007796176 0.008029466
0002c0 26 d9 97 3e d9 15 46 3b b5 39 09 3b f8 0e 9c 3d
       0.2965786 0.0030225425 0.0020938937 0.076200426
0002d0 bc c9 12 3a 06 81 e4 39 f8 63 5d 3c 9d c5 67 3d
       0.0005599519 0.0004358368 0.013512604 0.056584943
0002e0 40 5e b4 3c 8b 3a 2f 3f 68 d9 29 3d 5e 63 d0 3c
       0.022017598 0.68448704 0.0414671 0.025438007
0002f0 49 50 50 3f ba 07 44 3a de 23 30 3a 0a 27 64 3c
       0.81372505 0.0007477958 0.0006719212 0.013925323

exp_avg f4 [64]
000000 61 e4 86 ba 4f 0d e0 bc 7f 81 75 3b a4 31 2f 3a
       -0.0010291451 -0.027350096 0.003746122 0.0006683117
000010 b2 bc 70 ba 77 00 0b bb 72 d9 94 3b a6 04 df 38
       -0.0009183391 -0.0021209994 0.004542523 0.000106343345
000020 4b fb bd b9 9c ef 10 3b 87 73 b9 3a bb c6 22 3b
       -0.00036236117 0.0022115475 0.001414881 0.002483769
000030 c0 88 4e 3b 44 e2 44 3a 5e 61 35 bb 9c 33 80 3c
       0.0031514615 0.0007510523 -0.0027676444 0.01564961
000040 5a 60 b7 ba c3 73 65 3c 5e ca 89 3c 96 c2 8a b9
       -0.0013990507 0.0140046505 0.016820129 -0.0002646639
000050 7c 3c 1a 39 c9 c9 10 bb b2 d8 f5 b9 e4 2d 21 ba
       0.00014709117 -0.002209293 -0.00046891492 -0.0006148501
000060 7a 39 82 3b b3 11 a3 3a a1 b4 8d bb 1f 94 0f bb
       0.003974137 0.0012441188 -0.004324511 -0.0021908355
000070 be a9 49 3b ca 19 2a 3a 8b 36 ad 3b 02 92 52 39
       0.003077134 0.0006488828 0.005286043 0.00020081553
000080 09 76 8e 3a 1c ed f6 bb cc f9 4d 3c c9 df 91 ba
       0.0010868917 -0.00753559 0.012571763 -0.0011129315
000090 64 2e 36 3c 9b 4f 6b 3c 0d 92 06 3c b5 b1 50 3b
       0.011119459 0.014362241 0.008213532 0.0031844203
0000a0 ee 57 34 3b d3 fb 01 bb 73 ce 3e 3c bc 21 a9 3b
       0.002751823 -0.0019833937 0.011645901 0.005161492
0000b0 f3 c3 2a ba d3 a5 48 3c 15 f6 9d ba 8b 68 70 ba
       -0.0006514184 0.012246567 -0.0012051488 -0.00091708516
0000c0 67 89 89 b8 c8 98 75 3a 53 34 8b 3a d3 1b 59 ba
       -6.558262e-05 0.00093687745 0.0010620452 -0.0008282039
0000d0 91 61 48 3c ee da fc bb 65 df 86 3b ee f6 cd ba
       0.012230293 -0.007716528 0.004115986 -0.001571385
0000e0 c9 ed c4 36 69 0c 09 ba 7e ad 94 3b 8a cb df 3a
       5.868937e-06 -0.00052279845 0.0045372834 0.0017074209
0000f0 8e 4e 87 b9 68 f8 4a bc e0 0b 3e bb 9a 4e c4 bb
       -0.00025807734 -0.012388326 -0.0028998777 -0.0059908153

exp_avg_sq f4 [64]
000000 f7 f1 b6 38 dc 3c c0 3d 1c 37 a2 3a c0 6c 2f 3a
       8.723506e-05 0.09386608 0.0012376043 0.0006691925
000010 0e 10 25 3d 21 b8 88 3a 41 10 fa 3c e1 8c e2 3b
       0.040298514 0.0010430851 0.030525329 0.0069137667
000020 1e ac 2c 39 1d 1b 1e 3b 1c 39 be 3c 1b 93 b6 3b
       0.00016467317 0.0024125047 0.023220591 0.0055717356
000030 88 4d cf 3b be 44 58 3c 68 6f 6d 3b 4a fb 0f 3c
       0.006326381 0.013199983 0.0036229733 0.008787939
000040 cd fd c9 3a 25 4e 48 3c ae e6 3a 3c d0 c8 d0 39
       0.0015410722 0.012225662 0.011407537 0.00039822469
000050 14 c5 0b 3a cd ad cd 3c ad 7b 33 3c 29 a8 59 39
       0.0005331796 0.025107289 0.01095478 0.00020757377
000060 bf 68 58 3b f4 d5 94 3b 73 7f 87 3a 66 39 0f 3c
       0.0033021418 0.0045421068 0.0010337665 0.008741712
000070 41 60 22 3a 3b 60 05 3b 54 2e dd 3a 6e 7a d1 3a
       0.00061941525 0.0020351547 0.0016874769 0.0015981921
000080 72 b4 b7 3c 9e 05 d9 3a 27 9f e6 3b a8 fe 63 3b
       0.02242491 0.001655746 0.0070380154 0.0034789238
000090 ba 99 23 3d c5 66 bc 3c fd eb 95 3c 38 f6 18 3b
       0.039941527 0.022998223 0.018301005 0.0023340117
0000a0 a1 77 3e 3d 59 4c c8 3c fa 30 e3 3c 7b c1 4d 3c
       0.046500806 0.024450468 0.027733315 0.012558336
0000b0 bd 73 1f 3a 80 0c 54 3d 26 9a cc 3a fb e9 07 3a
       0.0006082615 0.051769733 0.0015609905 0.0005184707
0000c0 84 bf 63 39 c3 ad 7b 3c 83 f1 93 39 71 12 17 3b
       0.00021719752 0.015361252 0.00028217965 0.0023051763
0000d0 4a f3 b0 3c 5a 80 a7 3b 87 83 db 3c cd 43 01 3a
       0.021600384 0.0051117362 0.026796116 0.00049310626
0000e0 5e 69 f9 3b fd a3 f0 38 43 70 61 3c 12 91 9d 3b
       0.0076114377 0.00011474637 0.013759675 0.0048085535
0000f0 96 d7 33 3a 26 4c 96 3d 02 e9 48 3d cc 4b 70 3a
       0.0006860433 0.07338743 0.04905034 0.0009166568

exp_avg f4 [32, 64]
000000 3c 6c 97 b9 bd e3 0e 3a 45 1a cc b8 ae c8 2d ba
       -0.00028881605 0.0005450806 -9.732371e-05 -0.000662933
000010 71 72 32 39 ec af 12 3a a4 77 76 b8 04 b1 3f bb
       0.00017018036 0.00055956724 -5.8762394e-05 -0.0029249797
000020 3b f6 9b ba f0 9f 27 39 15 db 72 3a 51 b4 0a 37
       -0.0011898944 0.00015985942 0.0009264213 8.267424e-06
000030 c2 c6 2f 39 c1 34 21 bb df 68 01 3a e5 51 b9 b9
       0.00016763344 -0.0024598094 0.00049365865 -0.00035346966
000040 8d 51 7a bb 71 79 dc b9 ee e7 94 b9 4c e3 a3 39
       -0.003819558 -0.0004205215 -0.0002840156 0.00031259132
000050 4c df 04 ba 86 5e 04 3a 50 8d f1 37 45 ff 73 b9
       -0.0005068674 0.00050494855 2.8795243e-05 -0.00023269381
000060 86 dd 94 ba dd 9a 95 b7 0c 07 1a ba 66 12 ec ba
       -0.0011357523 -1.7834298e-05 -0.0005875684 -0.0018010854
000070 ba 5c 1a b9 12 67 2a 3a ca 9e e7 38 2b 56 1d b8
       -0.00014721128 0.0006500344 0.00011044515 -3.7511967e-05
000080 f6 be 78 39 46 0e 8b 39 57 a4 98 b6 6a 0e 62 bb
       0.00023722262 0.0002652278 -4.5490847e-06 -0.0034493455
000090 9d 73 b2 37 b5 34 58 ba 6f ad 14 b9 90 81 3b ba
       2.127309e-05 -0.00082476 -0.00014178989 -0.000715279
0000a0 9c 79 ba b8 8b fc 5c 3a ed 1c 2c 39 07 ca 7d ba
       -8.891823e-05 0.0008429966 0.00016413974 -0.00096812885
0000b0 65 2f bc ba e5 01 cb 39 fa ab 27 b6 ff 71 d8 ba
       -0.0014357386 0.0003872059 -2.4985043e-06 -0.0016513466
0000c0 34 d1 af 38 13 2d 3f bb 4a 3b 32 ba 5f df bb ba
       8.3836174e-05 -0.0029171153 -0.0006798996 -0.0014333538
0000d0 cb 53 ab ba 53 f6 4b ba a3 3d 8e 36 e3 f4 6d ba
       -0.0013071237 -0.00077805406 4.2391052e-06 -0.00090773235
0000e0 84 cd 18 bb d4 ae 1e ba 7f 46 8b b9 0e a3 a2 ba
       -0.0023315856 -0.0006053273 -0.0002656467 -0.0012408213
0000f0 35 41 08 ba 27 f8 12 3a 56 50 33 ba 7e f9 1a ba
       -0.0005197705 0.00056064356 -0.0006840279 -0.0005911811
000100 7e 81 9e b9 0e 49 5c 3a 2b b3 d9 b8 48 9f 36 ba
       -0.00030232588 0.000840322 -0.00010380739 -0.0006966484
000110 5d e1 41 39 7d f7 67 3a fe 19 80 39 06 f9 3a bb
       0.00018489869 0.00088488293 0.00024433428 -0.0028529777
000120 ac 61 a6 ba b2 09 24 39 3c b4 61 3a 13 e5 7e 38
       -0.0012693903 0.0001564387 0.0008609926 6.077166e-05
000130 db ec b6 39 47 fa 17 bb 17 bf 65 3a 1b a9 ad b9
       0.00034890216 -0.0023189948 0.00087641313 -0.00033123125
000140 69 c0 6e bb 80 d5 dc b9 93 fd 40 b8 54 1f 40 3a
       -0.0036430603 -0.0004212074 -4.6012527e-05 0.0007328887
000150 18 8f e0 b9 8d c9 f0 39 29 25 01 38 38 04 80 b9
       -0.00042831223 0.00045926534 3.0790605e-05 -0.00024417206
000160 3f f5 9a ba 18 65 92 b7 ba 83 20 ba 0c ec d7 ba
       -0.0011822357 -1.7451632e-05 -0.00061231444 -0.0016473546
000170 87 e3 1d b9 14 8b 60 3a c6 9b a9 39 74 8f 22 b8
       -0.00015057447 0.0008565646 0.00032350252 -3.875741e-05
000180 15 29 b7 39 be 88 b8 39 90 9e ec 39 12 78 53 bb
       0.00034935088 0.00035197096 0.00045131566 -0.0032267612
000190 ff 0c 29 39 e5 7d 61 ba bd 1e 1e b9 14 44 40 ba
       0.00016121937 -0.00086018286 -0.00015079505 -0.0007334363
0001a0 06 ef c1 b8 34 02 6b 3a d2 c1 1b 39 1f 80 85 ba
       -9.247479e-05 0.0008964867 0.00014854156 -0.0010185278
0001b0 e8 7d c5 ba a7 47 59 3a 67 86 76 39 06 97 c5 ba
       -0.001506743 0.000828857 0.00023510457 -0.0015074916
0001c0 8e 71 24 39 09 8c 34 bb d6 21 3a ba 6b 14 c5 ba
       0.00015682561 -0.0027549288 -0.0007100379 -0.0015035992
0001d0 fe be b2 ba 34 35 59 ba 65 d6 87 39 d6 40 78 ba
       -0.0013637242 -0.0008285821 0.00025908943 -0.00094701105
0001e0 76 5f 0f bb da eb 29 ba 10 54 92 b9 95 1f ab ba
       -0.0021876968 -0.0006481983 -0.00027909921 -0.0013055677
0001f0 2a d8 ae b9 7e 59 72 3a 5b e8 22 ba d3 86 22 ba
       -0.0003334892 0.0009244903 -0.0006214433 -0.00061999
000200 00 00 00 00 04 00 00 00 00 00 00 00 00 00 00 00
       0.0 6e-45 0.0 0.0
000210 00 00 00 00 04 00 00 00 04 00 00 00 04 00 00 00
       0.0 6e-45 6e-45 6e-45
000220 00 00 00 00 00 00 00 00 00 00 00 00 00 00 00 00
       0.0 0.0 0.0 0.0
000230 04 00 00 00 04 00 00 00 04 00 00 00 00 00 00 00
       6e-45 6e-45 6e-45 0.0
000240 00 00 00 00 00 00 00 00 00 00 00 00 04 00 00 00
       0.0 0.0 0.0 6e-45
000250 04 00 00 00 00 00 00 00 00 00 00 00 00 00 00 00
       6e-45 0.0 0.0 0.0
000260 04 00 00 00 00 00 00 00 04 00 00 00 04 00 00 00
       6e-45 0.0 6e-45 6e-45
000270 00 00 00 00 04 00 00 00 04 00 00 00 00 00 00 00
       0.0 6e-45 6e-45 0.0
000280 04 00 00 00 04 00 00 00 04 00 00 00 04 00 00 00
       6e-45 6e-45 6e-45 6e-45
000290 00 00 00 00 04 00 00 00 00 00 00 00 00 00 00 00
       0.0 6e-45 0.0 0.0
0002a0 00 00 00 00 00 00 00 00 04 00 00 00 00 00 00 00
       0.0 0.0 6e-45 0.0
0002b0 00 00 00 00 04 00 00 00 04 00 00 00 04 00 00 00
       0.0 6e-45 6e-45 6e-45
0002c0 04 00 00 00 04 00 00 00 00 00 00 00 04 00 00 00
       6e-45 6e-45 0.0 6e-45
0002d0 04 00 00 00 04 00 00 00 04 00 00 00 04 00 00 00
       6e-45 6e-45 6e-45 6e-45
0002e0 04 00 00 00 00 00 00 00 00 00 00 00 00 00 00 00
       6e-45 0.0 0.0 0.0
0002f0 04 00 00 00 04 00 00 00 04 00 00 00 00 00 00 00
       6e-45 6e-45 6e-45 0.0
000300 00 00 00 00 04 00 00 00 04 00 00 00 04 00 00 00
       0.0 6e-45 6e-45 6e-45
000310 04 00 00 00 04 00 00 00 04 00 00 00 04 00 00 00
       6e-45 6e-45 6e-45 6e-45
000320 04 00 00 00 04 00 00 00 04 00 00 00 04 00 00 00
       6e-45 6e-45 6e-45 6e-45
000330 04 00 00 00 04 00 00 00 04 00 00 80 04 00 00 00
       6e-45 6e-45 -6e-45 6e-45
000340 04 00 00 00 04 00 00 00 04 00 00 00 04 00 00 00
       6e-45 6e-45 6e-45 6e-45
000350 04 00 00 00 04 00 00 00 04 00 00 00 04 00 00 00
       6e-45 6e-45 6e-45 6e-45
000360 04 00 00 00 04 00 00 00 04 00 00 00 04 00 00 00
       6e-45 6e-45 6e-45 6e-45
000370 04 00 00 00 04 00 00 00 04 00 00 00 04 00 00 00
       6e-45 6e-45 6e-45 6e-45
000380 04 00 00 00 04 00 00 00 04 00 00 00 04 00 00 00
       6e-45 6e-45 6e-45 6e-45
000390 04 00 00 00 04 00 00 00 04 00 00 00 04 00 00 00
       6e-45 6e-45 6e-45 6e-45
0003a0 04 00 00 80 04 00 00 00 04 00 00 00 04 00 00 00
       -6e-45 6e-45 6e-45 6e-45
0003b0 04 00 00 00 04 00 00 00 04 00 00 00 04 00 00 00
       6e-45 6e-45 6e-45 6e-45
0003c0 04 00 00 00 04 00 00 00 04 00 00 00 04 00 00 00
       6e-45 6e-45 6e-45 6e-45
0003d0 04 00 00 00 04 00 00 00 04 00 00 00 04 00 00 80
       6e-45 6e-45 6e-45 -6e-45
0003e0 04 00 00 00 04 00 00 00 04 00 00 00 04 00 00 00
       6e-45 6e-45 6e-45 6e-45
0003f0 04 00 00 00 04 00 00 00 04 00 00 00 00 00 00 00
       6e-45 6e-45 6e-45 0.0
