pytorch-DS-051/rackhun/1_A2C_pendulum/saved_model/A2C_ACTOR.pth (torch_old, 38708 bytes, 24 tensors)

fc1.weight f4 [64, 3]
0.49567506 0.055745587 0.14944825 -0.17318045 -0.48434553 -0.08024468 -0.3916415 0.34587872
-0.34829864 0.31249905 0.66689587 0.35412836 -0.36301804 0.29331926 0.57141054 -0.6189986
-0.030630246 -0.2214283 0.4161812 -0.35583618 -0.06562787 0.4704746 -0.42315897 -0.3143407
-0.46848822 0.071521975 0.48116347 -0.3929221 -0.022461863 -0.4715473 0.4249467 -0.32076973
0.18849547 -0.22067271 -0.69551456 0.27015743 0.14230391 -0.5560818 -0.5773157 0.4701101
0.4161762 0.47577518 -0.6734515 -0.43774238 -0.21496652 0.5924349 -0.52339643 -0.037086558
-0.007980444 0.42622456 -0.21129596 -0.09628012 0.6666406 0.15810293 -0.17128421 0.22990513
-0.27056664 -0.20122008 0.01928972 0.5755125 -0.26456615 -0.51498157 -0.5228869 -0.44991183
-0.33278355 -0.5150324 -0.27656445 0.017216349 -0.24707034 -0.62426776 0.40441024 -0.4230134
-0.6053209 0.083130926 0.021775112 -0.4192656 0.21433042 0.4651744 0.43832698 0.08217144
0.1363333 -0.38724914 -0.42250532 0.35300735 0.52970237 -0.3876233 -0.44045794 0.39164904
0.5982502 0.2896295 -0.3490132 0.40456712 -0.54300016 -0.27742445 0.4447414 -0.03766688
-0.3880843 -0.09982367 -0.29695916 0.57110286 0.33111298 -0.15199344 0.31056616 0.29558894
-0.51611286 0.28139725 0.515327 0.11809705 -0.56983304 -0.40868002 0.34248242 -0.4499098
0.3949663 0.19713853 -0.62786174 0.050181255 0.5317397 0.16147959 0.20307499 -0.19103469
0.49942458 -0.6129762 -0.25964463 0.18493024 -0.082187235 -0.484892 0.36427492 0.4535444
-0.42499256 -0.07463621 -0.23831332 0.28542838 0.68088573 -0.09930134 -0.11180544 -0.6348745
-0.5009156 -0.5364531 -0.6065888 0.027938148 -0.11756634 0.43738514 -0.18782803 0.29944965
0.42138678 0.055118874 -0.40576315 0.5181838 0.4063538 -0.25472644 0.5060922 -0.0633333
0.5090429 0.31268972 0.272745 0.35065362 0.22299741 0.1626924 0.40991372 -0.5561899
0.13686581 -0.024864038 -0.5968299 0.44631657 0.19752641 0.11922457 0.23473084 0.18638183
0.26382288 0.057712022 -0.53518564 0.2537903 0.53746897 0.05985209 0.273996 0.24743237
-0.15644127 0.34750018 0.47875956 0.09046043 0.68410754 -0.62390476 -0.13495341 -0.08276365
0.6341278 -0.1776362 0.290633 -0.24408077 0.58263254 -0.64081585 -0.36451203 -0.42338786
00000000: 1fc9 fd3e 7c55 643d f608 193e 3756 31be
00000010: 23fc f7be 5357 a4bd 3c85 c8be 0417 b13e
00000020: 3354 b2be e0ff 9f3e b0b9 2a3f 5050 b53e
00000030: 80dd b9be f12d 963e f647 123f b176 1ebf
00000040: 48ec fabc 1abe 62be b415 d53e 2930 b6be
00000050: e867 86bd 0ce2 f03e 4ba8 d8be 44f1 a0be
00000060: b0dd efbe 1d7a 923d 0f5b f63e 162d c9be
00000070: f101 b8bc a66e f1be 9d92 d93e ee3b a4be
00000080: f504 413e 07f8 61be 3e0d 32bf 1352 8a3e
00000090: 1eb8 113e 605b 0ebf f6ca 13bf 45b2 f03e
000000a0: 0c15 d53e ce98 f33e 5167 2cbf c51f e0be
000000b0: 2f20 5cbe d0a9 173f 4ffd 05bf 13e8 17bd
000000c0: 68c0 02bc 1b3a da3e f85d 58be 832e c5bd
000000d0: f5a8 2a3f bce5 213e 2165 2fbe 406c 6b3e
000000e0: b687 8abe a30c 4ebe 7a05 9e3c ca54 133f
000000f0: 3775 87be d5d5 03bf eadb 05bf d85a e6be
00000100: 9b62 aabe 2ad9 03bf db99 8dbe 4d09 8d3c
00000110: 0200 7dbe 03d0 1fbf dc0e cf3e 3695 d8be
00000120: 4ff6 1abf 8c40 aa3d b861 b23c fba9 d6be
00000130: 6f79 5b3e 572b ee3e 656c e03e 8049 a83d
00000140: f59a 0b3e 8545 c6be 9e52 d8be 61bd b43e
00000150: 939a 073f 9076 c6be b483 e1be 3986 c83e
00000160: ed26 193f 514a 943e dcb1 b2be 6c23 cf3e
00000170: 0f02 0bbf 940a 8ebe 25b5 e33e 9648 1abd
00000180: fcb2 c6be 5a70 ccbd 080b 98be cc33 123f
00000190: a487 a93e 2ba4 1bbe 8702 9f3e 6f57 973e
000001a0: f91f 04bf 4d13 903e 78ec 033f dedc f13d
000001b0: 94e0 11bf 823e d1be db59 af3e 945a e6be
000001c0: 0639 ca3e afde 493e 8cbb 20bf dc8a 4d3d
000001d0: 1820 083f e85a 253e e4f2 4f3e 999e 43be
000001e0: 94b4 ff3e 02ec 1cbf 24f0 84be 5a5e 3d3e
000001f0: c851 a8bd c443 f8be 3e82 ba3e f936 e83e
00000200: a098 d9be dfda 98bd 6808 74be ab23 923e
00000210: 874e 2e3f 805e cbbd 40fa e4bd 2387 22bf
00000220: 013c 00bf fe54 09bf 6749 1bbf 8bde e43c
00000230: 9fc6 f0bd f2f0 df3e fe55 40be 7751 993e
00000240: 02c0 d73e 54c4 613d 30c0 cfbe b2a7 043f
00000250: 9b0d d03e 816b 82be 428f 013f e4b4 81bd
00000260: a350 023f de18 a03e 3ca5 8b3e df88 b33e
00000270: 6f59 643e d698 263e 36e0 d13e 7662 0ebf
00000280: 8d26 0c3e abaf cbbc d8c9 18bf 9b83 e43e
00000290: 5d44 4a3e 032c f43d 485d 703e e1da 3e3e
000002a0: cb13 873e 7163 6c3d ed01 09bf cdf0 813e
000002b0: 9197 093f 7727 753d 3449 8c3e e95e 7d3e
000002c0: 2432 20be 8beb b13e f91f f53e 5143 b93d
000002d0: ac21 2f3f 39b8 1fbf 3a31 0abe fd7f a9bd
000002e0: 3356 223f 44e6 35be d9cd 943e 4ff0 79be
000002f0: 6827 153f 820c 24bf 52a1 babe 4bc6 d8be

fc1.bias f4 [64]
-0.47154465 0.35790667 0.053942446 0.04703738 -0.5535258 -0.52201796 0.07533566 -0.38438594
0.26790118 -0.4648361 0.267664 0.41147834 -0.5283892 0.11354506 0.03039211 0.5432909
0.34732938 0.48098564 -0.28225726 -0.5630723 -0.28706574 -0.49138403 -0.1575026 0.33005917
0.5602593 0.47657925 -0.36705932 0.44438726 0.3135216 -0.32114983 -0.1955917 0.19676718
-0.08493333 0.5836441 -0.22628707 -0.14646335 0.07356978 -0.3678559 0.49049234 0.3649484
-0.35820282 0.590517 0.5960484 0.545444 -0.09986455 0.19932008 -0.070974395 -0.33169928
-0.39637995 -0.49879766 0.43219337 0.31704906 -0.17631802 0.11339855 0.03232191 0.023224482
0.39298123 0.269578 0.1296047 0.4928963 -0.13907991 0.18036759 0.18013173 -0.40794605
00000000: 4d6e f1be 8b3f b73e c1f2 5c3d 45aa 403d
00000010: deb3 0dbf f8a2 05bf 9549 9a3d 3cce c4be
00000020: 582a 893e fffe edbe 410b 893e 4aad d23e
00000030: 8444 07bf 508a e83d e0f8 f83c 1d15 0b3f
00000040: 28d5 b13e c043 f63e 0684 90be 8225 10bf
00000050: 48fa 92be b096 fbbe 5d48 21be 84fd a83e
00000060: 276d 0f3f 3202 f43e 33ef bbbe ba86 e33e
00000070: e785 a03e c06d a4be 3149 48be 567d 493e
00000080: 87f1 adbd b369 153f ccb7 67be 7dfa 15be
00000090: c1ab 963d 9c57 bcbe d021 fb3e 84da ba3e
000000a0: 5c66 b7be 1f2c 173f a196 183f 38a2 0b3f
000000b0: c985 ccbd 901a 4c3e 065b 91bd 7dd4 a9be
000000c0: 50f2 cabe 6862 ffbe 7348 dd3e 4154 a23e
000000d0: b68c 34be 803d e83d fb63 043d 4541 be3c
000000e0: d634 c93e 2106 8a3e 18b7 043e e75c fc3e
000000f0: f76a 0ebe 48b2 383e 7474 383e 4ede d0be

fc2.weight f4 [32, 64]
0.19938393 -0.1739867 0.009868061 0.108865656 0.05955393 -0.030362193 -0.008259655 -0.054573018
-0.109023124 -0.019820817 0.03466728 0.024302144 -0.05915312 0.0054469644 0.09577522 0.01100665
0.073690906 0.16997188 0.09393069 -0.103222154 -0.05182779 -0.049181957 -0.0899205 0.070765704
-0.08641493 -0.008586718 0.18546313 -0.12038896 -0.1501974 -0.033463415 0.08806652 -0.03234282
0.12001316 0.035717834 -0.020843692 0.004445362 -0.12958407 -0.03414873 -0.038566783 0.12218553
-0.20886753 -0.0051024244 0.06626694 0.06688023 -0.11968244 0.10816162 -0.025033863 0.07471717
-0.018865539 -0.0802737 0.15204893 0.0993959 0.130632 0.07692089 -0.08389414 0.12461865
0.0684342 0.16691925 0.041633315 -0.021563688 -0.19411202 0.12896173 -0.0060685957 -0.077325106
0.07194911 -0.060264416 -0.0050488366 0.12512818 0.036106788 -0.04773092 -0.16056108 -0.06651858
-0.12854503 0.069430105 0.097165845 -0.13372615 -0.006120524 -0.018470267 0.13214661 -0.065188184
0.1497943 0.18377398 0.12075039 -0.09642977 -0.07675395 -0.03029807 0.09438937 -0.069726296
-0.05465698 0.111395985 -0.03975619 -0.04172556 0.009008165 0.127775 0.08525049 0.07967664
-0.034742806 0.13045299 0.07652335 0.05938685 -0.0786481 -0.13061455 0.064378336 0.027230892
0.010114013 -0.0013155008 0.0750623 0.1102981 -0.11168339 0.029203791 -0.018525487 0.054579403
-0.027892468 -0.060497828 0.069579124 0.008600957 0.068280935 -0.0423691 0.009914399 0.1457138
-0.06446287 0.14391273 0.019739926 0.11936889 -0.13728663 0.007026158 0.035744015 0.10197906
-0.15657179 0.23090978 -0.04508844 -0.0148322405 0.062153157 -0.08085829 0.1990936 0.2216859
-0.052701015 -0.06433097 0.1375963 0.124111265 0.10500301 0.053013943 -0.0908873 0.0963552
0.08354875 0.0009060347 0.009933609 0.01292195 -0.048417587 0.056622133 0.03507681 0.07569642
0.056916967 0.063458435 -0.16388993 0.031715397 0.13041076 0.06384229 -0.089641556 -0.030500935
-0.11249568 0.103200346 -0.03665235 -0.098396994 0.06226922 -0.006334432 0.1404159 -0.0277262
0.16151395 0.11847133 0.1296991 -0.019759156 0.1774569 0.0651012 -0.1179926 -0.078878
-0.053698517 0.026442567 0.05357544 -0.033677477 0.055863027 -0.05269456 -0.05580748 0.028479123
0.1438425 -0.08000513 0.08373541 0.12340633 0.08656843 -0.05494115 0.04819142 -0.043626603
-0.035103094 -0.050000787 0.07992986 -0.028188907 -0.096875735 -0.009954568 0.026576998 0.18528873
0.030302463 0.03017971 0.034530237 -0.030693568 0.021243017 0.047176637 -0.030402614 0.08979545
0.14696774 0.1986657 -0.066850044 0.07654377 0.07188371 0.12546939 0.01592107 0.055485666
-0.037026383 0.15115833 0.11085751 0.057684373 0.07189469 -0.029467776 -0.07259012 0.01739151
0.09952999 0.25163516 -0.04350894 0.16017716 0.11928518 -0.10255115 0.14329493 0.17035359
0.079978466 0.04549814 0.13698016 0.13050029 0.23399402 -0.019126339 -0.012766418 0.052743115
-0.03567993 0.18178868 -0.020837938 0.15981668 0.16665888 -0.0366234 -0.059786543 0.15538788
0.20211336 0.03913574 0.046016067 0.034992557 0.01980149 0.11187238 0.15532677 0.00053269236
00000000: 4d2b 4c3e 9229 32be a6ad 213c f5f4 de3d
00000010: d2ee 733d 22ba f8bc 8153 07bc f587 5fbd
00000020: 8447 dfbd 445f a2bc 47ff 0d3d 4a15 c73c
00000030: 8b4a 72bd 737c b23b cc25 c43d 3c55 343c
00000040: 42eb 963d 1c0d 2e3e bc5e c03d 2366 d3bd
00000050: 6049 54bd 0573 49bd 3d28 b8bd 9ced 903d
00000060: 50fa b0bd 4eaf 0cbc 0cea 3d3e 7d8e f6bd
00000070: 59cd 19be ef10 09bd 385c b43d e879 04bd
00000080: 76c9 f53d dd4c 123d 64c0 aabc 66aa 913b
00000090: b0b1 04be 8adf 0bbd 34f8 1dbd 683c fa3d
000000a0: 5fe1 55be 3d32 a7bb f6b6 873d 81f8 883d
000000b0: 111c f5bd d783 dd3d d113 cdbc 5105 993d
000000c0: e78b 9abc 8a66 a4bd b7b2 1b3e 1490 cb3d
000000d0: 65c4 053e b388 9d3d b1d0 abbd 1038 ff3d
000000e0: 3b27 8c3d e1ec 2a3e b287 2a3d 55a6 b0bc
000000f0: 4dc5 46be 8b0e 043e 12db c6bb a05c 9ebd
00000100: 0e5a 933d d2d7 76bd b670 a5bb 9a21 003e
00000110: b6e4 133d 7f81 43bd 206a 24be e53a 88bd
00000120: 4fa1 03be 5f31 8e3d e3fe c63d 82ef 08be
00000130: ad8e c8bb f54e 97bc 7151 073e 6281 85bd
00000140: ad63 193e 3f2f 3c3e fb4b f73d f97c c5bd
00000150: 2d31 9dbd a833 f8bc 374f c13d a9cc 8ebd
00000160: ffdf 5fbd 9423 e43d 63d7 22bd 6ce8 2abd
00000170: fc96 133c 73d7 023e cf97 ae3d 822d a33d
00000180: 794e 0ebd 7895 053e 46b8 9c3d a03f 733d
00000190: 4112 a1bd d2bf 05be cad8 833d 5213 df3c
000001a0: 3fb5 253c e26c acba 43ba 993d f8e3 e13d
000001b0: 43ba e4bd ca3c ef3c c3c2 97bc a78e 5f3d
000001c0: bf7e e4bc 92cc 77bd 807f 8e3d 07eb 0c3c
000001d0: e0d6 8b3d 398b 2dbd 0170 223c 0036 153e
000001e0: 1c05 84bd dc5d 133e a0b5 a13c ad77 f43d
000001f0: de94 0cbe af3b e63b 5168 123d 66da d03d
00000200: 5b54 20be 9d73 6c3e a8ae 38bd ed02 73bc
00000210: 4f94 7e3d 0899 a5bd 31df 4b3e a101 633e
00000220: 05dd 57bd f5bf 83bd 0be6 0c3e 0c2e fe3d
00000230: d10b d73d 2625 593d 1f23 babd e055 c53d
00000240: 9b1b ab3d f682 6d3a 93c0 223c 96b6 533c
00000250: 8551 46bd 9cec 673d b3ac 0f3d ba06 9b3d
00000260: c421 693d 7ff6 813d c3d2 27be 01e8 013d
00000270: 668a 053e bfbf 823d fe95 b7bd 19dd f9bc
00000280: 2364 e6bd b45a d33d c620 16bd 5d84 c9bd
00000290: 020e 7f3d 1191 cfbb 30c9 0f3e 0e22 e3bc
000002a0: ea63 253e 19a1 f23d d7cf 043e f4dd a1bc
000002b0: 43b7 353e c753 853d 1ba6 f1bd ca8a a1bd
000002c0: faf2 5bbd 159e d83c ec71 5b3d 65f1 09bd
000002d0: a1d0 643d 40d6 57bd 6296 64bd 0d4d e93c
000002e0: 734b 133e bbd9 a3bd 787d ab3d 75bc fc3d
000002f0: ca4a b13d f909 61bd 5e64 453d cfb1 32bd
00000300: 43c8 0fbd a0cd 4cbd 44b2 a33d 6cec e6bc
00000310: c966 c6bd 7c18 23bc 01b8 d93c 54bc 3d3e
00000320: df3c f83c 703b f73c 946f 0d3d 1471 fbbc
00000330: d605 ae3c 4a3c 413d e70e f9bc ade6 b73d
00000340: b67e 163e 056f 4b3e ade8 88bd fbc2 9c3d
00000350: c437 933d 0c7b 003e e76c 823c f044 633d
00000360: faa8 17bd 40c9 1a3e 4309 e33d 7346 6c3d
00000370: 863d 933d 6866 f1bc 21aa 94bd a478 8e3c
00000380: 61d6 cb3d 53d6 803e 6e36 32bd 7b05 243e
00000390: ca4b f43d 5606 d2bd e8bb 123e 2c71 2e3e
000003a0: c0cb a33d 425c 3a3d 8744 0c3e dea1 053e
000003b0: 219c 6f3e d7ae 9cbc 3d2a 51bc 2a09 583d
000003c0: 1e25 12bd d026 3a3e 53b4 aabc fca6 233e
000003d0: a0a8 2a3e 6b02 16bd bce2 74bd 001e 1f3e
000003e0: cef6 4e3e cc4c 203d 587b 3c3d 5b54 0f3d
000003f0: bc36 a23c 591d e53d fb0d 1f3e 61a4 0b3a

fc2.bias f4 [32]
0.07945209 0.12886788 0.08966292 0.11244734 -0.060807124 0.061893564 0.025829751 0.027420769
-0.007582694 -0.10426387 0.044093736 -0.010311648 -0.024526626 0.0140065225 -0.085825376 0.046252053
0.121630795 -0.1019448 0.03189806 0.097309366 0.06259535 -0.047129575 0.12777606 0.115674056
0.07813141 -0.051134024 0.022990605 0.0823918 -0.04412102 0.01529908 -0.02471155 0.034455884
00000000: c7b7 a23d f1f5 033e 31a1 b73d ca4a e63d
00000010: e410 79bd 1b84 7d3d ea98 d33c 85a1 e03c
00000020: 3f78 f8bb 4c88 d5bd a29b 343d 30f2 28bc
00000030: 10ec c8bc 9d7b 653c 37c5 afbd cb72 3d3d
00000040: 9119 f93d 6fc8 d0bd 8aa7 023d 224a c73d
00000050: fe31 803d f10a 41bd bad7 023e 85e6 ec3d
00000060: 5c03 a03d e971 51bd cb56 bc3c 08bd a83d
00000070: 3eb8 34bd fea8 7a3c e06f cabc 9d21 0d3d

fc3.weight f4 [16, 32]
-0.008619219 -0.050900817 -0.017124206 -0.040507898 -0.14821078 -0.108523704 0.05589673 -0.1298411
-0.15007252 -0.11760625 -0.008064508 0.051360637 -0.17198978 -0.03449294 -0.028853461 -0.10753062
-0.08471432 -0.15168354 -0.14027603 -0.06429845 0.12015639 0.1299312 0.11959036 -0.054867968
0.09081583 -0.029620558 0.13105525 -0.09991707 -0.009032473 0.059144035 0.06136942 0.07797845
-0.12255607 -0.01669175 -0.1975578 0.013990371 0.14966351 -0.08983778 -0.118368745 0.05811192
-0.07168467 0.017321065 0.12895048 -0.13222836 -0.028199062 -0.1492253 0.15554915 -0.019905612
-0.044551976 -0.14049649 -0.0044472963 -0.06607511 0.06968117 -0.03093031 0.14291333 0.13373116
0.068757795 -0.054230522 -0.12377229 -0.15169612 0.0037530898 0.089990124 0.031524096 0.0035990588
0.24629587 0.11239432 0.15488856 0.0010658172 0.12292589 0.22795248 0.020765116 -0.03864992
0.16038407 -0.22034113 -0.049208343 0.016501889 -0.17193156 0.030723503 0.050292015 -0.1733472
-0.17136626 0.12674552 -0.16738312 -0.15885352 -0.27686664 0.04883623 0.23110722 -0.060516417
0.065748475 0.057576157 -0.022140754 0.123834044 0.10535091 0.01124252 0.14390717 -0.004862778
0.27466062 -0.05916242 0.13551098 0.18719365 0.08284472 0.125674 -0.16142274 -0.13491595
0.11904738 -0.21299195 -0.08130119 -0.09101321 0.0577126 -0.20453662 -0.09735236 -0.09647455
-0.04306561 -0.011368952 -0.024692252 -0.09565954 -0.08571513 0.07554794 0.14354081 0.09181848
0.1808121 -0.15843938 -0.11311441 -0.12635113 0.120811746 0.08862748 0.043277845 0.0066967504
-0.005603327 -0.03586646 0.039626736 0.11700779 -0.07286751 0.038426597 0.052615687 -0.058568813
0.2258186 -0.22216533 -0.10212422 0.109916165 -0.025577864 -0.060853176 -0.078042194 0.036127444
0.031792533 0.12093687 -0.050646443 0.007930249 -0.24240154 -0.15888715 0.13010709 0.025272418
0.11169241 -0.07271128 -0.022287393 0.14785844 0.011192802 0.10369768 -0.06790346 0.14466281
0.24586466 0.14464127 0.0042387047 0.08899556 -0.036011923 0.2665668 0.05680297 0.015079685
0.04288436 0.09374268 0.095262215 -0.11314547 0.013053775 -0.11889796 -0.17512104 -0.12669286
-0.038780775 0.22908063 0.18010092 0.13966139 -0.10267116 0.06047561 0.0709884 0.10645448
-0.09887124 -0.081083596 0.012503604 0.17840771 0.30527937 0.007819754 0.08254577 0.19941647
0.18975385 0.11161494 -0.15022302 0.019694427 0.09082055 0.10112456 -0.07682669 0.14015177
0.0836226 0.10227903 0.23088016 -0.05057995 -0.002717701 -0.104903065 -0.05375416 -0.04082438
-0.003488431 0.22089465 -0.032383274 -0.087636806 -0.15308787 -0.014210778 0.09348411 0.19151047
0.08865536 -0.13354689 0.14462936 0.14753662 0.19654813 0.27272153 -0.10460814 0.11818905
-0.25476095 -0.018740967 0.24061503 0.22328605 0.06869176 -0.058293715 -0.07013412 0.23310915
-0.21791002 -0.06834428 -0.031327058 0.06262432 0.14011283 0.030027403 0.13501197 0.30559248
0.1278364 0.029195162 -0.0010963811 -0.003389433 0.29262254 0.019957196 -0.11915042 -0.17655164
0.082724705 0.19970673 -0.16402231 -0.025734767 -0.012967497 -0.19859621 -0.15738621 -0.10423414
00000000: a037 0dbc 607d 50bd 1048 8cbc 9ceb 25bd
00000010: 91c4 17be ad41 debd f8f3 643d 11f5 04be
00000020: 9cac 19be 8cdb f0bd 0021 04bc 885f 523d
00000030: 171e 30be 7848 0dbd 185e ecbc 0439 dcbd
00000040: b47e adbd ee52 1bbe 85a4 0fbe e8ae 83bd
00000050: 8e14 f63d af0c 053e caeb f43d 3cbd 60bd
00000060: a6fd b93d d0a6 f2bc 5933 063e 52a1 ccbd
00000070: f0fc 13bc 0441 723d 805e 7b3d 2ab3 9f3d
00000080: adfe fabd 23bd 88bc 984c 4abe de37 653c
00000090: 6441 193e dffc b7bd 506b f2bd c406 6e3d
000000a0: 6acf 92bd e8e4 8d3c 980b 043e df66 07be
000000b0: b801 e7bc 84ce 18be 4748 1f3e 1811 a3bc
000000c0: 227c 36bd 50de 0fbe a0ba 91bb 6352 87bd
000000d0: 00b5 8e3d 9061 fdbc df57 123e d2f0 083e
000000e0: e3d0 8c3d d320 5ebd 547c fdbd 3a56 1bbe
000000f0: 66f6 753b be4c b83d 691f 013d 30de 6b3b
00000100: fc34 7c3e fe2e e63d 1b9b 1e3e e4b2 8b3a
00000110: 92c0 fb3d 606c 693e 9b1b aa3c 614f 1ebd
00000120: b93b 243e 1ba1 61be b08e 49bd f82e 873c
00000130: d40e 30be dbaf fb3c 00ff 4d3d ee81 31be
00000140: a37a 2fbe 94c9 013e 7b66 2bbe 7faa 22be
00000150: 77c1 8dbe 8008 483d 5fa7 6c3e 10e0 77bd
00000160: 23a7 863d fad4 6b3d 8760 b5bc b49c fd3d
00000170: 38c2 d73d 8c32 383c 675c 133e f057 9fbb
00000180: 51a0 8c3e 4b54 72bd 64c3 0a3e b1af 3f3e
00000190: 7eaa a93d afb0 003e 014c 25be 6827 0abe
000001a0: 1dcf f33d 901a 5abe 3d81 a6bd 2265 babd
000001b0: 0c64 6c3d 0c72 51be ad60 c7bd 7394 c5bd
000001c0: 9165 30bd d744 3abc 6847 cabc 26e9 c3bd
000001d0: 6a8b afbd e1b8 9a3d 5dfc 123e 540b bc3d
000001e0: cf26 393e ef3d 22be 87a8 e7bd 3162 01be
000001f0: 266c f73d 5382 b53d 1c44 313d 6a70 db3b
00000200: 1d9c b7bb b6e8 12bd a54f 223d c8a1 ef3d
00000210: 903b 95bd 3565 1d3d 8c83 573d dae5 6fbd
00000220: fe3c 673e 4f7f 63be 8126 d1bd ba1b e13d
00000230: ab88 d1bc 2e41 79bd 96d4 9fbd 5ffa 133d
00000240: e338 023d c0ad f73d a572 4fbd e0ed 013c
00000250: 1c38 78be 50b3 22be cb3a 053e 1a08 cf3c
00000260: febe e43d a7e9 94bd 0d94 b6bc 3468 173e
00000270: 0462 373c 735f d43d f810 8bbd 7d22 143e
00000280: f2c3 7b3e d71c 143e d5e4 8a3b 4e43 b63d
00000290: 3d81 13bd 727b 883e 3baa 683d c810 773c
000002a0: 83a7 2f3d 2afc bf3d d618 c33d d0b8 e7bd
000002b0: 80df 553c c680 f3bd ee52 33be c6bb 01be
000002c0: 97d8 1ebd 1d94 6a3e 606c 383e 6503 0f3e
000002d0: 4245 d2bd 46b5 773d 5e62 913d ce04 da3d
000002e0: 017d cabd 280f a6bd ebdb 4c3c 83b0 363e
000002f0: 944d 9c3e 6d1e 003c c20d a93d d533 4c3e
00000300: d54e 423e 6096 e43d 10d4 19be 3556 a13c
00000310: 2000 ba3d 651a cf3d 5057 9dbd f283 0f3e
00000320: 5342 ab3d ab77 d13d d96b 6c3e ec2c 4fbd
00000330: 751b 32bb 6bd7 d6bd 522d 5cbd 7737 27bd
00000340: 299e 64bb 3532 623e 53a4 04bd ed7a b3bd
00000350: 11c3 1cbe 53d4 68bc 9974 bf3d 521b 443e
00000360: f190 b53d 84c0 08be b819 143e d713 173e
00000370: ea43 493e 28a2 8b3e cb3c d6bd 1a0d f23d
00000380: 0770 82be a886 99bc c963 763e 19a5 643e
00000390: 44ae 8c3d 64c5 6ebd 7aa2 8fbd 2ab4 6e3e
000003a0: ce23 5fbe 16f8 8bbd cd50 00bd 2e41 803d
000003b0: bd79 0f3e 07fc f53c 9440 0a3e 9e76 9c3e
000003c0: 8ce7 023e b12a ef3c 72b4 8fba 4021 5ebb
000003d0: 9fd2 953e 467d a33c 2305 f4bd f4c9 34be
000003e0: 926b a93d ec7f 4c3e 77f5 27be b8d1 d2bc
000003f0: a075 54bc ce5c 4bbe da29 21be b578 d5bd

fc3.bias f4 [16]
-0.16717535 -0.10944114 0.18389067 -0.0010440113 0.091772184 -0.018510282 0.031584267 0.20893507
0.19238172 0.10841068 0.034648627 0.002350215 -0.1613976 0.088171765 -0.104380295 -0.056157477
00000000: 0430 2bbe ad22 e0bd d64d 3c3e 35d7 88ba
00000010: 0ef3 bb3d e0a2 97bc 815e 013d 13f3 553e
00000020: b7ff 443e 6b06 de3d b8eb 0d3d 1106 1a3b
00000030: 6a45 25be 6693 b43d 56c5 d5bd 6205 66bd

fc_mu.weight f4 [1, 16]
0.034137934 0.22200099 -0.17334582 -0.37117776 -0.21291368 -0.29391912 -0.2844889 0.33646604
0.21441583 -0.29701093 -0.16029142 0.40492257 -0.18829146 -0.20306039 -0.3332019 -0.07571789
00000000: 38d4 0b3d 3a54 633e 9181 31be 030b bebe
00000010: 0b06 5abe 917c 96be 87a8 91be 4745 ac3e
00000020: d38f 5b3e d111 98be 6f23 24be 0352 cf3e
00000030: 7acf 40be 10ef 4fbe 7099 aabe fb11 9bbd

fc_std.weight f4 [1, 16]
0.19019073 0.1212218 -0.19961187 0.12821484 -0.16398266 -0.20629497 -0.17857914 -0.1729084
-0.058688357 0.026173266 -0.14880183 0.0319287 -0.09575865 -0.115794525 0.0003790477 -0.260602
00000000: 5cc1 423e 2343 f83d 0e67 4cbe c04a 033e
00000010: 12eb 27be fd3e 53be 73dd 36be e60e 31be
00000020: 3463 70bd 5169 d63c 825f 18be abc7 023d
00000030: 1c1d c4bd ae25 edbd ecba c639 a06d 85be

exp_avg f4 [64, 3]
0.43138102 -0.09874536 0.16889898 -0.49414936 0.062460538 0.32201648 0.00607266 0.011283064
-0.1112317 0.56067425 -0.12604655 0.111113794 -0.003804166 0.0070617246 -0.021878771 -0.026299678
0.045464486 -0.6162523 -0.57601213 0.067037 0.6673691 -0.60162544 0.04010112 0.76642436
-0.04004365 0.018203894 -0.033256274 -0.0018252996 0.010218846 -0.1661497 -0.032539118 0.006447123
-0.019374067 -0.45204985 0.08331462 -0.1564887 -0.005219064 -0.013668104 0.23735508 0.09809363
-0.023205576 0.014510419 -0.0074499617 0.024764972 -0.40370446 -0.40136793 0.03910336 0.48414937
0.36286166 -0.012958601 -0.37254477 0.8580234 -0.046615954 -0.5450807 -0.0061485013 0.000912727
-0.061559565 -0.046472948 0.029483207 -0.059885517 -0.0037246062 -0.0023399957 0.13000417 -0.0040897983
-0.0059346855 -0.07827803 0.005338813 0.014211793 -0.050787315 0.01077814 0.017862618 -0.29845724
-0.017794525 0.020330496 -0.1124059 -0.022661176 0.010265312 -0.036784235 0.7834771 -0.18884833
0.09593632 -0.31542718 0.060798876 -0.053815737 -0.53362143 0.053582463 0.5997927 0.11646884
-0.073232144 0.14986558 0.011552042 0.017375566 -0.20111202 0.04016515 0.045027196 -0.50643915
0.010400035 0.017779285 -0.26352793 0.12833658 -0.021166226 -0.0452594 0.0449372 0.004474384
-0.097206 0.8121428 -0.12700248 -0.13107954 -0.014167106 0.00796726 -0.022449449 -0.006334259
-0.0049352506 0.13631992 -0.034993313 0.023765715 -0.06247906 0.1796745 -0.011803258 -0.2161136
-0.8793779 0.07509593 1.033698 -0.14248842 0.019429531 0.19628394 0.15864259 -0.012423405
-0.16240254 -0.12505743 0.027030101 -0.04725944 -0.43894565 0.05564929 0.63577306 -0.0074123396
-0.002464667 -0.18820931 -0.0030719093 0.0077246157 -0.14411323 0.11549641 -0.03073853 0.027194932
-0.16272376 0.0036186145 0.28777614 -0.08453953 -0.049095098 0.36228126 0.19858025 -0.043884728
-0.019816436 0.43510833 -0.08890024 0.03376576 0.090716034 -0.018056981 0.008638623 0.0020190128
0.03677485 -0.49127764 -0.0050893594 0.0002759694 0.029224746 0.45274758 -0.10661678 0.08172416
-0.069125466 -0.0012397602 0.08677955 0.57928205 -0.026405614 -0.43797103 0.098821335 -0.00063633185
-0.091717646 0.41548744 -0.0429806 -0.18879078 -1.0770524 0.15461701 0.9847312 0.2864387
-0.0033746753 -0.41781262 0.08949277 -0.014354842 -0.021100562 -0.0023292727 0.007375154 -0.094567016
00000000: f9dd dc3e 023b cabd dbf3 2c3e 2501 fdbe
00000010: 9fd6 7f3d 58df a43e 2afd c63b 9adc 383c
00000020: 72cd e3bd 5988 0f3f 5912 01be a18f e33d
00000030: 514f 79bb 0a66 e73b 1c3b b3bc 6c72 d7bc
00000040: f838 3a3d b6c2 1dbf 8875 13bf b24a 893d
00000050: b4d8 2a3f 2004 1abf 1241 243d 6334 443f
00000060: cf04 24bd 5520 953c bb37 08bd e43e efba
00000070: f26c 273c 2623 2abe bd47 05bd 6342 d33b
00000080: 5db6 9ebc 1473 e7be dba0 aa3d 933e 20be
00000090: af04 abbb 2ff0 5fbc 360d 733e 50e5 c83d
000000a0: 9f19 bebc 1cbd 6d3c cf1e f4bb e9df ca3c
000000b0: 5ab2 cebe 1980 cdbe d82a 203d 6de2 f73e
000000c0: 01c9 b93e 5050 54bc 30be bebe 6ca7 5b3f
000000d0: 5ff0 3ebd 698a 0bbf 5e79 c9bb 1244 6f3a
000000e0: e225 7cbd 6b5a 3ebd c486 f13c 844a 75bd
000000f0: 8618 74bb 9d5a 19bb d01f 053e b703 86bb
00000100: c077 c2bb 3b50 a0bd 36f1 ae3b 95d8 683c
00000110: 5c06 50bd cc96 303c a054 923c 63cf 98be
00000120: d3c5 91bc 248c a63c 1135 e6bd eea3 b9bc
00000130: d72f 283c 11ab 16bd f591 483f 7561 41be
00000140: 437a c43d ac7f a1be 3e08 793d e46d 5cbd
00000150: 6a9b 08bf 4979 5b3d 048c 193f 3787 ee3d
00000160: bcfa 95bd 5d76 193e c744 3d3c 3457 8e3c
00000170: 4ff0 4dbe 3684 243d 706e 383d ffa5 01bf
00000180: e964 2a3c dda5 913c 22ed 86be aa6a 033e
00000190: cb64 adbc ec61 39bd 1210 383d da9d 923b
000001a0: f013 c7bd 97e8 4f3f f00c 02be b739 06be
000001b0: 261d 68bc 1c89 023c e8e7 b7bc 9e8f cfbb
000001c0: e2b7 a1bb 7397 0b3e 2655 0fbd 51b0 c23c
000001d0: 0bea 7fbd 98fc 373e 7462 41bc e24c 5dbe
000001e0: e91e 61bf e5cb 993d 3750 843f 7ce8 11be
000001f0: ae2a 9f3c a8fe 483e 3473 223e 8a8b 4bbc
00000200: da4c 26be 0e0f 00be 3b6e dd3c 1d93 41bd
00000210: 7cbd e0be 83f0 633d 06c2 223f 36e3 f2bb
00000220: 4086 21bb f1b9 40be 1652 49bb c61e fd3b
00000230: 6b92 13be 6289 ec3d 5fcf fbbc e8c7 de3c
00000240: 0fa1 26be 4726 6d3b 6557 933e 1023 adbd
00000250: f117 49bd ee7c b93e 9f58 4b3e 79c0 33bd
00000260: 1456 a2bc 85c6 de3e 5411 b6bd f74d 0a3d
00000270: 54c9 b93d 3cec 93bc 0389 0d3c 6a51 043b
00000280: 3aa1 163d be88 fbbe a4c4 a6bb fcaf 9039
00000290: bc68 ef3c 88ce e73e e659 dabd ff5e a73d
000002a0: a791 8dbd 737f a2ba 7ab9 b13d d44b 143f
000002b0: 9650 d8bc bd3d e0be d762 ca3d 82cf 26ba
000002c0: 76d6 bbbd c5ba d43e 6d0c 30bd 5f52 41be
000002d0: dadc 89bf ec53 1e3e 5817 7c3f 18a8 923e
000002e0: a829 5dbb 89eb d5be fc47 b73d 9230 6bbc
000002f0: 16db acbc b6a6 18bb 47ab f13b 5aac c1bd

exp_avg_sq f4 [64, 3]
3.1028612 0.5901168 17.483019 2.710518 0.6885844 24.162016 0.009321002 0.022515314
1.0116311 4.131919 0.30890653 5.179953 0.019441621 0.03264803 1.1610473 0.23739137
0.8348706 39.20697 5.141803 1.2507449 45.76136 4.8870554 1.0220588 37.507645
0.10122309 0.1426904 4.7447934 0.016365325 0.050210305 2.2829416 0.0153769525 0.0057175695
0.15188204 1.8836199 0.1544871 3.7617188 0.027328687 0.07404304 3.3072724 0.11529897
0.009209936 0.16610757 0.12994604 0.36729518 16.998396 2.4954069 0.6605989 24.781927
1.8572313 0.33739585 11.00363 9.01209 1.9843795 57.43366 0.004504539 0.013810571
0.65053564 0.1231486 0.20592438 6.725996 0.009413001 0.017699245 0.7635913 0.0031238731
0.007234265 0.26973602 0.0044530416 0.014177258 0.6094578 0.07529621 0.16326497 7.1419215
0.08404086 0.1600652 5.7265143 0.027579479 0.03314629 1.092409 8.849726 1.0166475
26.570782 0.40356985 0.15573618 4.8993073 4.777051 0.7439964 24.38501 3.4355521
0.3586735 7.9224916 0.028077085 0.06775039 2.9573286 0.47358698 0.45316276 17.16739
0.047366463 0.11824577 5.331828 0.18912593 0.043146916 1.3552508 0.030408999 0.018247185
0.7386339 6.558757 0.8895899 18.790293 0.056437343 0.07800245 2.6427057 0.169756
0.37011653 12.383508 0.08514164 0.11748785 4.0791593 0.4207481 0.08976945 3.1465201
9.432458 1.9669638 73.764626 0.3691751 0.049651217 1.5703471 0.32781485 0.03962038
1.1088762 0.16242474 0.010097822 0.16319996 3.2468672 0.94633204 36.12864 0.023064723
0.0636621 3.0134034 0.017375374 0.055306397 2.570985 0.3917606 0.10890624 3.2215033
0.77154714 0.1556657 5.3225513 1.9581074 0.57521814 21.516573 0.75015056 0.13970432
3.8176436 2.6715438 0.252678 5.061598 0.22558093 0.012069025 0.21254292 0.090664744
0.3409726 15.43913 0.043923367 0.09147867 3.0297287 3.1405385 0.2544044 5.0214553
0.09346356 0.023886846 0.85023427 4.1984625 1.3524423 44.55112 0.08236162 0.023680814
0.8160548 2.1508865 0.45988223 13.16436 16.670996 3.5854106 128.1753 1.3534912
0.29301244 9.983048 0.20749791 0.0112809595 0.19437848 0.009261464 0.030823808 1.4207073
00000000: 4795 4640 e511 173f 39dd 8b41 2079 2d40
00000010: 1147 303f cf4b c141 1eb7 183c 0972 b83c
00000020: 217d 813f ae38 8440 ff28 9e3e 2dc2 a540
00000030: 0944 9f3c f1b9 053d 339d 943f b916 733e
00000040: 14ba 553f f0d3 1c42 a689 a440 6918 a03f
00000050: a20b 3742 c262 9c40 d3d2 823f d407 1642
00000060: 0d4e cf3d 6f1d 123e 59d5 9740 9310 863c
00000070: 52a9 4d3d b71b 1240 9def 7b3c 735a bb3b
00000080: f786 1b3e 751a f13f de31 1e3e 00c0 7040
00000090: 69e0 df3c e1a3 973d 5aaa 5340 de21 ec3d
000000a0: 45e5 163c 1a18 2a3e 9310 053e 1d0e bc3e
000000b0: b7fc 8741 bfb4 1f40 021d 293f 6341 c641
000000c0: c1b9 ed3f 26bf ac3e de0e 3041 8531 1041
000000d0: 2600 fe3f 11bc 6542 d09a 933b bc45 623c
000000e0: 8189 263f 5535 fc3d d7dd 523e 5c3b d740
000000f0: fd38 1a3c 02fe 903c b87a 433f e5b9 4c3b
00000100: 6a0d ed3b d71a 8a3e d2ea 913b bb47 683c
00000110: 6d05 1c3f e634 9a3d ef2e 273e 9f8a e440
00000120: 9d1d ac3d 22e8 233e 9b3f b740 5cee e13c
00000130: 67c4 073d 0fd4 8b3f 7a98 0d41 8121 823f
00000140: f690 d441 b5a0 ce3e 4e79 1f3e 20c7 9c40
00000150: 9add 9840 8c76 3e3f 8014 c341 16e0 5b40
00000160: 0ea4 b73e 0d85 fd40 ea01 e63c b7c0 8a3d
00000170: df44 3d40 fe79 f23e f304 e83e d156 8941
00000180: 5603 423d d72a f23d 569e aa40 3aaa 413e
00000190: d2ba 303d dc78 ad3f 4b1c f93c 1f7b 953c
000001a0: 1c17 3d3f 56e1 d140 2abc 633f 8552 9641
000001b0: d82a 673d c0bf 9f3d 1722 2940 84d4 2d3e
000001c0: ea7f bd3e d922 4641 bd5e ae3d 789d f03d
000001d0: 7988 8240 4c6c d73e 0cd9 b73d 9660 4940
000001e0: 59eb 1641 78c5 fb3f 7d87 9342 8504 bd3e
000001f0: 135f 4b3d 2201 c93f 59d7 a73e fb48 223d
00000200: a8ef 8d3f ac52 263e 5671 253c e41d 273e
00000210: accc 4f40 d142 723f ba83 1042 3bf2 bc3c
00000220: 4661 823d 9adb 4040 cd56 8e3c f688 623d
00000230: 058b 2440 d894 c83e 3c0a df3d 1c2d 4e40
00000240: 1d84 453f d466 1f3e 5752 aa40 43a3 fa3f
00000250: 7f41 133f f121 ac41 de09 403f a60e 0f3e
00000260: 4654 7440 93fa 2a40 035f 813e 9cf8 a140
00000270: b0fe 663e 29bd 453c daa4 593e 70ae b93d
00000280: f693 ae3e ad06 7741 fde8 333d 2b59 bb3d
00000290: 13e7 4140 95fe 4840 4b41 823e c3af a040
000002a0: d369 bf3d 59ae c33c f4a8 593f ce59 8640
000002b0: d41c ad3f 5934 3242 36ad a83d 44fe c13c
000002c0: f8e8 503f 20a8 0940 af75 eb3e 38a1 5241
000002d0: 335e 8541 5e77 6540 e02c 0043 333f ad3f
000002e0: ba05 963e 91ba 1f41 557a 543e c6d3 383c
000002f0: 270b 473e 65bd 173c 3682 fc3c bdd9 b53f

exp_avg f4 [64]
0.45451578 -0.60272425 0.022332134 0.5710114 -0.005752492 0.1214198 -0.74034745 -0.76453054
-0.024647415 0.035859235 -0.031288005 -0.43124202 -0.05548579 0.09840514 0.06431574 -0.5242823
0.42543045 0.913194 0.012432595 -0.034802586 -0.032791656 0.014689454 0.0072328346 0.06314112
0.01320289 -0.015623314 0.768083 -0.30285212 -0.66439456 0.11998414 0.0472101 0.116860785
0.051416475 0.13649808 0.06375833 0.7956477 1.0237327e-05 0.03187599 -0.033074193 0.22236338
-1.1103287 -0.18161191 0.19238195 -0.12572545 -0.61504847 0.03284312 0.021821909 0.11757137
-0.22069924 -0.13382055 0.19934945 0.4370288 0.089347966 0.08995255 0.010690062 0.45009163
-0.080368854 0.62027943 0.11655276 0.4460219 -1.3728684 0.3546487 0.08036132 0.016672889
00000000: 4bb6 e83e 234c 1abf e1f1 b63c ce2d 123f
00000010: 677f bcbb f2aa f83d 6987 3dbf 46b8 43bf
00000020: 60e9 c9bc 22e1 123d da27 00bd c1cb dcbe
00000030: 1145 63bd a288 c93d f8b7 833d 5d37 06bf
00000040: 05d2 d93e 15c7 693f 15b2 4b3c 288d 0ebd
00000050: 8b50 06bd 09ac 703c 6a01 ed3b 2250 813d
00000060: ef50 583c eef8 7fbc 16a1 443f 6f0f 9bbe
00000070: c315 2abf 3fba f53d 615f 413d b554 ef3d
00000080: 159a 523d 27c6 0b3e ba93 823d 91af 4b3f
00000090: fcc0 2b37 6690 023d ce78 07bd 3ab3 633e
000000a0: 401f 8ebf 79f8 39be c6ff 443e 2cbe 00be
000000b0: d173 1dbf 8286 063d dcc3 b23c 42c9 f03d
000000c0: fbfe 61be 4108 09be 4322 4c3e 3dc2 df3e
000000d0: 11fc b63d 0b39 b83d 5f25 2f3c 6972 e63e
000000e0: 6d98 a4bd a2ca 1e3f 37b3 ee3d fc5c e43e
000000f0: 27ba afbf 8494 b53e 7a94 a43d 9595 883c

exp_avg_sq f4 [64]
3.605909 3.487485 0.03480787 4.439762 0.047007248 1.1791368 6.615867 6.084946
0.21950257 0.07521746 0.021351097 2.037488 0.11735802 0.124215454 0.54350626 3.2800436
2.2382615 10.950704 0.019874068 0.29135498 0.03453919 0.011453693 0.019206872 0.26970682
0.22602417 0.057824362 9.768757 0.5431223 5.6538415 3.7708032 0.10468689 0.9997971
0.18692899 0.23468497 0.05054878 7.4044423 0.12146265 0.44411507 0.18613653 0.5258322
11.72993 0.4297604 0.3749931 0.17390187 4.2917404 0.10306731 0.08342024 0.48978505
0.94991887 2.5810995 0.87289554 2.915351 0.23704983 0.4629241 0.11401067 3.3833156
0.120640114 5.4949512 0.10724865 2.5950625 20.945795 1.6859521 0.21783233 0.045064617
00000000: 37c7 6640 f432 5f40 b292 0e3d 8812 8e40
00000010: ac8a 403d f4ed 963f 2fb5 d340 e1b7 c240
00000020: 48c5 603e 9d0b 9a3d 7fe8 ae3c 3466 0240
00000030: 6759 f03d ac64 fe3d 3a23 0b3f 3cec 5140
00000040: ad3f 0f40 1536 2f41 f1ce a23c 7b2c 953e
00000050: f778 0d3d 45a8 3b3c bb57 9d3c 0317 8a3e
00000060: e172 673e 3dd9 6c3d d44c 1c41 100a 0b3f
00000070: 45ec b440 d754 7140 1566 d63d b4f2 7f3f
00000080: 506a 3f3e 4251 703e 3d0c 4f3d 31f1 ec40
00000090: 69c1 f83d 0d63 e33e 939a 3e3e f09c 063f
000000a0: cbad 3b41 8e09 dc3e 18ff bf3e 5513 323e
000000b0: f055 8940 f414 d33d 3bd8 aa3d 1bc5 fa3e
000000c0: e22d 733f bc30 2540 1576 5f3f 1c95 3a40
000000d0: 31bd 723e 6304 ed3e 6d7e e93d 3e88 5840
000000e0: 2a12 f73d a4d6 af40 2ea5 db3d 8115 2640
000000f0: fd90 a741 47cd d73f 700f 5f3e ad95 383d

exp_avg f4 [32, 64]
0.025551273 0.33001935 0.33441004 0.18928416 -0.012070424 0.115757756 0.4681957 0.2954064
0.03679429 0.32104546 0.58592457 0.28427592 0.4022927 0.4070824 0.18797101 1.0408458
0.455094 0.22420213 0.18977234 0.010380201 0.3915499 0.34523058 0.18606617 0.45975137
0.08421467 0.07122436 0.05348566 0.15023474 1.0627642 0.0029872137 0.4643107 0.07551198
0.23996608 1.0531381 0.4772426 0.02694988 0.019838661 -0.012138446 0.04928546 0.5859231
0.3031995 1.0851003 1.1151215 0.40825057 0.49782094 0.50434864 0.10137525 0.14488722
0.31429127 0.14177977 0.74868417 0.4520083 0.0672364 0.050921 -0.019937634 0.08753255
0.99922216 0.3690264 0.41912496 0.62452686 0.54689866 0.22820587 0.4572658 0.28718314
0.008984615 0.113771975 0.12490956 0.059621457 -0.043969877 0.04010407 0.18555355 0.109513156
-0.032671414 0.11393235 0.21762896 0.071132325 0.14148697 0.13517235 0.056336883 0.4061236
0.18017341 0.082475685 0.0704822 -0.03663841 0.13471554 0.11917811 0.06632963 0.16906494
0.011941941 -0.017265089 0.019942882 0.013477377 0.40937126 -0.006546246 0.17302896 0.031772565
0.08310806 0.4256368 0.18147911 0.011720909 -0.035079148 -0.0148666045 -0.037645835 0.23115122
0.11330009 0.4157485 0.44017678 0.12794651 0.200242 0.17121913 0.032958366 0.040996097
0.11831728 0.057116594 0.26008034 0.15769435 0.0019056993 0.013157492 -0.024275593 0.02465553
0.38420472 0.15285352 0.16729996 0.25173217 0.2164486 0.09347275 0.13574862 0.09596214
-0.009380867 -0.09936079 -0.10408945 -0.077335745 -0.021431562 -0.036268372 -0.15575804 -0.09218933
-0.03711081 -0.09844624 -0.21149744 -0.111136355 -0.119194016 -0.15986279 -0.047170077 -0.34836364
-0.14879587 -0.083314255 -0.06097264 -0.029165754 -0.11339214 -0.102500305 -0.05675287 -0.13859814
-0.025323924 -0.0479016 -0.019257234 -0.070963584 -0.3466582 -0.007441265 -0.14616543 -0.024935132
-0.07019251 -0.35498106 -0.15334722 -0.010057929 -0.025879579 -0.0035880834 -0.044809785 -0.19332781
-0.09411693 -0.3488661 -0.3688237 -0.1561682 -0.17078932 -0.14087327 -0.0286919 -0.060075
-0.10110523 -0.05062812 -0.28321308 -0.17253354 -0.03912308 -0.015385677 -0.0030590747 -0.03736375
-0.3231622 -0.12758514 -0.14102145 -0.21853976 -0.18003437 -0.07507179 -0.18592562 -0.08226412
0.0013624907 0.02730342 0.030997574 -0.0031262205 -0.043772515 0.009577617 0.04329061 0.02692038
-0.04445202 0.028146641 0.035357386 -0.010360343 0.036073588 0.0042070975 0.01692511 0.0926456
0.043110162 0.008284717 0.016691845 -0.042451944 0.035296515 0.03034106 0.016572429 0.043634143
-0.00523863 -0.040380042 0.003563311 -0.029448831 0.09656037 -0.010037359 0.041977137 0.007980206
0.02161128 0.09841771 0.042823814 0.0020142 -0.038077272 -0.013837883 -0.05225588 0.05439691
0.028118478 0.09986966 0.10322131 0.0033565697 0.04500096 0.046924215 0.009042824 -0.004638782
0.027675021 0.011782911 0.024161398 0.013250141 -0.021679418 0.0009592524 -0.02040113 -0.0043288823
0.09172277 0.033677418 0.038494978 0.052135646 0.051135633 0.02240205 -0.009130132 0.025314173
00000000: e750 d13c 4cf8 a83e cb37 ab3e b5d3 413e
00000010: 07c3 45bc 6712 ed3d 59b7 ef3e 823f 973e
00000020: 9cb5 163d 1260 a43e 27ff 153f 9d8c 913e
00000030: 4ff9 cd3e 1b6d d03e 797b 403e 6f3a 853f
00000040: 1502 e93e 3e95 653e ae53 423e b811 2a3c
00000050: 3a79 c83e 10c2 b03e 2188 3e3e 8864 eb3e
00000060: be78 ac3d 14de 913d c813 5b3d 23d7 193e
00000070: a808 883f 21c5 433b 22ba ed3e 06a6 9a3d
00000080: abb9 753e 3bcd 863f 2459 f43e ffc5 dc3c
00000090: b084 a23c 55e0 46bc 8ddf 493d 0eff 153f
000000a0: f73c 9b3e 91e4 8a3f 4dbc 8e3f 3806 d13e
000000b0: 63e2 fe3e fe1c 013f d49d cf3d 515d 143e
000000c0: c9ea a03e b72e 113e c4a9 3f3f a26d e73e
000000d0: 3db3 893d 8a92 503d 4054 a3bc 4444 b33d
000000e0: 06cd 7f3f 07f1 bc3e 8c97 d63e fee0 1f3f
000000f0: 8d01 0c3f cdae 693e be1e ea3e ab09 933e
00000100: 3534 133c 4801 e93d 95d0 ff3d a135 743d
00000110: c219 34bd 2a44 243d c001 3e3e 6f48 e03d
00000120: 76d2 05bd 5d55 e93d 20da 5e3e d3ad 913d
00000130: f6e1 103e 9f6a 0a3e 81c1 663d 6fef cf3e
00000140: 617f 383e 03e9 a83d f958 903d 2812 16bd
00000150: dff2 093e a713 f43d d4d7 873d 5c1f 2d3e
00000160: 22a8 433c 846f 8dbc 415f a33c 37d0 5c3c
00000170: 1c99 d13e e481 d6bb 812e 313e f323 023d
00000180: 8f34 aa3d 11ed d93e a9d5 393e 0e09 403c
00000190: 27af 0fbd 0f93 73bc 8532 1abd e8b2 6c3e
000001a0: e109 e83d fddc d43e da5e e13e 6904 033e
000001b0: 3d0c 4d3e 1154 2f3e 5aff 063d 86eb 273d
000001c0: 5550 f23d 17f3 693d 4029 853e a17a 213e
000001d0: a8c8 f93a 8592 573c 9cdd c6bc 65fa c93c
000001e0: 7bb6 c43e a285 1c3e ae50 2b3e 0ae3 803e
000001f0: b4a4 5d3e a46e bf3d b001 0b3e cc87 c43d
00000200: 35b2 19bc ab7d cbbd d92c d5bd 3462 9ebd
00000210: 3e91 afbc 258e 14bd 097f 1fbe c2cd bcbd
00000220: 8101 18bd 2f9e c9bd c992 58be 759b e3bd
00000230: fe1b f4bd 12b3 23be 6935 41bd b85c b2be
00000240: f25d 18be aaa0 aabd 72be 79bd 05ed eebc
00000250: 233a e8bd aeeb d1bd b375 68bd acec 0dbe
00000260: 1e74 cfbc 7834 44bd 59c1 9dbc 5b55 91bd
00000270: 2f7d b1be dbd5 f3bb 64ac 15be c344 ccbc
00000280: 17c1 8fbd 14c0 b5be 0e07 1dbe 03ca 24bc
00000290: 6901 d4bc 0d26 6bbb 778a 37bd baf7 45be
000002a0: 61c0 c0bd 949e b2be 76d6 bcbe 8eea 1fbe
000002b0: 65e3 2ebe 1541 10be 470b ebbc 3411 76bd
000002c0: 4210 cfbd 6e5f 4fbd 4e01 91be a2ac 30be
000002d0: 863f 20bd 3514 7cbc c27a 48bb bb0a 19bd
000002e0: 8475 a5be aea5 02be ed67 10be e3c8 5fbe
000002f0: ee5a 38be 3dbf 99bd 4963 3ebe 177a a8bd
00000300: 9a95 b23a 6cab df3c a0ee fd3c 47e1 4cbb
00000310: cf4a 33bd 70eb 1c3c 7f51 313d 2188 dc3c
00000320: 5213 36bd c993 e63c e8d2 103d 6ebe 29bc
00000330: e6c1 133d b1db 893b 87a6 8a3c fabc bd3d
00000340: 4894 303d 9fbc 073c 56bd 883c 17e2 2dbd
00000350: 1493 103d d18d f83c e7c2 873c b7b9 323d
00000360: d0a8 abbb 8b65 25bd 7086 693b ad3e f1bc
00000370: 71c1 c53d bc73 24bc 38f0 2b3d 69bf 023c
00000380: 240a b13c 398f c93d 0668 2f3d ab00 043b
00000390: eaf6 1bbd 4ab8 62bc 430a 56bd 4bcf 5e3d
000003a0: b958 e63c 7788 cc3d b265 d33d e5f9 5b3b
000003b0: ed52 383d 9b33 403d 5a28 143c ec00 98bb
000003c0: bab6 e23c 1c0d 413c 20ee c53c 1f17 593c
000003d0: 0999 b1bc 5776 7b3a 4520 a7bc 4cd9 8dbb
000003e0: 26d9 bb3d 55f1 093d e9ac 1d3d 308c 553d
000003f0: 9973 513d 8184 b73c 8d96 15bc ab5f cf3c

exp_avg_sq f4 [32, 64]
0.28146073 0.649154 6.8680263 4.678362 5.415626 0.46348348 2.1967225 2.3471687
7.8863163 6.1681414 7.011653 5.733589 8.166486 10.711291 0.8814727 12.561522
6.5667577 3.0446296 2.7507102 6.3515315 6.9936504 6.0544486 1.9752321 11.784918
0.5903285 8.446055 0.31261736 6.6654525 17.379639 1.2747258 13.832751 0.7001776
2.8363192 17.537874 13.793355 0.39017162 4.129084 0.36109918 10.919747 6.7197323
1.1774588 22.566004 27.155064 7.175846 3.625472 10.355046 0.3167053 2.818048
6.7446136 3.4170344 20.150263 8.721783 4.4749765 0.1287464 0.90638816 1.1958134
23.347889 3.3523564 3.99726 7.933225 2.590467 4.334477 15.816025 3.4236438
0.04732971 0.12232178 1.2740866 0.77057993 0.86106426 0.0896525 0.3904334 0.43256092
1.2641107 1.1482 1.2001414 0.9446697 1.5153522 1.7726828 0.1790951 2.2247446
1.2193997 0.5250232 0.5087513 1.0212187 1.3086416 1.1345099 0.36831522 2.1946566
0.109133564 1.3552034 0.052350465 1.084265 3.1829114 0.2054418 2.5599391 0.13111545
0.53180194 3.1979923 2.551234 0.06797446 0.66903913 0.056113742 1.7527977 1.2387977
0.21690662 4.163959 5.00894 1.1912218 0.6533466 1.9490606 0.06357661 0.4644107
1.2405286 0.62744594 3.3717444 1.4599208 0.7229309 0.026767846 0.144142 0.19439346
4.313298 0.60623604 0.7381394 1.4160099 0.45936066 0.8086862 2.58905 0.65127707
0.023750871 0.08894984 0.7823803 0.39138946 0.40377524 0.053428687 0.2629723 0.27419406
0.62660426 0.7090909 0.7361444 0.5323169 0.9522941 0.9574995 0.11371917 1.4669251
0.7429668 0.27378488 0.31238958 0.50037265 0.81928897 0.7058765 0.2267199 1.3468916
0.05601173 0.67034376 0.027092988 0.5809845 2.0346208 0.09279 1.5758809 0.07348097
0.32942724 2.017052 1.5633855 0.033443615 0.348998 0.01927889 0.8747223 0.76920813
0.14442995 2.6098692 3.099351 0.679556 0.42380336 1.2250489 0.03765255 0.2431161
0.7694609 0.38415214 1.930449 0.81917304 0.36086854 0.012979407 0.05400702 0.09805275
2.6798558 0.36374918 0.45240402 0.8716392 0.31900936 0.48450312 1.3941212 0.40430677
0.003707254 0.010913464 0.09358219 0.066156685 0.085670434 0.0074495957 0.028027464 0.032230437
0.12599435 0.08509851 0.08906803 0.08580056 0.11218833 0.14634603 0.014919783 0.15892798
0.088128775 0.044630427 0.03712859 0.096902706 0.097831406 0.085170075 0.027316742 0.16222154
0.01396299 0.13403864 0.0041120634 0.10414567 0.23377377 0.018289275 0.18721835 0.010196986
0.03980072 0.22594021 0.18434212 0.005569932 0.06816785 0.0066632424 0.17648876 0.08904389
0.017072782 0.30538386 0.36066812 0.101380795 0.046113905 0.14710192 0.005450201 0.03824914
0.09008546 0.0449909 0.2682452 0.1174323 0.06425093 0.0031656316 0.017603971 0.017067559
0.31513757 0.04348026 0.052333724 0.101218805 0.03374712 0.05837719 0.22151665 0.0498799
00000000: 9f1b 903e f52e 263f dfc6 db40 24b5 9540
00000010: cf4c ad40 b54d ed3e 1a97 0c40 0338 1640
00000020: b45c fc40 6a61 c540 765f e040 9079 b740
00000030: eda9 0241 7361 2b41 32a8 613f fefb 4841
00000040: e122 d240 36db 4240 a30b 3040 bf3f cb40
00000050: fccb df40 0bbe c140 68d4 fc3f 068f 3c41
00000060: c51f 173f 0b23 0741 620f a03e 634b d540
00000070: 8009 8b41 372a a33f f352 5d41 d73e 333f
00000080: 4186 3540 914d 8c41 95b1 5c41 93c4 c73e
00000090: 7521 8440 fee1 b83e 49b7 2e41 0c08 d740
000000a0: f8b6 963f 2d87 b441 923d d941 88a0 e540
000000b0: bc07 6840 45ae 2541 3227 a23e e65a 3440
000000c0: e0d3 d740 b1b0 5a40 bd33 a141 6c8c 0b41
000000d0: 0233 8f40 19d6 033e 0e09 683f 6a10 993f
000000e0: 7ac8 ba41 028d 5640 1cd3 7f40 fbdc fd40
000000f0: 36ca 2540 09b4 8a40 700e 7d41 fb1c 5b40
00000100: ccdc 413d d783 fa3d 4515 a33f ba44 453f
00000110: b56e 5c3f bb9b b73d e3e6 c73e a078 dd3e
00000120: 61ce a13f 38f8 923f 3c9e 993f e0d5 713f
00000130: 10f7 c13f 45e7 e23f b564 373e 3762 0e40
00000140: 4a15 9c3f ec67 063f 863d 023f 4bb7 823f
00000150: 9181 a73f 9f37 913f d093 bc3e 4175 0c40
00000160: 6b81 df3d 4e77 ad3f 716d 563d 32c9 8a3f
00000170: d2b4 4b40 565f 523e 0bd6 2340 2143 063e
00000180: 2c24 083f e8ab 4c40 6b47 2340 3236 8b3d
00000190: 2646 2b3f 86d7 653d ad5b e03f ec90 9e3f
000001a0: c51c 5e3e 273f 8540 3d49 a040 f579 983f
000001b0: b941 273f d17a f93f 7434 823d 3dc7 ed3e
000001c0: a4c9 9e3f 4ca0 203f a9ca 5740 afde ba3f
000001d0: 0012 393f 3e48 db3c f699 133e 140f 473e
000001e0: 8a06 8a40 4932 1b3f b4f6 3c3f d03f b53f
000001f0: 5231 eb3e 0f06 4f3f ffb2 2540 18ba 263f
00000200: 3091 c23c 552b b63d 134a 483f 3364 c83e
00000210: a1bb ce3e 0ad8 5a3d 4ea4 863e 2a63 8c3e
00000220: 2369 203f fb86 353f f673 3c3f ec45 083f
00000230: 8cc9 733f b01e 753f 99e5 e83d 34c4 bb3f
00000240: 1233 3e3f 882d 8c3e 87f1 9f3e 6c18 003f
00000250: ecbc 513f 53b4 343f 4329 683e f266 ac3f
00000260: 8e6c 653d a69b 2b3f 1df2 dd3c 66bb 143f
00000270: 3a37 0240 af08 be3d 77b6 c93f 317d 963d
00000280: b0aa a83e 6117 0140 041d c83f 2cfc 083d
00000290: deaf b23e c3ee 9d3c cded 5f3f d3ea 443f
000002a0: 72e5 133e 1908 2740 c45b 4640 62f7 2d3f
000002b0: c1fc d83e 67ce 9c3f 8f39 1a3d 6df3 783e
000002c0: 64fb 443f 97af c43e f418 f73f 53b5 513f
000002d0: c3c3 b83e 94a7 543c 7736 5d3d e1cf c83d
000002e0: c282 2b40 553d ba3e 80a1 e73e bf23 5f3f
000002f0: 3255 a33e cb10 f83e 9072 b23f 4c01 cf3e
00000300: 67f5 723b 63ce 323c 05a8 bf3d 287d 873d
00000310: fb73 af3d bd1b f43b da99 e53c 1004 043d
00000320: aa04 013e 2148 ae3d 4d69 b63d 34b8 af3d
00000330: ffc2 e53d bcdb 153e 1b72 743c 04be 223e
00000340: dc7c b43d 65ce 363d 2614 183d ed74 c63d
00000350: d55b c83d a66d ae3d 5cc7 df3c 671d 263e
00000360: 06c5 643c 6d41 093e 7dbe 863b 534a d53d
00000370: 6462 6f3e 64d3 953c 2bb6 3f3e 4211 273c
00000380: 1406 233d df5c 673e 2ec4 3c3e fa83 b63b
00000390: 969b 8b3d 5457 da3b 78b9 343e a55c b63d
000003a0: 38dc 8b3c 465b 9c3e 7ea9 b83e bca0 cf3d
000003b0: efe1 3c3d e3a1 163e 9a97 b23b 21ab 1c3d
000003c0: ba7e b83d 6148 383d 6f57 893e 5880 f03d
000003d0: fe95 833d 7c76 4f3b 3436 903c 44d1 8b3c
000003e0: b659 a13e 5b18 323d e35b 563d ce4b cf3d
000003f0: 6c3a 0a3d ec1c 6f3d 43d5 623e de4e 4c3d

exp_avg f4 [32]
0.9385769 0.3566145 -0.31412762 0.07517002 0.03641496 0.50685406 -0.0068291984 -0.02030057
0.59694386 0.020487042 -0.010612761 0.0 -0.08941686 -0.7093189 -0.0072161965 -0.5734247
-0.21734686 0.25497696 1.289878e-08 0.0 -0.8174755 6e-45 0.47677213 0.08386562
0.40275627 -0.6681449 0.0031833004 0.034720276 0.64014333 0.6287689 0.06244421 0.58451563
00000000: 9346 703f 2d96 b63e 56d5 a0be bdf2 993d
00000010: da27 153d 30c1 013f 78c7 dfbb 624d a6bc
00000020: 50d1 183f 71d4 a73c 25e1 2dbc 0000 0000
00000030: 3020 b7bd ec95 35bf d875 ecbb f6cb 12bf
00000040: 2d90 5ebe 578c 823e 6f99 5d32 0000 0000
00000050: 1346 51bf 0400 0000 7a1b f43e bdc1 ab3d
00000060: 1236 ce3e 8b0b 2bbf eb9e 503b d936 0e3d
00000070: 6fe0 233f 00f7 203f 80c5 7f3d d1a2 153f

exp_avg_sq f4 [32]
11.875938 2.1241746 1.3566364 0.15620638 0.16235751 4.154317 0.09662922 0.18346298
5.470187 0.2168123 0.04597287 0.0 0.04852786 5.848941 0.24274829 4.1793003
0.56723154 0.69521314 0.00020227567 0.0 9.666021 8.155043e-08 3.5357656 0.9997575
2.0925767 6.262859 0.006616693 0.2754987 6.028782 5.362509 0.13868058 4.3043203
00000000: d803 3e41 7af2 0740 43a6 ad3f 91f4 1f3e
00000010: 0c41 263e 2af0 8440 8ae5 c53d b8dd 3b3e
00000020: c60b af40 0b04 5e3e 0c4e 3c3d 0000 0000
00000030: 26c5 463d 862a bb40 0293 783e d4bc 8540
00000040: 1636 113f 7df9 313f f619 5439 0000 0000
00000050: 06a8 1a41 d320 af33 fc49 6240 1cf0 7f3f
00000060: c7ec 0540 5769 c840 d8d0 d83b 2a0e 8d3e
00000070: c8eb c040 ac99 ab40 4802 0e3e febc 8940
