수학으로 풀어보는 강화학습 원리와 알고리즘/rackhun/3_PPO_pendulum/saved_model/PPO_CRITIC.pth (torch_old, 37842 bytes, 21 tensors)

fc1.weight f4 [64, 3]
0	0x3f092985	0.5357898
1	0xbf119dae	-0.56881225
2	0xbe730436	-0.23732075
3	0x3d533a21	0.051569108
4	0xbe572f96	-0.21014246
5	0x3b729cc3	0.0037019707
6	0xbf3c5961	-0.7357388
7	0xbf2e5690	-0.68100834
8	0xbe613ecc	-0.21996611
9	0xbe26378f	-0.16232131
10	0x3d185326	0.03718867
11	0xba9a2812	-0.001176121
12	0x3e94b9f3	0.29048118
13	0xbf9c7de3	-1.2225918
14	0xbea03eb9	-0.31297854
15	0x3d1c2b53	0.038127255
16	0xbe46541e	-0.19368026
17	0xbc401a5b	-0.011725034
18	0x3f26675d	0.6500147
19	0xbeed708b	-0.46374926
20	0x3e1dfdf2	0.15428904
21	0x3f59f341	0.851368
22	0x3f133f15	0.5751813
23	0x3eb6a9da	0.3567646
24	0xbe81ee3b	-0.25377068
25	0x3faafb68	1.3357973
26	0xbea5fd1f	-0.3241968
27	0x3ec4bdec	0.3842615
28	0x3ee60677	0.44926807
29	0x3b9110d8	0.0044270568
30	0x3e98b825	0.2982799
31	0xbf016950	-0.5055132
32	0xbd8c1b42	-0.068411365
33	0x3f1a45f6	0.60263
34	0x3dc7de67	0.09759217
35	0x3bef9a93	0.007312128
36	0xbd5a847d	-0.053349007
37	0xbfb9b738	-1.4509039
38	0xbe311cc6	-0.17296132
39	0x3e48598f	0.19565414
40	0x3dfbcd6b	0.1229504
41	0x3ca059c7	0.01957406
42	0x3eda950b	0.42691836
43	0xbe960d05	-0.29306808
44	0xbe8b2026	-0.27172965
45	0x3e190dd5	0.14946683
46	0x3f0ead75	0.55733424
47	0xbe172ea5	-0.14763887
48	0x3f42b725	0.76060706
49	0xbee42253	-0.44557437
50	0xbe240d32	-0.16020659
51	0xbe402a2b	-0.18766086
52	0xbe83f3bc	-0.25771892
53	0xbce3de24	-0.027815886
54	0x3e37d5ee	0.17952701
55	0xbfea038e	-1.8282335
56	0xbebc7d17	-0.36814186
57	0x3eae6492	0.34061104
58	0xbe0da5d6	-0.13832793
59	0xbc2d97c0	-0.010595262
60	0x3e50bc1d	0.2038426
61	0x3ef96d7b	0.4871634
62	0x3e962f9d	0.293332
63	0xbd633f29	-0.055480156
64	0xbf5b8f07	-0.8576512
65	0x3d2aad0e	0.041668944
66	0xbdabfab2	-0.08397426
67	0x3fc32411	1.5245382
68	0x3ea9c095	0.3315474
69	0x3eda401c	0.42627037
70	0xbf58c0b2	-0.8466903
71	0xbe89491f	-0.268136
72	0xbd8b891f	-0.06813263
73	0xbe2f92c0	-0.17145824
74	0x3dd41b19	0.10356731
75	0x3f132815	0.57483035
76	0x3ef4bf34	0.47802126
77	0x3e9409e0	0.28913784
78	0x3ea8fee6	0.33006972
79	0x3f14a531	0.5806456
80	0xba8ccc95	-0.0010742123
81	0xbeb049d7	-0.34431335
82	0xbe018519	-0.12648429
83	0xbd2d7a91	-0.042353217
84	0x3ec72cd0	0.38901377
85	0x3e7392dc	0.23786491
86	0xb9d52598	-0.00040654535
87	0x3f1cf40e	0.613099
88	0x3d2e6ad3	0.042582344
89	0xbe294864	-0.16531521
90	0x3ed762f7	0.42067692
91	0x3f90f9cf	1.1326236
92	0x3e954c21	0.29159644
93	0xbe48f908	-0.19626248
94	0x3e781929	0.24228348
95	0xbaeacb20	-0.0017913319
96	0x3f195288	0.5989156
97	0x3ed241fc	0.41065967
98	0x3e3de9a1	0.18546154
99	0x3f57fc62	0.8436948
100	0xbedb8283	-0.4287301
101	0xbeaa76fc	-0.33293903
102	0xbd6f183c	-0.05837272
103	0x3db75089	0.08950908
104	0xbbd7b347	-0.006582651
105	0x3e83d98c	0.25751913
106	0xbf490e70	-0.78537655
107	0xbe604f01	-0.21905138
108	0xbf0256c8	-0.5091367
109	0x3faee352	1.3663123
110	0x3e96a61d	0.2942361
111	0x3f4fcf99	0.81176144
112	0xbe85caa9	-0.2613118
113	0xbeb43ada	-0.3520115
114	0x3e1141e9	0.14185299
115	0x3ec732a2	0.38905817
116	0xbca41875	-0.020031193
117	0x3dcacbf8	0.09902185
118	0x3ec61807	0.38690206
119	0xbb99a3bd	-0.0046887086
120	0x3d8381fa	0.064212754
121	0xbe63373c	-0.22189039
122	0xbacbcb96	-0.0015548344
123	0xbf1ff077	-0.62476295
124	0xbf32d2c4	-0.6985285
125	0xbdad5bc8	-0.084647715
126	0xbdbcd6eb	-0.0922068
127	0x3e1e11c0	0.15436459
128	0x3b086a80	0.0020815432
129	0x3e11dfd7	0.14245544
130	0xbccc8818	-0.024967238
131	0x3cc59ebf	0.024123548
132	0xbd91a2e8	-0.0711115
133	0xbf05d186	-0.5227283
134	0x3ed6e594	0.4197203
135	0x3f1692af	0.5881757
136	0xbf376dc6	-0.71651876
137	0x3d1fc755	0.039008457
138	0xbcb1de51	-0.021712454
139	0x3d3d8361	0.04626787
140	0xba8ef310	-0.0010906179
141	0xbf3b6700	-0.7320404
142	0xbfeb22e5	-1.8370024
143	0xbed31498	-0.4122665
144	0xbd7e340c	-0.062061355
145	0xbe8bce76	-0.27305955
146	0xbaef985e	-0.0018279662
147	0xbede1b83	-0.43380365
148	0x3e676f11	0.22600962
149	0xbd9e7197	-0.07736509
150	0xbd8f6f83	-0.07003691
151	0x3e7e00eb	0.24805038
152	0xbd206234	-0.039156154
153	0xbf412b69	-0.75456864
154	0x3fa467da	1.2844193
155	0x3ea10958	0.3145244
156	0x3ce708fc	0.028202526
157	0x3e7be9c1	0.24600889
158	0x3b666b6e	0.0035159248
159	0x3e2bf950	0.16794324
160	0x3ebb4aec	0.36580598
161	0x3d298e01	0.04139519
162	0x3ef887b4	0.48541033
163	0x3f237d3d	0.63862973
164	0xbeacd164	-0.33753502
165	0x3f0e80e0	0.556654
166	0xbfb396a0	-1.4030342
167	0xbebe1fb1	-0.37133554
168	0x3eaca978	0.33723044
169	0xbd844134	-0.06457749
170	0x3cb148fa	0.021641243
171	0x3eec5944	0.46161854
172	0xbf3c011b	-0.73439187
173	0xbd873d49	-0.06603486
174	0x3e1ad55b	0.15120451
175	0x3f995d42	1.1981585
176	0x3e8c4227	0.2739422
177	0xbf48b642	-0.78403103
178	0x3e61fd38	0.22069252
179	0xbe006231	-0.12537457
180	0xbd68cbc5	-0.056834955
181	0x3efa70f7	0.4891431
182	0x3b01c5d5	0.0019801755
183	0x3e898bc0	0.26864433
184	0xbe9f986c	-0.31170976
185	0xba5f07ca	-0.00085079356
186	0x3dccd725	0.10001973
187	0xbf2899ea	-0.65859854
188	0x3d9a7085	0.07540993
189	0xbebb0566	-0.36527556
190	0x3e62e97d	0.22159381
191	0x3b0c8c79	0.0021446033

fc1.bias f4 [64]
0	0xbf35c9c3	-0.7101099
1	0xbd850b1a	-0.06496258
2	0x3e8a3e67	0.27000734
3	0xbe373532	-0.17891386
4	0xbf2450e7	-0.6418595
5	0xbe93dac2	-0.28877836
6	0x3f6a4466	0.9151062
7	0xbf97d7c0	-1.1862717
8	0x3e23d6d5	0.1599992
9	0xbf1cc47e	-0.61237323
10	0xbee50cb7	-0.44736263
11	0xbf2e16e3	-0.6800367
12	0xbee8e7e5	-0.4548942
13	0xbea58cec	-0.32334077
14	0xbfa32e42	-1.2748492
15	0x3ed44267	0.4145691
16	0x3dd4c2c1	0.10388709
17	0xbf0d1297	-0.5510649
18	0xbf2cecbd	-0.67548734
19	0xbee75b2e	-0.45186752
20	0xbf83decd	-1.0302368
21	0x3dadcc89	0.084862776
22	0xbebc2d05	-0.36753097
23	0xbf2f590e	-0.6849526
24	0x3d427bff	0.047481533
25	0x3f069a4b	0.5257918
26	0x3d45c624	0.048284665
27	0xbf56b321	-0.8386708
28	0xbef13b5b	-0.47115597
29	0x3f2a9e72	0.6664802
30	0xbf363dd6	-0.71188104
31	0x3e8e7b03	0.27828225
32	0x3f07880c	0.52941966
33	0xbf954032	-1.1660216
34	0xbe888cea	-0.2667001
35	0xbf03a1d3	-0.514188
36	0x3d7dde39	0.061979506
37	0x3f4394a7	0.763987
38	0xbe5c0dba	-0.21489611
39	0xbedfe367	-0.43728182
40	0xbe7db881	-0.24777414
41	0xbc074798	-0.008256815
42	0xbe49302b	-0.19647281
43	0xbea26073	-0.3171421
44	0x3dc14544	0.094370395
45	0x3f0f5223	0.55984706
46	0xbd86893a	-0.06569143
47	0x3e0e8c44	0.13920695
48	0xbea0df37	-0.314203
49	0xbf62b277	-0.88553566
50	0x3e96404c	0.2934593
51	0x3e929b2f	0.2863402
52	0xbe01f4df	-0.12691067
53	0xbedc1d25	-0.42990986
54	0xbf0590c9	-0.5217405
55	0xbf6dacdf	-0.92841905
56	0xbebb9fdf	-0.3664541
57	0xbef28d56	-0.47373456
58	0xbef6ecae	-0.48227447
59	0x3f2c759f	0.67366976
60	0xbf118eaf	-0.5685834
61	0xbf059162	-0.5217496
62	0x3f235596	0.6380247
63	0xbee9a7c6	-0.45635813

fc2.weight f4 [32, 64]
0	0xbe1da49a	-0.15394822
1	0x3cc2b8c8	0.023769751
2	0x3cd7fc51	0.026365431
3	0x3cbd6bd9	0.023122715
4	0xbd084653	-0.03327019
5	0x3de79631	0.113079436
6	0x3ed6037e	0.4179954
7	0xbf2b0b01	-0.66813666
8	0x3ea680ba	0.32520086
9	0xbd315a48	-0.04329899
10	0x3da93a27	0.08263045
11	0x3c9bfe29	0.019042091
12	0x3dd217e7	0.10258465
13	0x3dbb72ea	0.091527775
14	0xbe84728f	-0.2586865
15	0x3e691a28	0.22763884
16	0x3e7d674f	0.2474644
17	0x3ca4596a	0.020062167
18	0xbd453362	-0.048144706
19	0x3d9d99ba	0.07695337
20	0xbd788131	-0.06067008
21	0x3dd90456	0.1059653
22	0xbcad1500	-0.021128178
23	0x3da8df2e	0.08245693
24	0x3dba5090	0.09097397
25	0x3e94d49a	0.29068452
26	0x3d909a4f	0.07060682
27	0x3b565ebd	0.0032710277
28	0x3d9b46a7	0.07581835
29	0x3eae2f44	0.34020436
30	0xbeaaf7e3	-0.33392248
31	0x3cac248a	0.021013517
32	0x3eb5354b	0.35392222
33	0xbf0b2628	-0.54355097
34	0xbd07d87d	-0.033165444
35	0x3c194f09	0.009357222
36	0x3e0c4916	0.13699755
37	0x3ec64bdf	0.3872976
38	0xbd229200	-0.039690018
39	0x3da06be0	0.078330755
40	0xbcec793e	-0.028866407
41	0x3d3033f9	0.043018315
42	0x3d5af95f	0.053460475
43	0x3a2704e4	0.0006371273
44	0x3eb1bdee	0.34715217
45	0x3f0085ee	0.5020436
46	0x3d30ac38	0.04313299
47	0x3d8c5d00	0.06853676
48	0xbd6de9b2	-0.058084197
49	0xbc8bbf34	-0.017058946
50	0x3dfd3f83	0.123656295
51	0x3d803d2c	0.062616676
52	0x3d5a5f8d	0.05331378
53	0x3d97efde	0.07418798
54	0x3e16568d	0.14681454
55	0xbdebf79f	-0.11521839
56	0xbde85d7c	-0.11345956
57	0x3d897a1c	0.06712744
58	0xbce9e870	-0.028553218
59	0x3e86dd27	0.263406
60	0x3d5024bc	0.050816283
61	0x3cba22f5	0.022721747
62	0x3e67ea0c	0.22647876
63	0x3de9ff5c	0.11425659
64	0xbdc14b88	-0.094382346
65	0xbd90f9da	-0.070789054
66	0xbd716bc0	-0.05894065
67	0x3cdfb438	0.027307615
68	0xbdce92fc	-0.10086629
69	0xbdfb99a2	-0.122851625
70	0xbe0c8411	-0.13722254
71	0xbe11843c	-0.142106
72	0xbdd5c088	-0.10437113
73	0xbdc37133	-0.095430754
74	0xbdb4cc16	-0.08827989
75	0xbd2aa33c	-0.04165958
76	0x39806800	0.00024491549
77	0x3b56cd4b	0.0032776173
78	0x3d446dd4	0.047956303
79	0xbd55c15c	-0.052186355
80	0x3df76320	0.120794535
81	0xbd9b624e	-0.075871095
82	0xbd9f2f12	-0.0777265
83	0x3d9f8372	0.07788743
84	0xbd44388b	-0.047905486
85	0xbde91a0a	-0.1138192
86	0x3cd79d40	0.0263201
87	0x3d9f794a	0.07786806
88	0x3da5d642	0.08097507
89	0xbcead577	-0.028666241
90	0xbdedea52	-0.11616959
91	0xbd326c80	-0.043560505
92	0x3d855aac	0.06511435
93	0xbdeef0ca	-0.116670206
94	0x3d80dcff	0.06292152
95	0xbd7c5430	-0.061603725
96	0x3d951df0	0.07281101
97	0x3cd9b9a8	0.026577786
98	0xbdbbbf24	-0.091673166
99	0xbd059a2c	-0.032617733
100	0xbd9df2e2	-0.07712342
101	0x3b2a6740	0.0026001483
102	0x3dde175c	0.10844299
103	0x3d7df073	0.06199689
104	0x3dca1738	0.0986771
105	0xbdd6dace	-0.104909524
106	0x3d15fb31	0.036616508
107	0xbdf4c79c	-0.11952135
108	0x3d3f8901	0.046761516
109	0xbd9767d6	-0.07392852
110	0x3c67faa4	0.0141588785
111	0x3c665300	0.014057875
112	0xbc49c380	-0.012314677
113	0x3db3b7ee	0.08775316
114	0xbdf9dc42	-0.12200214
115	0xbc977f03	-0.018493181
116	0xbdcc5801	-0.09977723
117	0xbdd441be	-0.10364102
118	0xbd8663ca	-0.06562002
119	0xbbdbd7c0	-0.006709069
120	0xbdffe63c	-0.124950856
121	0xbc99e7e0	-0.018787324
122	0xbe04a312	-0.12952831
123	0xbdaddd37	-0.08489459
124	0xbd66af1d	-0.056319345
125	0x3c7b81d0	0.015350774
126	0xbe1cd196	-0.15314326
127	0x3d1e1eab	0.038603466
128	0xbbca60e3	-0.0061761006
129	0xbd8b0fd2	-0.06790127
130	0x3e56dc8a	0.20982566
131	0x3da8307a	0.08212371
132	0xbd8451f3	-0.06460943
133	0x3df7500a	0.12075813
134	0x3e5d0e75	0.21587546
135	0xbf02edf4	-0.5114434
136	0x3ea6b798	0.32561946
137	0xbe15a71c	-0.14614528
138	0xbce5cb05	-0.028050909
139	0xbd1f41dc	-0.038881168
140	0xbe0f0b29	-0.13969101
141	0x3c9e158e	0.019297387
142	0xbefc8d5a	-0.49326593
143	0x3e827f97	0.25487968
144	0xbd814b69	-0.063132115
145	0x3e58b84f	0.21164058
146	0xbe964c20	-0.29354954
147	0x3da55004	0.080719024
148	0xbe4a0ddc	-0.1973185
149	0xbe93d551	-0.28873685
150	0xbfebb1ce	-1.8413637
151	0xbe2d8cf6	-0.16948304
152	0xbe79dd61	-0.24400856
153	0x3e8311b8	0.25599456
154	0x3d18cc91	0.037304465
155	0x3d341114	0.0439616
156	0xbd3bb731	-0.045829
157	0x3e79a732	0.24380186
158	0xbfced1ad	-1.6157738
159	0xbbf31535	-0.0074182996
160	0x3ec97104	0.39344037
161	0xbf101183	-0.5627672
162	0x3d93bcd1	0.07213748
163	0xbdb159e7	-0.08659726
164	0xbfe5216b	-1.7900823
165	0x3ec0f1f5	0.376846
166	0x3d8e47ba	0.069472745
167	0xbd8c7360	-0.068579435
168	0x3e327105	0.17425926
169	0xbe257224	-0.16156822
170	0xbdd4c9a3	-0.10390022
171	0x3ca4fb05	0.020139227
172	0x3e1a8c91	0.15092684
173	0x3e856a9a	0.26057893
174	0xbd03d56d	-0.03218596
175	0xbdbf8de6	-0.09353237
176	0x3da23ca8	0.079217255
177	0x3e14d54e	0.14534494
178	0x3d60e547	0.054906156
179	0xbfec8611	-1.8478414
180	0x3df48db0	0.11941087
181	0xbd7307b5	-0.059333522
182	0x3c51bbd3	0.012801128
183	0xbe0c0b23	-0.13676123
184	0xbdb1f1ae	-0.08688675
185	0x3e3ba61d	0.18325086
186	0xbfcc4f8f	-1.5961779
187	0x3e89037f	0.2676048
188	0xbe832e2f	-0.25621173
189	0xbdb21ff9	-0.086975046
190	0xbcabeeb2	-0.020987842
191	0x3dff2bbf	0.12459516
192	0xbf1c86e5	-0.6114333
193	0x3da55576	0.08072941
194	0x3f055c4f	0.52093977
195	0x3e3c2329	0.18372788
196	0xbf228608	-0.63485765
197	0xbf0e6e32	-0.55636895
198	0xbe80023f	-0.25001714
199	0xbeac2eb2	-0.33629376
200	0xbe7b96bd	-0.24569221
201	0xbeaf266a	-0.34208995
202	0x3dbbb5aa	0.09165509
203	0xbd83b08e	-0.064301595
204	0xbe509426	-0.20369014
205	0xbe701d71	-0.23448731
206	0xbf332a34	-0.6998627
207	0xbe886ded	-0.26646367
208	0xbede2ca1	-0.43393424
209	0xbeedfb52	-0.46480805
210	0xbec7a633	-0.38993987
211	0xbd85873a	-0.06519933
212	0xbfa8d77d	-1.3190762
213	0xbd09707f	-0.03355455
214	0xbe76a712	-0.2408717
215	0xbdd95409	-0.106117316
216	0xbd697f8c	-0.057006404
217	0xbee16a77	-0.4402654
218	0xbdf3bc0f	-0.11901104
219	0xbf052026	-0.5200218
220	0x3c512f14	0.012767572
221	0xbe83dd1d	-0.25754634
222	0xbf64d3a1	-0.8938542
223	0x3f0c4618	0.54794455
224	0xbe31aec1	-0.1735182
225	0xbf21fb2d	-0.6327389
226	0xbcbee8b9	-0.02330433
227	0x3c8be50f	0.017076997
228	0x3e959d9a	0.29221803
229	0xbf0446fc	-0.51670814
230	0xbb85bc65	-0.0040812963
231	0xbdb9b26f	-0.09067237
232	0xbed05250	-0.406878
233	0x3ef8dc8c	0.48605764
234	0x3d8be6a6	0.06831102
235	0xbdbbdb61	-0.091727026
236	0xbe6827a5	-0.22671373
237	0xbec071ba	-0.37586766
238	0x3e3893e0	0.1802516
239	0x3ddf1c03	0.10894015
240	0xbe7cffe5	-0.24706991
241	0xbf0c8700	-0.54893494
242	0x3ea9d749	0.33172062
243	0x3ebaff10	0.36522722
244	0x3d2df0ac	0.04246585
245	0xbecce964	-0.40021813
246	0xbf627382	-0.884575
247	0xbf0d20a5	-0.55127937
248	0xbd78b10e	-0.060715728
249	0x3edade51	0.4274774
250	0xbf3646cf	-0.71201795
251	0x3f22c6c1	0.63584524
252	0x3d8ddaab	0.06926473
253	0xbe117b5d	-0.14207216
254	0x3ee8ecd2	0.4549318
255	0x3deffcce	0.117181405

fc2.bias f4 [32]
0	0x3f51f0e9	0.82008225
1	0xbc3ec328	-0.011643209
2	0x3f0bfd57	0.5468344
3	0x3ed00dae	0.40635437
4	0xbdc3d839	-0.095627256
5	0xbdf4d9de	-0.11955617
6	0x3f07e332	0.5308105
7	0xbde73e01	-0.11291123
8	0x3f456b82	0.7711717
9	0x3f438c61	0.76386076
10	0x3eec358d	0.46134606
11	0x3e9dcf7e	0.30822366
12	0x3e29f1f0	0.16596198
13	0x3e93f9d6	0.28901547
14	0xbe02101a	-0.12701455
15	0x3f489bc6	0.7836269
16	0x3ee5731d	0.44814387
17	0xbc98c9ca	-0.018650908
18	0xbe0ea1e7	-0.13928948
19	0xbb3d66e4	-0.002890044
20	0x3c78615e	0.015159933
21	0xbd071c95	-0.032986242
22	0x3dc1e7f6	0.09468071
23	0x3e70ed57	0.23528038
24	0x3e5d6a11	0.21622492
25	0x3e93b1f8	0.28846717
26	0x3d7a41dd	0.06109797
27	0x3efa7df9	0.48924235
28	0x3f0d1e9a	0.5512482
29	0xbde8a8a9	-0.11360294
30	0x3ea1b5f4	0.31584132
31	0x3ed2bc74	0.41159403

fc3.weight f4 [16, 32]
0	0x3e1f4980	0.15555382
1	0x3cd40b0d	0.025884176
2	0x3ed601b0	0.41798162
3	0xbf1cb859	-0.6121879
4	0xbd6ca047	-0.05777004
5	0x3d304ac9	0.04304007
6	0x3ec6aeb9	0.38805178
7	0x3d11cfe3	0.035598647
8	0x3e8fb17f	0.28065106
9	0x3e3d8a33	0.1850975
10	0x3df2552e	0.11832653
11	0x3ee2c03d	0.4428729
12	0x3e16f5d8	0.1474222
13	0xbe016704	-0.12636954
14	0x3cd643e4	0.02615542
15	0x3eaac0a0	0.33350086
16	0x3b61f4b1	0.0034478123
17	0x3c9cab9e	0.019124802
18	0xbe139e00	-0.14415741
19	0xbd80a9a2	-0.06282355
20	0x3e33e5cd	0.17568131
21	0x3d00415c	0.03131233
22	0xbe3aee03	-0.18254857
23	0xbd771729	-0.06032482
24	0xbd9f14c5	-0.07767633
25	0x3dcff770	0.10154617
26	0x3da7180d	0.08158884
27	0x3e1cf39f	0.15327309
28	0x3ea0aa56	0.31379956
29	0xbcf2ec53	-0.029653704
30	0xbda4fad7	-0.080556564
31	0x3e00070a	0.12502685
32	0xbd74cebe	-0.059767477
33	0xbd8835de	-0.06650899
34	0xbec66aab	-0.38753256
35	0xbd0959a8	-0.03353277
36	0xbd879a0b	-0.06621178
37	0xbc11b490	-0.008893147
38	0xbe0f8ebb	-0.14019291
39	0xbe2bf275	-0.16791709
40	0xbe0e46ad	-0.13894148
41	0x3d71d302	0.059039123
42	0xbd86980e	-0.06571971
43	0x3c271828	0.01019863
44	0xbd958910	-0.07301533
45	0xbd13032c	-0.035891697
46	0x3e09b77f	0.13448904
47	0xbd1c3c9d	-0.038143743
48	0xbda53afb	-0.0806789
49	0xbde2acdc	-0.110681266
50	0xbd1a6514	-0.03769405
51	0x3d96a89e	0.0735638
52	0x3daa8e0a	0.08327873
53	0xbd090d14	-0.033459738
54	0xbca59ead	-0.020217264
55	0xbe00b2d4	-0.12568218
56	0xbd007d7b	-0.031369668
57	0x3e38ec32	0.18058851
58	0xbcb7aadb	-0.022420337
59	0xbe2f741a	-0.17134133
60	0x3ddb5338	0.10709232
61	0xbb964438	-0.004585769
62	0xbcf2158c	-0.02955129
63	0xbdc692da	-0.096959785
64	0xbd2af1c1	-0.04173446
65	0xbcfa61d0	-0.030564219
66	0xbf118144	-0.5683787
67	0x3f241fff	0.6411132
68	0x3d069af1	0.032862607
69	0x3d6a142a	0.057148136
70	0xbe9529ef	-0.29133555
71	0x3dd22ee8	0.10262853
72	0xbe8a72e8	-0.27040792
73	0xbea5f72c	-0.3241514
74	0xb96b6d3e	-0.00022452042
75	0x3eaea376	0.34109086
76	0x3e4fc66d	0.20290537
77	0xbe29aa7f	-0.16568945
78	0x3e5360f9	0.20642461
79	0xbde65e44	-0.112484485
80	0xbe35bedc	-0.17748588
81	0x3bfa4622	0.007637755
82	0xbc9dc653	-0.019259607
83	0xbd8fdd9d	-0.07024691
84	0xbdf9ad84	-0.121912986
85	0x3c73b5e9	0.014874914
86	0xbe754934	-0.23953706
87	0xbf06ba5b	-0.52628106
88	0xbed13dea	-0.4086755
89	0xbe27ff71	-0.16406037
90	0x3e0f2227	0.13977872
91	0xbe0d9238	-0.1382531
92	0xbe316ef4	-0.17327482
93	0x3df4ccae	0.11953102
94	0x3db4c7ce	0.08827172
95	0xbf02dc5c	-0.5111749
96	0x3e9e2ffd	0.30895987
97	0xbdc16578	-0.09443182
98	0x3dc3c39f	0.09558796
99	0xbf2649ea	-0.64956534
100	0x3da341ba	0.07971521
101	0x3d67b1b8	0.05656597
102	0x3e814aed	0.25252476
103	0xbe1071d7	-0.14105926
104	0x3e5602c2	0.2089949
105	0x3e0a268f	0.13491271
106	0x3e2f2c15	0.1710666
107	0x3efaf030	0.49011374
108	0x3d5127e3	0.05106343
109	0x3e2762b6	0.16346249
110	0x3d0c9210	0.034318984
111	0x3ec3d18e	0.38245815
112	0x3e60a65a	0.21938458
113	0x3d7c31f2	0.06157107
114	0x3d2b2750	0.04178554
115	0xbdec85b1	-0.11548937
116	0xbdf7bc50	-0.12096465
117	0x3e180f6d	0.14849634
118	0xbab225a7	-0.0013591544
119	0x3c918a3d	0.017766112
120	0x3e186559	0.14882411
121	0x3dde0c2b	0.108421646
122	0xbd7ae3eb	-0.061252516
123	0x3e5afc6e	0.21385357
124	0x3e679321	0.22614719
125	0xbdc89f20	-0.09795976
126	0x3e3b2e86	0.18279466
127	0x3e402277	0.18763147
128	0x3e62470a	0.22097412
129	0x3d8d0b6a	0.06886943
130	0x3ed7b9fa	0.42134076
131	0xbf326449	-0.69684273
132	0xbdb6a656	-0.08918445
133	0x3d274425	0.040836472
134	0x3eb5e28c	0.35524404
135	0x3d92724c	0.07150707
136	0x3eb450df	0.3521795
137	0x3e73496f	0.23758481
138	0x3d1d87b3	0.03845949
139	0x3ee66a7b	0.45003113
140	0x3d8f7bfc	0.0700607
141	0xbe1637d3	-0.14669733
142	0x3e2bb49e	0.16768119
143	0x3e9206a7	0.285207
144	0x3d80db04	0.06291774
145	0xbd6c2fc3	-0.057662737
146	0x3d6ff327	0.058581498
147	0xbd868692	-0.06568636
148	0x3de1e889	0.11030681
149	0xbd0d2b17	-0.03446492
150	0x3df7de1d	0.121029116
151	0x3e30d411	0.17268397
152	0xbdc54f8f	-0.09634315
153	0x3dc0a407	0.09406286
154	0xbda06b11	-0.07832921
155	0x3d9eeaee	0.07759653
156	0x3e252032	0.16125563
157	0x3dda4569	0.1065777
158	0xbdacd773	-0.08439531
159	0x3d4b134b	0.049578946
160	0xbc4eeb27	-0.012629307
161	0xbe164b9d	-0.14677282
162	0xbe98ce60	-0.29844952
163	0xbd52e996	-0.051492296
164	0xbe2e9f9f	-0.17053078
165	0xbe2ef2dd	-0.17084832
166	0xbe2c91bd	-0.1685247
167	0x3de8c41c	0.1136553
168	0xbdaf04b6	-0.085458204
169	0xbe9b2a88	-0.30305886
170	0x3dc6a8b8	0.09700149
171	0xbc225402	-0.009907724
172	0xbbf71c22	-0.0075411955
173	0x3c622b60	0.013804287
174	0x3d8955eb	0.06705841
175	0xbe884fd4	-0.26623404
176	0xbe477be2	-0.19480851
177	0xbdf9a928	-0.12190467
178	0xbdb2fe0e	-0.08739863
179	0xbd437c7a	-0.047726132
180	0xbda131d3	-0.07870831
181	0x3d12fcb3	0.035885524
182	0xbcee5888	-0.02909495
183	0xbe1c415d	-0.15259309
184	0xbe0d28f8	-0.1378516
185	0x3d8de8f4	0.06929198
186	0xbb2001cf	-0.002441514
187	0x3dc22e65	0.09481505
188	0xbe23653c	-0.15956587
189	0xbcd88a00	-0.026432991
190	0x3cd9e5c4	0.026598819
191	0xbd616e27	-0.05503669
192	0xbed43e2a	-0.41453677
193	0x3d60a8a0	0.054848313
194	0xbe1930c5	-0.1496001
195	0x3ef1d86a	0.47235423
196	0x3d003b20	0.031306386
197	0xbe183547	-0.14864074
198	0xbeb108f9	-0.34577158
199	0xbd059ac6	-0.032618307
200	0xbeea84d3	-0.45804462
201	0xbea1a0da	-0.31568033
202	0xbe12456d	-0.14284296
203	0xbd08b668	-0.03337708
204	0xbe3ea10c	-0.18616122
205	0xbf037d41	-0.51363
206	0x3e1f6a73	0.15567951
207	0xbdf6f319	-0.12058086
208	0x3d198d0b	0.037488025
209	0xbd759e36	-0.059965335
210	0xbdfa9b8a	-0.12236698
211	0xbe32fa0c	-0.17478198
212	0x3cd82e30	0.026389211
213	0x3c4e23da	0.01258179
214	0xbb487f3a	-0.003059341
215	0xbecaa9e8	-0.39582753
216	0xba111fa2	-0.00055360247
217	0xbed88188	-0.42286325
218	0xbe26be0b	-0.16283433
219	0xbe000ab1	-0.12504078
220	0xbbecd8c8	-0.007227991
221	0xbe18ee2f	-0.1493461
222	0xbe692a05	-0.22769935
223	0xbec747e2	-0.3892203
224	0xbe0d67b0	-0.13809085
225	0x3cf7ef68	0.030265525
226	0xbec6a0be	-0.38794512
227	0x3f052ec1	0.52024466
228	0xbd1ff4eb	-0.03905193
229	0x3d413e3d	0.047178496
230	0x3f00d0cc	0.503186
231	0x3d94c9d8	0.07265061
232	0x3d67a879	0.056557152
233	0x3da43a8c	0.080189794
234	0xbed02f87	-0.4066126
235	0xbee9a411	-0.45632985
236	0x3db5f061	0.08883739
237	0x3d4fa42a	0.05069367
238	0x3ccc66ed	0.024951423
239	0x3d80d286	0.06290154
240	0xbe4ec179	-0.20190991
241	0xbd1e0ae8	-0.03858462
242	0x3dbcc7bb	0.09217783
243	0x3d62a444	0.055332437
244	0x3e29e004	0.16589361
245	0x3e9efd63	0.31052694
246	0x3e61f472	0.22065905
247	0x3ded114c	0.11575565
248	0xbf94c399	-1.1622192
249	0x3ead0f39	0.33800676
250	0x3cff5cf9	0.031172263
251	0x3e3e3972	0.18576601
252	0xbda8a0ee	-0.0823382
253	0xbdfb3fee	-0.12268053
254	0x3d4258af	0.047447857
255	0x3df9512b	0.12173685

fc3.bias f4 [16]
0	0x3f8126e4	1.0089993
1	0xbe70e4e4	-0.23524815
2	0x3ec43bcb	0.38326868
3	0x3f9824ea	1.1886265
4	0x3f80a228	1.0049486
5	0xbd763a4d	-0.060114194
6	0x3ec44d77	0.3834035
7	0xbdfd283e	-0.12361191
8	0x3e348646	0.17629346
9	0xbe03470b	-0.1282007
10	0x3eace4ce	0.33768314
11	0x3f93688e	1.1516283
12	0xbe51239d	-0.20423742
13	0x3f860433	1.0470031
14	0x3f830c9c	1.0238223
15	0x3e96eb82	0.29476553

fc_value.weight f4 [1, 16]
0	0x3ea1f848	0.31634736
1	0x3d0d3769	0.03447667
2	0xbe49f9fc	-0.19724268
3	0x3ebc3dfc	0.3676604
4	0x3e9d76b1	0.30754617
5	0xbd08e259	-0.033418987
6	0xbf10e16f	-0.56593984
7	0xbdffa8d3	-0.124833725
8	0xbe19532b	-0.14973132
9	0xbda5356f	-0.08066832
10	0xbe86c28c	-0.26320302
11	0x3e6e0f36	0.2324799
12	0xbb9e275f	-0.0048264707
13	0x3eb1aa05	0.34700027
14	0x3e8de600	0.2771454
15	0xbed45793	-0.41473064

exp_avg f4 [64, 3]
0	0xba46274d	-0.0007558957
1	0xba19861b	-0.000585647
2	0x3b25eeb9	0.0025319292
3	0x35e8de0b	1.734997e-06
4	0xb6f8df1b	-7.416949e-06
5	0xb821be19	-3.8562433e-05
6	0xb9cc03c8	-0.0003891273
7	0xb9db3608	-0.00041811191
8	0x3b3e3d3e	0.0029028202
9	0x80000004	-6e-45
10	0x00000004	6e-45
11	0x80000004	-6e-45
12	0xb9271e73	-0.00015937704
13	0xb79bf2b4	-1.8590457e-05
14	0x39b3b37b	0.00034275264
15	0x00000004	6e-45
16	0x80000004	-6e-45
17	0x80000004	-6e-45
18	0xbca0734b	-0.019586226
19	0xbbb49bd4	-0.00551174
20	0xbccfbce6	-0.025358628
21	0xb73e7269	-1.1351521e-05
22	0xb85a279a	-5.2012132e-05
23	0x3940074a	0.00018313262
24	0xbd150bc7	-0.036388185
25	0xbbde58e9	-0.0067855013
26	0xbd0907b2	-0.033454604
27	0x0000010e	3.78e-43
28	0x00000137	4.36e-43
29	0x00000729	2.569e-42
30	0x37de2931	2.6483644e-05
31	0x374b71e5	1.2126261e-05
32	0x39032e3f	0.00012510362
33	0x00000004	6e-45
34	0x00000004	6e-45
35	0x80000004	-6e-45
36	0xb91ee212	-0.00015152272
37	0x38dd1bda	0.00010543289
38	0xb7f86be2	-2.961414e-05
39	0x80000004	-6e-45
40	0x00000004	6e-45
41	0x00000004	6e-45
42	0xb9b14b37	-0.0003381611
43	0xb85b21c9	-5.2245134e-05
44	0xbb09c855	-0.0021023948
45	0xbc256790	-0.010095492
46	0xbb405c61	-0.0029351937
47	0xbc4a2d1b	-0.012339856
48	0xbc85c022	-0.016326968
49	0xbb9625d4	-0.004582146
50	0xbcac0fa2	-0.021003548
51	0x80000004	-6e-45
52	0x80000004	-6e-45
53	0x80000004	-6e-45
54	0xb9a58fe4	-0.0003157846
55	0x396e14fd	0.00022705267
56	0xba953225	-0.0011382742
57	0x00000000	0.0
58	0x00000000	0.0
59	0x00000000	0.0
60	0x35980788	1.1327074e-06
61	0xb6d33188	-6.294056e-06
62	0x37f05cf7	2.865352e-05
63	0x3b197a4a	0.0023418837
64	0xb89b626d	-7.409309e-05
65	0x3a40ae4e	0.0007350192
66	0x3701054a	7.690231e-06
67	0x35ca41ad	1.5069287e-06
68	0x3781bdb5	1.5466338e-05
69	0xb9be426f	-0.0003628912
70	0xb9dd9b20	-0.00042267982
71	0x3b12dd94	0.0022409903
72	0x3a58af51	0.000826587
73	0xb8231ed0	-3.8890925e-05
74	0x398277fa	0.00024884922
75	0xbc7185f8	-0.014741413
76	0xbb924316	-0.0044635637
77	0xbc936837	-0.01799403
78	0xbbd269cf	-0.006421305
79	0xbae8a308	-0.0017748782
80	0xbc095076	-0.008381
81	0x80000004	-6e-45
82	0x00000004	6e-45
83	0x80000004	-6e-45
84	0x00000004	6e-45
85	0x00000004	6e-45
86	0x80000004	-6e-45
87	0xbc99303b	-0.018699756
88	0xbbb0c6b0	-0.005394779
89	0xbcbc9d2d	-0.023024166
90	0x3b96f267	0.0046065333
91	0x3a8156b0	0.0009867754
92	0x3a76733c	0.00094013265
93	0xbae9f95d	-0.0017850805
94	0xba043685	-0.00050435244
95	0xbb114bb4	-0.0022170367
96	0xbcb28fd1	-0.021797093
97	0xbbc8f371	-0.006132536
98	0xbced9b57	-0.029004736
99	0xbb17a7d7	-0.0023140812
100	0xbb005d4e	-0.0019586864
101	0x3bd516fc	0.006502984
102	0x80000210	-7.4e-43
103	0x000000e1	3.15e-43
104	0x000016b5	8.146e-42
105	0xb8d433d0	-0.000101185986
106	0xb80fc544	-3.4277575e-05
107	0x39b92a03	0.0003531725
108	0x3761b258	1.3452569e-05
109	0xb5f8c6c3	-1.8535287e-06
110	0x3829799c	4.0405997e-05
111	0xbcb06d20	-0.02153641
112	0xbbcb9556	-0.0062128706
113	0xbcd90a1b	-0.026494076
114	0x36a74860	4.9854134e-06
115	0xb76bd8ea	-1.4057596e-05
116	0x38e3f24b	0.00010869334
117	0x00000004	6e-45
118	0x00000004	6e-45
119	0x80000004	-6e-45
120	0x00000004	6e-45
121	0x80000004	-6e-45
122	0x00000004	6e-45
123	0x38d18c47	9.992025e-05
124	0xb7c63e4a	-2.3632445e-05
125	0x3a26cc3c	0.0006362831
126	0x80000004	-6e-45
127	0x00000004	6e-45
128	0x00000004	6e-45
129	0x00000004	6e-45
130	0x80000004	-6e-45
131	0x00000004	6e-45
132	0xbc8fbbc0	-0.01754558
133	0xbb8c2f37	-0.0042780894
134	0xbb3ae580	-0.002851814
135	0xbcd6aac7	-0.02620448
136	0xbbf0392e	-0.007331035
137	0xbd094ada	-0.03351865
138	0x80000004	-6e-45
139	0x00000004	6e-45
140	0x80000004	-6e-45
141	0xba464837	-0.00075638614
142	0xba48364f	-0.0007637487
143	0x3b9730fc	0.0046139937
144	0x80000004	-6e-45
145	0x80000004	-6e-45
146	0x80000004	-6e-45
147	0xb7854159	-1.5885265e-05
148	0x3815aecf	3.568717e-05
149	0xb985b9b5	-0.000255061
150	0xbb61c4a6	-0.0034449487
151	0xba8787e1	-0.0010340178
152	0xbb89b6e5	-0.004202711
153	0x3737757b	1.0935003e-05
154	0x35978437	1.1288856e-06
155	0x37ef47d7	2.8524473e-05
156	0xb8302f3d	-4.2005664e-05
157	0xb841f1d6	-4.6240013e-05
158	0x3975c1a2	0.00023437155
159	0x31b589f3	5.2834763e-09
160	0x31bf39e3	5.5654126e-09
161	0x31adc4ac	5.0573217e-09
162	0xbc1a99ec	-0.009436112
163	0xbb04a58f	-0.0020240282
164	0xbc85aff1	-0.016319247
165	0xb9de470c	-0.00042396074
166	0x39998ccc	0.00029287336
167	0xbb01b382	-0.0019790833
168	0xb38fefaf	-6.7025546e-08
169	0x33413872	4.498765e-08
170	0xb450aa3e	-1.9433443e-07
171	0x39bc8998	0.0003596067
172	0xb736737b	-1.0874933e-05
173	0x391a2e9f	0.00014703952
174	0xb54fb41a	-7.737559e-07
175	0xb63e7056	-2.8377594e-06
176	0x3704e0f0	7.920185e-06
177	0x392a242a	0.00016225936
178	0x384ab20a	4.8326365e-05
179	0x3a750eb4	0.0009348199
180	0x00000004	6e-45
181	0x00000004	6e-45
182	0x80000004	-6e-45
183	0x00000004	6e-45
184	0x80000004	-6e-45
185	0x80000004	-6e-45
186	0xbc8d16b6	-0.017222743
187	0xbbacf732	-0.0052784914
188	0xbc97fa6b	-0.018552026
189	0x80000004	-6e-45
190	0x00000004	6e-45
191	0x00000004	6e-45

exp_avg_sq f4 [64, 3]
0	0x3b8fc09a	0.0043869736
1	0x3bb27337	0.0054458636
2	0x3f018a19	0.50601345
3	0x3bcb051f	0.006195679
4	0x395c444d	0.00021006279
5	0x3ba9e44e	0.0051846867
6	0x3bc08490	0.0058751777
7	0x3bb555ee	0.0055339253
8	0x3e768698	0.24074781
9	0x32118678	8.4706855e-09
10	0x3181c182	3.7763934e-09
11	0x34a0e133	2.9966176e-07
12	0x3c9490bd	0.018135423
13	0x3c848927	0.01617868
14	0x3f72cc89	0.94843346
15	0x31866931	3.911872e-09
16	0x31adf468	5.0627484e-09
17	0x35108ce9	5.384923e-07
18	0x3fe38e20	1.7777748
19	0x3d801c8d	0.06255446
20	0x4079a85f	3.9009016
21	0x3e04f976	0.12985787
22	0x3e40a66e	0.18813488
23	0x41c94075	25.156473
24	0x3f5cb9eb	0.8622119
25	0x3d7acbe0	0.061229587
26	0x4056991e	3.3530955
27	0x37da2b7e	2.6007878e-05
28	0x3854df6a	5.075281e-05
29	0x3ab4bde0	0.0013789497
30	0x38f53cec	0.00011693858
31	0x398f777c	0.00027364108
32	0x3b8ad1ff	0.0042364593
33	0x29ff3694	1.13337426e-13
34	0x28786d87	1.37905155e-14
35	0x2beeb355	1.6960692e-12
36	0x3cb8a87a	0.022541273
37	0x3cbe3116	0.023216765
38	0x3e4e0a58	0.20121133
39	0x2a3eabcc	1.6934994e-13
40	0x29ab0ef0	7.596517e-14
41	0x2c74e7eb	3.4803226e-12
42	0x3bf5f14f	0.007505573
43	0x3cc2fa85	0.023801098
44	0x40301c5f	2.7517316
45	0x3ef63aed	0.48091832
46	0x3c6e2384	0.014534835
47	0x3f47c1ae	0.78029907
48	0x3fa3d1e0	1.2798424
49	0x3d05e716	0.032691084
50	0x3f863153	1.0483803
51	0x2e05d18a	3.0426807e-11
52	0x2cf84816	7.056587e-12
53	0x3097d86c	1.1048207e-09
54	0x3d63adf4	0.055585817
55	0x3ca4f72b	0.02013739
56	0x3ea30a95	0.3184401
57	0x00000000	0.0
58	0x00000000	0.0
59	0x00000000	0.0
60	0x3b5d3187	0.0033751444
61	0x3b947d9e	0.0045315763
62	0x3f13d5ce	0.57748115
63	0x3cf073af	0.029352037
64	0x3befcc8b	0.0073180846
65	0x3f08efd8	0.5349097
66	0x3cae89ea	0.021305997
67	0x3c5a5ded	0.013328058
68	0x3ec90748	0.39263368
69	0x3c465881	0.012106062
70	0x3c303729	0.010755339
71	0x3f1e8e6d	0.61936074
72	0x3bfc1a55	0.0076935687
73	0x3b07e210	0.002073411
74	0x3e931b46	0.28731745
75	0x3f7269c4	0.94692636
76	0x3cfe0809	0.03100969
77	0x400cf54c	2.2024717
78	0x3e509b08	0.2037164
79	0x3bae7e5d	0.0053251223
80	0x3e52f313	0.20600538
81	0x2f34ce21	1.6444136e-10
82	0x2dbbe3c2	2.1360583e-11
83	0x32086b5d	7.9406535e-09
84	0x26e4a327	1.5864901e-15
85	0x2656bbbd	7.45006e-16
86	0x28f4a068	2.7159007e-14
87	0x3fd3dd48	1.6551905
88	0x3d5dbf70	0.054137647
89	0x40292bb3	2.6432922
90	0x3d88bdb0	0.06676805
91	0x3da3413c	0.07971427
92	0x40e034ed	7.0064607
93	0x3cced13b	0.025246253
94	0x3a8a5b85	0.0010555839
95	0x3d85ee32	0.06539573
96	0x400dfb7d	2.2184746
97	0x3d9b6093	0.075867794
98	0x408cc3cf	4.3989024
99	0x3d2bf530	0.041981876
100	0x3d82b371	0.06381882
101	0x40dad591	6.83857
102	0x35cf2052	1.5432108e-06
103	0x352aefbc	6.3678795e-07
104	0x39678c79	0.00022082207
105	0x3c479fda	0.012184108
106	0x3b804b88	0.003915254
107	0x3e3556e5	0.17708929
108	0x3cc7a5c9	0.024371045
109	0x3d02e2fe	0.031954758
110	0x3f82c407	1.0216073
111	0x400b2ea6	2.1747222
112	0x3d7b9029	0.06141678
113	0x402e962b	2.7279155
114	0x3ab78926	0.0014002665
115	0x3a08a5c9	0.0005212692
116	0x3d11c746	0.035590433
117	0x341c5e5a	1.4562957e-07
118	0x3552a7db	7.847536e-07
119	0x3781423e	1.5408845e-05
120	0x2da9d12e	1.930597e-11
121	0x2e034674	2.9848526e-11
122	0x306aff9c	8.5491947e-10
123	0x3a905a6d	0.0011013277
124	0x3a9b780f	0.0011861342
125	0x3d90cfdb	0.07070895
126	0x323d5984	1.1021601e-08
127	0x32f20150	2.8173105e-08
128	0x35a98f8e	1.2633261e-06
129	0x28da129b	2.421093e-14
130	0x2930208f	3.910809e-14
131	0x2c1cc873	2.2280205e-12
132	0x3e537dae	0.20653412
133	0x3cc388da	0.023868967
134	0x4010b7ae	2.261211
135	0x405423df	3.3146894
136	0x3deed1f2	0.11661138
137	0x40b03e90	5.507637
138	0x288dd443	1.5746198e-14
139	0x278ba774	3.8761803e-15
140	0x2a9da3dd	2.8002505e-13
141	0x3d86bba4	0.06578758
142	0x3d9966ef	0.07490336
143	0x4028da06	2.638307
144	0x29eb1adf	1.0440758e-13
145	0x2a332dc4	1.5914272e-13
146	0x2d0c55c9	7.977127e-12
147	0x3953dba1	0.00020204346
148	0x399c4eca	0.0002981334
149	0x3c84231e	0.016130026
150	0x3d9f0865	0.07765273
151	0x3b273b9f	0.0025517715
152	0x3e3141a7	0.173102
153	0x3c79d498	0.01524844
154	0x3cc794e5	0.02436299
155	0x3f224ae0	0.633955
156	0x3a3899df	0.00070419715
157	0x38c07719	9.177457e-05
158	0x3ba617b2	0.0050687427
159	0x38737426	5.8043886e-05
160	0x38b4f716	8.629092e-05
161	0x3aa634a3	0.0012680482
162	0x3e3a6b6c	0.1820504
163	0x3c67f0c8	0.014156528
164	0x3f182c14	0.5944226
165	0x3d281fba	0.04104588
166	0x3d20f9ea	0.039300837
167	0x403edc6a	2.982203
168	0x3a4db77f	0.00078474724
169	0x37c4595e	2.3406636e-05
170	0x3b03f3f7	0.0020134428
171	0x3b8f21b1	0.00436803
172	0x3a745292	0.0009320165
173	0x3c45cdf4	0.012073029
174	0x3cbbfccb	0.02294769
175	0x3c8b3a3f	0.016995547
176	0x3f7748a3	0.9659521
177	0x3b6ca786	0.0036110594
178	0x3af1be16	0.0018443491
179	0x3ea36cdb	0.31918988
180	0x35695675	8.6925075e-07
181	0x36cb1a03	6.0528996e-06
182	0x39122dcf	0.0001394071
183	0x321c03a8	9.081226e-09
184	0x319b1112	4.5130344e-09
185	0x344050a4	1.791073e-07
186	0x3faff856	1.3747661
187	0x3d349113	0.044083666
188	0x404eaac4	3.2291727
189	0x2f8b0307	2.5286104e-10
190	0x2edabf2d	9.947452e-11
191	0x32334d54	1.0436754e-08

exp_avg f4 [64]
0	0xba600f38	-0.00085471896
1	0x37689e74	1.386517e-05
2	0xba43d627	-0.0007470571
3	0x00000004	6e-45
4	0xb93eca50	-0.0001819518
5	0x00000004	6e-45
6	0xbca2315c	-0.019798927
7	0x3750ccdf	1.2445466e-05
8	0xbd18f937	-0.037347045
9	0x0000019c	5.77e-43
10	0xb67e8f50	-3.7932368e-06
11	0x00000004	6e-45
12	0xb9186c79	-0.00014536259
13	0x00000004	6e-45
14	0x39a70488	0.00031856098
15	0xbc2c4474	-0.010514367
16	0xbc87d7e1	-0.016582431
17	0x00000004	6e-45
18	0xb89ec55b	-7.5707874e-05
19	0x00000000	0.0
20	0x36a23930	4.8346337e-06
21	0x3b17365a	0.0023073168
22	0x377a7f49	1.4930797e-05
23	0xba1330ae	-0.0005614859
24	0x3a5ce827	0.00084269274
25	0xbc74d8c1	-0.014944256
26	0xbbd62d19	-0.006536138
27	0x00000004	6e-45
28	0x00000004	6e-45
29	0xbc9e8999	-0.019352721
30	0x3b9aab7d	0.00472015
31	0xbaf81166	-0.0018926084
32	0xbcb33b45	-0.021878848
33	0xbb11003c	-0.0022125384
34	0x0000032f	1.142e-42
35	0xb90c733c	-0.00013394369
36	0x37df4bce	2.661897e-05
37	0xbcb665e8	-0.02226539
38	0xb7d21b72	-2.5046731e-05
39	0x00000004	6e-45
40	0x00000004	6e-45
41	0xb894d81b	-7.097443e-05
42	0x00000004	6e-45
43	0x00000004	6e-45
44	0xbc91dca7	-0.01780541
45	0xbcd9efdf	-0.026603637
46	0x00000004	6e-45
47	0xba9ff9d7	-0.0012205195
48	0x00000004	6e-45
49	0x381d92d1	3.756845e-05
50	0xbb6e8a72	-0.0036398438
51	0x37bf2a6b	2.2788727e-05
52	0xb88cf77a	-6.721816e-05
53	0x31fdb64e	7.3839947e-09
54	0xbc1d63bb	-0.009606297
55	0x378e595e	1.6969334e-05
56	0xb3ad5a52	-8.0723694e-08
57	0x39abdf64	0.000327821
58	0x36383b37	2.7452604e-06
59	0xb924629b	-0.00015676992
60	0x00000004	6e-45
61	0x00000004	6e-45
62	0xbc91b309	-0.017785566
63	0x00000004	6e-45

exp_avg_sq f4 [64]
0	0x3ca6b854	0.020351566
1	0x3bd964fd	0.006634353
2	0x3c541935	0.012945463
3	0x326fbce2	1.3954578e-08
4	0x3d3ee0fe	0.046601288
5	0x32a6fee9	1.9440863e-08
6	0x3fff6387	1.9952248
7	0x3f555bcc	0.83343196
8	0x3f8ad7ad	1.0847069
9	0x38d2f833	0.00010059811
10	0x39ec3fcc	0.0004506096
11	0x2a1e503c	1.4061056e-13
12	0x3d56940e	0.05238729
13	0x2a9eda0d	2.821774e-13
14	0x3daa6ada	0.083211616
15	0x3f0b58c5	0.54432327
16	0x3fb07304	1.37851
17	0x2e489d78	4.5614595e-11
18	0x3db1eb7d	0.08687494
19	0x00000000	0.0
20	0x3c95d999	0.018292235
21	0x3d437a08	0.0477238
22	0x3d1b61ba	0.037934996
23	0x3cf73aaa	0.03017934
24	0x3c84fd13	0.016233956
25	0x3f8654f6	1.0494678
26	0x3e5d705c	0.21624893
27	0x2f6d0328	2.1556146e-10
28	0x2732ca42	2.4812106e-15
29	0x3ff00675	1.875197
30	0x3e880d9b	0.2657288
31	0x3cc935d3	0.024561798
32	0x401b5eba	2.4276567
33	0x3e80e5ee	0.25175422
34	0x36948d42	4.4271883e-06
35	0x3c95ef1c	0.018302493
36	0x3d70cc86	0.0587888
37	0x401af7f9	2.421385
38	0x3b2bae98	0.0026196595
39	0x3596d1cf	1.1236933e-06
40	0x2e7f9455	5.8112033e-11
41	0x3b1d3722	0.002398916
42	0x33691af3	5.427405e-08
43	0x29bbb146	8.33522e-14
44	0x3e947380	0.2899437
45	0x4067ee95	3.623937
46	0x28cf1b71	2.2993517e-14
47	0x3e347f50	0.17626691
48	0x2aaf6eee	3.1163218e-13
49	0x3a015042	0.0004932919
50	0x3dae8377	0.08521169
51	0x3d12cf02	0.03584195
52	0x3a64b8b2	0.00087250315
53	0x392dddde	0.00016581218
54	0x3e5ff9b7	0.21872602
55	0x3e0a455b	0.1350302
56	0x3a5cf0aa	0.0008428196
57	0x3bb9e0d9	0.005672556
58	0x3d536c6a	0.051617064
59	0x3c3e98e8	0.011633135
60	0x370d5082	8.423e-06
61	0x3281c46e	1.5106902e-08
62	0x3fc01c56	1.5008647
63	0x2fdd544d	4.0259565e-10

exp_avg f4 [32, 64]
0	0xb73aee4c	-1.1141947e-05
1	0x376c3f9d	1.4081507e-05
2	0xb9a7e2e9	-0.00032021783
3	0x80000004	-6e-45
4	0xb909d485	-0.00013144508
5	0x00000004	6e-45
6	0xbc3a2556	-0.011361441
7	0xb59ecff3	-1.1832439e-06
8	0x3ab9ce7d	0.0014175918
9	0x00000004	6e-45
10	0x373b0817	1.1147952e-05
11	0x80000004	-6e-45
12	0xb875ea5f	-5.8630827e-05
13	0x80000004	-6e-45
14	0xb7c19fce	-2.3081808e-05
15	0xbb7c625f	-0.0038510782
16	0xbb720977	-0.003693191
17	0x00000004	6e-45
18	0xb92504eb	-0.00015737458
19	0x00000000	0.0
20	0xb5177d9f	-5.6434686e-07
21	0x3960a396	0.00021423245
22	0x372576d7	9.862436e-06
23	0xb8a39bbc	-7.8014535e-05
24	0x386fb87b	5.715385e-05
25	0xbc37563f	-0.011189996
26	0xbb72ea60	-0.0037065968
27	0x00000004	6e-45
28	0x80000004	-6e-45
29	0xbbfaf4a8	-0.00765856
30	0x36127ba6	2.1827668e-06
31	0xba8a45ce	-0.0010549368
32	0xbc28e664	-0.010308836
33	0x38a7512c	7.9783e-05
34	0x00000351	1.19e-42
35	0xb8ae5f55	-8.3147235e-05
36	0x3717d8b9	9.050761e-06
37	0xbbf99ef3	-0.007617825
38	0x38e86108	0.000110806955
39	0x00000004	6e-45
40	0x00000004	6e-45
41	0xb9309c66	-0.00016842931
42	0x00000004	6e-45
43	0x80000004	-6e-45
44	0x3993328b	0.00028075682
45	0xbbe26cf9	-0.006909963
46	0x80000004	-6e-45
47	0xb9edd6a5	-0.00045364085
48	0x00000004	6e-45
49	0xb791764b	-1.7340431e-05
50	0xbae41ae6	-0.0017403036
51	0x370051df	7.648457e-06
52	0x37babca1	2.2260765e-05
53	0x32d72ddd	2.505015e-08
54	0x3b1f6383	0.0024320788
55	0xb8dbc47b	-0.00010479331
56	0x3004a0a4	4.8249604e-10
57	0x38a5508a	7.882815e-05
58	0x36f49524	7.289129e-06
59	0x3855dc79	5.098849e-05
60	0x80000004	-6e-45
61	0x00000004	6e-45
62	0xbb926313	-0.004467377
63	0x80000004	-6e-45
64	0x00000000	0.0
65	0x00000000	0.0
66	0x00000000	0.0
67	0x00000000	0.0
68	0x00000000	0.0
69	0x00000000	0.0
70	0x00000004	6e-45
71	0x00000004	6e-45
72	0x00000004	6e-45
73	0x00000004	6e-45
74	0x00000000	0.0
75	0x00000000	0.0
76	0x00000000	0.0
77	0x00000004	6e-45
78	0x00000000	0.0
79	0x00000000	0.0
80	0x00000000	0.0
81	0x00000000	0.0
82	0x00000000	0.0
83	0x00000000	0.0
84	0x00000004	6e-45
85	0x00000000	0.0
86	0x00000004	6e-45
87	0x00000000	0.0
88	0x00000000	0.0
89	0x00000004	6e-45
90	0x00000000	0.0
91	0x00000000	0.0
92	0x00000000	0.0
93	0x00000000	0.0
94	0x00000004	6e-45
95	0x00000000	0.0
96	0x00000004	6e-45
97	0x00000000	0.0
98	0x00000000	0.0
99	0x00000000	0.0
100	0x00000004	6e-45
101	0x00000000	0.0
102	0x00000000	0.0
103	0x00000004	6e-45
104	0x00000000	0.0
105	0x00000000	0.0
106	0x00000004	6e-45
107	0x00000004	6e-45
108	0x00000004	6e-45
109	0x00000000	0.0
110	0x00000004	6e-45
111	0x00000000	0.0
112	0x00000000	0.0
113	0x00000000	0.0
114	0x00000000	0.0
115	0x00000004	6e-45
116	0x00000004	6e-45
117	0x00000004	6e-45
118	0x00000000	0.0
119	0x00000000	0.0
120	0x00000000	0.0
121	0x00000000	0.0
122	0x00000004	6e-45
123	0x00000004	6e-45
124	0x00000004	6e-45
125	0x00000000	0.0
126	0x00000004	6e-45
127	0x00000004	6e-45
128	0xb7472d52	-1.1871876e-05
129	0x3781a6ac	1.5455611e-05
130	0xb9b1d443	-0.00033918218
131	0x80000004	-6e-45
132	0xb91212b2	-0.0001393061
133	0x80000004	-6e-45
134	0xbc451398	-0.012028597
135	0xb58d1baf	-1.0513376e-06
136	0x3ac3900c	0.0014920249
137	0x80000004	-6e-45
138	0x37458d10	1.1774959e-05
139	0x80000004	-6e-45
140	0xb88271ce	-6.220081e-05
141	0x00000004	6e-45
142	0xb7ccfef1	-2.4437411e-05
143	0xbb85d55f	-0.0040842737
144	0xbb80215c	-0.0039102267
145	0x00000004	6e-45
146	0xb92eefb4	-0.0001668323
147	0x00000000	0.0
148	0xb497fc9c	-2.830974e-07
149	0x397216a5	0.00023087354
150	0xb449b6d5	-1.8786098e-07
151	0xb8ad6a8b	-8.269128e-05
152	0x388358bf	6.263097e-05
153	0xbc423694	-0.011853833
154	0xbb80c74d	-0.0039300085
155	0x00000004	6e-45
156	0x80000004	-6e-45
157	0xbc04f5b3	-0.00811522
158	0xb68e63b2	-4.243536e-06
159	0xba92df10	-0.0011205394
160	0xbc32f020	-0.010921508
161	0x38b0f393	8.437703e-05
162	0x00000004	6e-45
163	0xb8b8cbc2	-8.8117566e-05
164	0xb53125d8	-6.599271e-07
165	0xbc043c13	-0.008070963
166	0x38f22ff1	0.00011548389
167	0x00000004	6e-45
168	0x00000004	6e-45
169	0xb939da22	-0.00017724236
170	0x80000004	-6e-45
171	0x80000004	-6e-45
172	0x399fef59	0.0003050517
173	0xbbef9ba1	-0.0073122536
174	0x80000004	-6e-45
175	0xb9fbec2a	-0.00048050407
176	0x00000004	6e-45
177	0xb799f7d3	-1.8354423e-05
178	0xbaf207f2	-0.0018465503
179	0xb5b69048	-1.3602048e-06
180	0x37bf8705	2.2831848e-05
181	0x8431fbe4	-2.0921913e-36
182	0x3b2899fe	0.0025726552
183	0xb8e90150	-0.0001111055
184	0x300c17e7	5.096567e-10
185	0x38aee7b7	8.340127e-05
186	0xb30bae57	-3.252202e-08
187	0x384dfe6f	4.911277e-05
188	0x80000004	-6e-45
189	0x00000004	6e-45
190	0xbb9ad543	-0.00472513
191	0x00000004	6e-45
192	0x33988319	7.101898e-08
193	0xb2a28da1	-1.8923688e-08
194	0x35bffeb0	1.4304733e-06
195	0x00000004	6e-45
196	0x35215c0f	6.0111137e-07
197	0x80000004	-6e-45
198	0xb5c31dd2	-1.4537311e-06
199	0x80000004	-6e-45
200	0x35d5bbc7	1.5924387e-06
201	0x80000004	-6e-45
202	0x0001b7d0	1.57775e-40
203	0x00000004	6e-45
204	0x34bce765	3.518609e-07
205	0x80000004	-6e-45
206	0x00000004	6e-45
207	0x353d7b7f	7.0587697e-07
208	0x3434a19e	1.6822602e-07
209	0x80000004	-6e-45
210	0x3577cf41	9.2316264e-07
211	0x00000000	0.0
212	0x277d2688	3.513169e-15
213	0xb525c140	-6.1748506e-07
214	0xb594a12e	-1.1073769e-06
215	0x349960c2	2.856887e-07
216	0xb54ac30c	-7.5534695e-07
217	0xb5c10f03	-1.438399e-06
218	0xb364fdf8	-5.331637e-08
219	0x80000004	-6e-45
220	0x00000004	6e-45
221	0x3552684a	7.8382857e-07
222	0x2889d7ee	1.53037e-14
223	0xb43e82b2	-1.7742676e-07
224	0xb574cd53	-9.119587e-07
225	0x00000302	1.079e-42
226	0x00000004	6e-45
227	0x34b4eacb	3.3698447e-07
228	0xb604086c	-1.9674435e-06
229	0x35cb5e29	1.5152083e-06
230	0x2524a608	1.4280986e-16
231	0x00000004	6e-45
232	0x80000004	-6e-45
233	0x34b0de73	3.2944408e-07
234	0x00000004	6e-45
235	0x00000004	6e-45
236	0xb61759bc	-2.2552986e-06
237	0xb50211cc	-4.845467e-07
238	0x00000004	6e-45
239	0x36152e7c	2.2229788e-06
240	0x00000004	6e-45
241	0x32092a65	7.984089e-09
242	0x336ddafd	5.538003e-08
243	0xb635f504	-2.711372e-06
244	0xb0219cec	-5.879446e-10
245	0x00000004	6e-45
246	0x350dcec0	5.2827454e-07
247	0x34fe552d	4.737316e-07
248	0x00000004	6e-45
249	0x2d8651c8	1.5270354e-11
250	0xb4d18541	-3.902624e-07
251	0x34429f4e	1.8125613e-07
252	0x00000004	6e-45
253	0x00000004	6e-45
254	0xb5a70734	-1.2444566e-06
255	0x00000004	6e-45

exp_avg_sq f4 [32, 64]
0	0x3c0b3104	0.008495573
1	0x3a2fc53f	0.0006705112
2	0x3d093f9c	0.03350793
3	0x30e95448	1.6976935e-09
4	0x3caea5a9	0.021319227
5	0x31aef26d	5.091627e-09
6	0x3f272c0e	0.653016
7	0x3cf97f20	0.030456126
8	0x3db7d3c8	0.08975941
9	0x376af408	1.4004305e-05
10	0x3909a2a2	0.00013125924
11	0x28c2a450	2.1609586e-14
12	0x3c0efeeb	0.008727769
13	0x2a16c69e	1.3391585e-13
14	0x3af6c81d	0.0018827949
15	0x3dfc38f5	0.12315551
16	0x3e345d2e	0.1761367
17	0x2ef17dca	1.0981756e-10
18	0x3ccc7ff6	0.02496336
19	0x00000000	0.0
20	0x3cc348ed	0.023838485
21	0x3c827986	0.015927088
22	0x3d2c0387	0.04199555
23	0x3c455ff1	0.0120468
24	0x3c6a38bd	0.014295754
25	0x3ecd7700	0.40129852
26	0x3d464b79	0.04841182
27	0x2f45a5bc	1.7975926e-10
28	0x25d3617c	3.6668723e-16
29	0x3edd85d1	0.43266156
30	0x3ce55e2c	0.027999006
31	0x3c37d167	0.011219359
32	0x3eb769d1	0.3582292
33	0x3c189520	0.009312898
34	0x368f3a35	4.2685083e-06
35	0x3bc794eb	0.0060907505
36	0x3d8ef2a7	0.06979876
37	0x3f33f0b5	0.70289165
38	0x3a9c77cc	0.0011937558
39	0x33ddadbe	1.0322718e-07
40	0x2de83d23	2.6402497e-11
41	0x3bb42a25	0.005498188
42	0x337a2675	5.8242637e-08
43	0x2956d899	4.7705414e-14
44	0x3e44dd9a	0.1922516
45	0x3ea27f09	0.31737545
46	0x27805bc4	3.562663e-15
47	0x3db9541b	0.09049245
48	0x2a82415b	2.3137988e-13
49	0x39b80c74	0.00035104493
50	0x3cdff4d8	0.02733843
51	0x3dc04f5e	0.09390138
52	0x39ecccf8	0.0004516614
53	0x38c53baf	9.404809e-05
54	0x3d2223b0	0.039584816
55	0x3cc23241	0.023705604
56	0x393acfe1	0.00017815783
57	0x3a1de769	0.00060235575
58	0x3cef5c81	0.029218914
59	0x3d09672b	0.033545654
60	0x3636c21a	2.7233095e-06
61	0x323ed528	1.1107922e-08
62	0x3e23584a	0.15951648
63	0x2e0a1eff	3.1405097e-11
64	0x00000000	0.0
65	0x00000000	0.0
66	0x00000000	0.0
67	0x00000000	0.0
68	0x00000000	0.0
69	0x00000000	0.0
70	0x18b189bd	4.5892508e-24
71	0x152667df	3.3605373e-26
72	0x13ae0df3	4.393753e-27
73	0x16a2353a	2.6206102e-25
74	0x00000000	0.0
75	0x00000000	0.0
76	0x00000000	0.0
77	0x181c5550	2.02056e-24
78	0x00000000	0.0
79	0x00000000	0.0
80	0x00000000	0.0
81	0x00000000	0.0
82	0x00000000	0.0
83	0x00000000	0.0
84	0x193aa9be	9.650254e-24
85	0x00000000	0.0
86	0x198471ab	1.369439e-23
87	0x00000000	0.0
88	0x00000000	0.0
89	0x190bf3d3	7.2353715e-24
90	0x00000000	0.0
91	0x00000000	0.0
92	0x00000000	0.0
93	0x00000000	0.0
94	0x1833c3dc	2.3234091e-24
95	0x00000000	0.0
96	0x17d2befd	1.3619144e-24
97	0x00000000	0.0
98	0x00000000	0.0
99	0x00000000	0.0
100	0x19a2a207	1.681585e-23
101	0x00000000	0.0
102	0x00000000	0.0
103	0x18f04544	6.2108486e-24
104	0x00000000	0.0
105	0x00000000	0.0
106	0x19664f83	1.19067786e-23
107	0x1694b16c	2.4022659e-25
108	0x18ad6c8a	4.482905e-24
109	0x00000000	0.0
110	0x163e2c7b	1.5362113e-25
111	0x00000000	0.0
112	0x00000000	0.0
113	0x00000000	0.0
114	0x00000000	0.0
115	0x19bcf96d	1.9539487e-23
116	0x178b203f	8.990805e-25
117	0x1933b96b	9.291528e-24
118	0x00000000	0.0
119	0x00000000	0.0
120	0x00000000	0.0
121	0x00000000	0.0
122	0x190d8d75	7.318096e-24
123	0x167d26a6	2.0449373e-25
124	0x19641ade	1.17927495e-23
125	0x00000000	0.0
126	0x1622fd24	1.3166133e-25
127	0x15597b32	4.3919985e-26
128	0x3ba6253e	0.0050703576
129	0x39b182ac	0.0003385743
130	0x3cca36ba	0.024684299
131	0x2fdbc5f1	3.9976514e-10
132	0x3c3a8afc	0.0113856755
133	0x31e871f3	6.765043e-09
134	0x3f239977	0.63906044
135	0x39d3bd7e	0.0004038624
136	0x3dca9efe	0.098936066
137	0x33784c98	5.781166e-08
138	0x38dd3308	0.000105476065
139	0x29166099	3.3390476e-14
140	0x3b83a002	0.004016877
141	0x28bd7e64	2.1038028e-14
142	0x3a9f933c	0.0012174617
143	0x3e0c23ea	0.13685575
144	0x3e47d92e	0.19516441
145	0x2f195909	1.39469e-10
146	0x3c3d1dd3	0.011542755
147	0x00000000	0.0
148	0x38900b6f	6.868585e-05
149	0x3b722502	0.0036948328
150	0x37bbc60e	2.2384364e-05
151	0x3bd2d0c4	0.006433578
152	0x3a703b4c	0.00091641094
153	0x3eafb47f	0.34317395
154	0x3d5b599e	0.053552262
155	0x2f8e74cb	2.5912636e-10
156	0x264e339c	7.154055e-16
157	0x3ef6b62e	0.48185867
158	0x386f64f2	5.7076053e-05
159	0x3c3c5d89	0.01149691
160	0x3eb210a2	0.34778315
161	0x3be21743	0.0068997457
162	0x315115a7	3.042581e-09
163	0x3b3c980f	0.0028777157
164	0x389fc821	7.618988e-05
165	0x3f45711d	0.7712572
166	0x3ab606d7	0.0013887536
167	0x33991025	7.1275544e-08
168	0x2e01338c	2.9376987e-11
169	0x3b12ac73	0.002238062
170	0x338a1191	6.429321e-08
171	0x28a3460b	1.8127012e-14
172	0x3c26cc93	0.01018061
173	0x3ea9519b	0.33070073
174	0x27c73f66	5.5302332e-15
175	0x3d6dc8d5	0.058052856
176	0x2ab11df3	3.1462298e-13
177	0x39d0c949	0.0003982282
178	0x3cf4a0e5	0.029861877
179	0x39397bfd	0.00017689164
180	0x39e1acb1	0.0004304401
181	0x36006147	1.913011e-06
182	0x3d363781	0.044486526
183	0x3c43ca65	0.01195011
184	0x39544923	0.00020245141
185	0x3a0099e3	0.00049057434
186	0x37bda94c	2.260939e-05
187	0x3cf7e6d7	0.03026144
188	0x36452810	2.9378607e-06
189	0x31fadcea	7.3010726e-09
190	0x3e104bf2	0.14091471
191	0x2da11f2b	1.8317422e-11
192	0x35939f0b	1.0998641e-06
193	0x37ed496f	2.8286797e-05
194	0x3c0a79c4	0.008451883
195	0x3198ad13	4.4434585e-09
196	0x39845640	0.00025241263
197	0x2fe6d2e2	4.1986598e-10
198	0x3b95fe3e	0.004577427
199	0x33c39be9	9.108755e-08
200	0x3c51d4af	0.012807055
201	0x3246d609	1.1573783e-08
202	0x35bd88f5	1.4121457e-06
203	0x239d6e95	1.7068807e-17
204	0x3a1de651	0.00060233945
205	0x268e062d	9.854903e-16
206	0x339e515c	7.3722475e-08
207	0x3b6ab3e4	0.003581279
208	0x383de665	4.5275683e-05
209	0x2c788ce4	3.532113e-12
210	0x3a630dfc	0.00086614466
211	0x00000000	0.0
212	0x379bfd11	1.8595283e-05
213	0x3b019d59	0.0019777624
214	0x3b352dd9	0.0027645736
215	0x3790f06b	1.7278091e-05
216	0x3aaba861	0.0013096445
217	0x3b555187	0.0032549815
218	0x39314d9f	0.00016908952
219	0x2dd9a1c3	2.474188e-11
220	0x22db8875	5.950455e-18
221	0x3af126f2	0.0018398447
222	0x38de0d5e	0.00010588275
223	0x3b1f5f12	0.002431814
224	0x3abcdb7b	0.0014408672
225	0x33c3cc10	9.117514e-08
226	0x30d601f1	1.5571101e-09
227	0x384ad7a3	4.836138e-05
228	0x3c1dbdfc	0.009627815
229	0x3b94df9e	0.004543259
230	0x36b9af39	5.5338282e-06
231	0x32b3dab0	2.093779e-08
232	0x2b708116	8.544427e-13
233	0x3b2ab64c	0.0026048599
234	0x335994db	5.0659633e-08
235	0x25f86176	4.3087184e-16
236	0x3c207f5c	0.00979599
237	0x3aaa9ef2	0.001301734
238	0x271bd8a3	2.162801e-15
239	0x3c470659	0.0121475095
240	0x28a4dd66	1.8303674e-14
241	0x380c7515	3.3487642e-05
242	0x3af089be	0.0018351597
243	0x3c90a29e	0.017655667
244	0x38b19a34	8.46874e-05
245	0x36cd3661	6.1158066e-06
246	0x3a250486	0.00062949245
247	0x38bf9bc2	9.136602e-05
248	0x2eaabb82	7.764013e-11
249	0x33629169	5.2751975e-08
250	0x3a195fa5	0.0005850739
251	0x3c86916a	0.01642676
252	0x3567cf92	8.635626e-07
253	0x2d1549f4	8.48609e-12
254	0x3ba33e6d	0.004981807
255	0x2e81aef9	5.897322e-11

exp_avg f4 [32]
0	0xbbeb435b	-0.0071796603
1	0x00000004	6e-45
2	0xbbf94370	-0.007606916
3	0xb553a6e1	-7.8846466e-07
4	0x00000004	6e-45
5	0x00000004	6e-45
6	0xbbfd0b4d	-0.0077222944
7	0x00000004	6e-45
8	0xbbd4ba70	-0.0064919516
9	0xbbe00141	-0.006836087
10	0xbb1a7c72	-0.002357271
11	0xbc2f1c4d	-0.0106879
12	0x358f660f	1.0684033e-06
13	0xb9e611d7	-0.0004388231
14	0xafef3058	-4.3508197e-10
15	0xbbe087a3	-0.0068521067
16	0xbb370bd2	-0.002793063
17	0x00000004	6e-45
18	0x00000004	6e-45
19	0x00000004	6e-45
20	0x00000004	6e-45
21	0x00000004	6e-45
22	0x22163138	2.0354847e-18
23	0xb9b29944	-0.00034064997
24	0x373f7014	1.1410582e-05
25	0x37bff6b5	2.2883856e-05
26	0x00000004	6e-45
27	0xbba587df	-0.0050515975
28	0xbc0839a4	-0.008314524
29	0x00000004	6e-45
30	0xb526aaad	-6.2088185e-07
31	0xbb8bdd07	-0.004268292

exp_avg_sq f4 [32]
0	0x3e968389	0.29397228
1	0x184e2b7e	2.6646834e-24
2	0x3e98232f	0.29714343
3	0x3c2ed3ba	0.010670597
4	0x2216895d	2.040151e-18
5	0x3562ced9	8.4492564e-07
6	0x3ea048ad	0.31305447
7	0x25e48a56	3.9645435e-16
8	0x3e743b42	0.2385073
9	0x3e87afeb	0.26501402
10	0x3d1218b9	0.03566811
11	0x3f0c9124	0.54908967
12	0x39a7709d	0.00031936626
13	0x3b07b333	0.0020706176
14	0x36db32b1	6.53261e-06
15	0x3e887779	0.2665365
16	0x3d48ed63	0.049054515
17	0x27f797b3	6.8720744e-15
18	0x210b0e8f	4.71143e-19
19	0x2ad58880	3.7931117e-13
20	0x1cbc5438	1.2462566e-21
21	0x32471946	1.1589071e-08
22	0x33ecc40a	1.1025266e-07
23	0x3a3d29dc	0.00072160154
24	0x3a576413	0.00082165113
25	0x38fdbafc	0.00012098809
26	0x22da527d	5.9176356e-18
27	0x3e090a39	0.13382806
28	0x3ec10ee5	0.37706676
29	0x18d3a690	5.4710407e-24
30	0x39ab0039	0.00032615828
31	0x3dafed3d	0.085901715
