pytorch_DS-051/rackhun/1_A2C_pendulum/saved_model/A2C_CRITIC.pth (torch_old, 37834 bytes, 21 tensors)

fc1.weight f4 [64, 3]
00000000: 206e b4be 59e8 843e 6be9 bfbd a06b b43e
00000010: e198 efbe 0903 983e 7a65 b33e df42 bbbe
00000020: 8612 70be c0be 243e 1683 ae3e 228b dc3d
00000030: c990 65bd 8301 483e 9057 06bf 3f54 083e
00000040: 85af 683e bdca 13bf cd65 06bf e4ff 72bd
00000050: 9dc7 06bf d590 bc3e bf59 d63e 4dad 99be
00000060: 3cc5 f53e c0bd 233e ac75 f43e 98ad ec3e
00000070: 3f06 c63d bed6 f3be 408d 00be 363b 7abe
00000080: 0871 093e 2ba3 50be 1de8 ffbe 84b5 d23e
00000090: 8cb2 db3e e829 9fbe bec7 0ebf 8a5e 023f
000000a0: 0ca8 143f a781 24be 1a10 8e3e c765 e0be
000000b0: 2671 9bbe 571d bf3d 77a3 fb3e b56e 9fbe
000000c0: 90c2 4c3e 2250 9e3e 90eb 0abe 3d1b f2be
000000d0: 0f50 a73e 547d 79be 8518 86be 75f7 e4be
000000e0: f676 5fbd b492 7f3e 6877 3dbe 117d babe
000000f0: 2ead 0d3f 906e ae3e f65a c43e 74e9 03be
00000100: 0b19 cebd 220d e6be 457f cb3c 5d35 593e
00000110: 64ce 813d 9b9e c73e d98f e4bd f8e9 b83d
00000120: 99a8 20be c248 4c3e f9e1 8c3b 19d7 07bf
00000130: 34c3 c6be cc4a fe3e 39b1 9bbe 20e4 cc3c
00000140: 6c21 fb3e 05e0 3fbe 7f0a b13e 2a8e b1be
00000150: 9832 6bbe 38f8 0dbe 6c94 1b3e 99a4 8bbe
00000160: d354 fb3e 7352 02bf 52a3 d4bd 41bf cb3e
00000170: 39a9 0abf a7df d5bd d62f bcbe b0c8 4b3e
00000180: bb9f 70be 77c3 c63e efa7 9abe 2336 41be
00000190: 2746 89be e338 54be 7e09 1bbe 2be5 e3be
000001a0: a1fe a5be ca03 4cbe 283e 973d 141d d73e
000001b0: 36e9 e53e 2978 8f3b f909 d03d 205a 1a3e
000001c0: 9ccf e43e 4093 4d3d 9895 1a3e 1030 72bd
000001d0: 489c c73e c8f3 37be 6c89 4dbd bcea dfbe
000001e0: 4aae ce3e a14b f73e 1cd6 303e 1b43 9bbd
000001f0: a4c5 d13e 2260 73be dedd f2be 20ac 5dbd
00000200: 602c 1b3e 1d3b f4bd 2702 b63c 2712 9dbe
00000210: 1084 20bd d8da df3e 5ca7 e83e fec1 943e
00000220: 35ab 933d 4598 c4be 08b5 9bbd 23c0 debe
00000230: 6885 d93e 8800 f5be f766 26be cdc2 7abe
00000240: 9e90 07bf 2a14 003f 4aed 083f 2124 013f
00000250: 7ae3 95bc 2716 6abe c95d b83e 4607 c53e
00000260: 1135 c6be a747 e1be 2a4d 94be 50bb 273e
00000270: e02f bd3c a064 643e 3602 093f 69af 133f
00000280: c4e5 a83e 237a 83bd 3ca6 ec3e e8d0 81be
00000290: 5497 9ebe 0ef4 88be bdad 8ebe 3a66 90be
000002a0: 6ed6 08be 9bae d7be 1861 6bbe 60ce e53e
000002b0: edbd 76be d5d7 eabd b662 743e e8cf 93be
000002c0: 47b5 0c3e b38d d2be 28bb febe 0aa2 d8be
000002d0: a0e7 46be 840c 073f 7ed7 0c3f 93bb 1abd
000002e0: 3bd5 ca3e e1b1 653c 9e5c a5be e47d b5be
000002f0: 4b31 acbe 8ea4 adbe 5e1c 7dbe d055 bc3e
-0.3524027 0.25958517 -0.09370693 0.3523836 -0.46796325 0.29689816 0.35038358 -0.36574456
-0.23444566 0.1608839 0.34084386 0.10768725 -0.05604628 0.19531827 -0.5247736 0.13313387
0.22723205 -0.5773123 -0.52499086 -0.059326068 -0.52648336 0.36829248 0.41865346 -0.3001503
0.4800204 0.15990353 0.47746027 0.46226192 0.0966916 -0.47624773 -0.12553883 -0.2443665
0.13422024 -0.20374744 -0.49981776 0.4115411 0.42909658 -0.3108666 -0.5577353 0.50925505
0.5806892 -0.16065083 0.2774666 -0.4382765 -0.30359763 0.09331768 0.4914815 -0.3113915
0.19996095 0.3092051 -0.13566422 -0.47286406 0.32678267 -0.24364215 -0.26190582 -0.44720045
-0.05455681 0.24958307 -0.18502581 -0.36423543 0.55342376 0.34068727 0.38350648 -0.12882024
-0.1006337 -0.44931895 0.02484096 0.21211763 0.06338194 0.38988194 -0.11160249 0.09029001
-0.15689315 0.1994963 0.004299399 -0.5306259 -0.38820803 0.4966644 -0.30408648 0.025011122
0.49048936 -0.187378 0.3457832 -0.34678775 -0.22968519 -0.13864219 0.15193337 -0.27274016
0.49088153 -0.5090706 -0.103827134 0.39794353 -0.54164463 -0.10443049 -0.36755246 0.19900775
-0.23498432 0.38821003 -0.30206248 -0.18868308 -0.26811334 -0.20724826 -0.1514034 -0.4451078
-0.3242083 -0.1992332 0.07384902 0.42014372 0.44904488 0.004378338 0.10158152 0.15073442
0.44689643 0.050189257 0.15096128 -0.059127867 0.3898642 -0.17964089 -0.050179884 -0.43733776
0.40367347 0.48299888 0.17269176 -0.07581159 0.409711 -0.2376714 -0.47434896 -0.05411923
0.15153646 -0.119253375 0.022217823 -0.30677912 -0.039188445 0.43721652 0.45440185 0.29054254
0.072103895 -0.38397422 -0.07602888 -0.43505964 0.42484593 -0.47851968 -0.16250215 -0.24488373
-0.52955043 0.5003077 0.53487074 0.50445753 -0.018296946 -0.22860013 0.36009052 0.38482112
-0.3871236 -0.4399998 -0.28965122 0.16380048 0.023094118 0.2230401 0.53519 0.5768953
0.32987797 -0.0641978 0.46220577 -0.25354695 -0.3097483 -0.267487 -0.27866927 -0.28202993
-0.13363048 -0.421254 -0.22986257 0.44884014 -0.24095888 -0.11466948 0.2386578 -0.28869557
0.13741027 -0.41123733 -0.49752164 -0.42311126 -0.19424295 0.5275347 0.55016315 -0.03777654
0.39615807 0.01401946 -0.32297224 -0.3544761 -0.33631358 -0.33914608 -0.24717852 0.3678422

fc1.bias f4 [64]
00000000: 00fd ccbe 68b9 f83e bcf6 983d 0950 d03e
00000010: a4c8 c73e a8f6 093f 1c43 b3be a1f9 483e
00000020: 90dd e0be 5d0b 87bc 3459 81be cd32 f43e
00000030: c33e b43e c2d1 63be ed36 eabd eb55 52bd
00000040: 1601 90be d038 4cbe 9a59 1bbe 10ca 983e
00000050: 943a 2c3e 781c 083f b2a0 2d3e fe60 9e3e
00000060: 3afe 74bd 879e 09bf 0192 8abe 78dd 0e3f
00000070: da6e b5be c9fc 0b3e 12fa ef3e aa73 1a3c
00000080: 6d0e a9be b84a 1fbe ed5a 003e cce8 eb3e
00000090: 967c fe3d 5d42 90be 66db 70be ad3a a23e
000000a0: 97f2 8f3d aa27 c4bd f05d a53e 99fd abbb
000000b0: 606f d1bc 3669 dd3e 10aa 32be 52a0 883d
000000c0: b8ea ccbe 368a 75bd 1e2d 833e 30e5 1e3e
000000d0: bcd2 a4be 77ef 42be 5d72 a83e 33fa 9ebe
000000e0: 5fea 8e3d 8a37 c3be 13fe 583c efbc a0bd
000000f0: aaff d5be faf5 cb39 054e 9e3e 5d06 e33e
-0.40036774 0.48578954 0.07468936 0.40686062 0.39020264 0.5389199 -0.35012138 0.19626476
-0.4391904 -0.01648491 -0.2526337 0.47695008 0.35204133 -0.22247985 -0.114362575 -0.05135147
-0.28125829 -0.19943547 -0.15170899 0.2984166 0.16819221 0.5316844 0.16955832 0.30933374
-0.05981276 -0.5375752 -0.27064517 0.55806684 -0.35436136 0.13670649 0.46870476 0.0094269905
-0.33018818 -0.15555847 0.12534685 0.46076047 0.12426107 -0.2817563 -0.23521194 0.3168539
0.07028692 -0.09577878 0.3229823 -0.005248737 -0.025565803 0.43244332 -0.17447686 0.06671204
-0.40022826 -0.05994626 0.2562036 0.15517116 -0.32192028 -0.19036661 0.32899752 -0.31050262
0.069782965 -0.3812831 0.01324417 -0.07848536 -0.4179662 0.00038902444 0.309189 0.44340792

fc2.weight f4 [32, 64]
00000000: f454 d33d cc43 d13d 98b7 abbd 0296 b9bc
00000010: a1be 9fbc 3361 8bbc 320a 4c3d a869 023e
00000020: 7847 b1bd d301 ddbd ac6b 7dbd 3a2b 40bd
00000030: da3a d73d 8653 fb3d c37a 91bd 29ab 6c3c
00000040: e119 2a3d 1e3c 813d 10bc abbd 4ec6 803d
00000050: 6a73 9abd dd11 62bd 15c9 b63d 02ad 263d
00000060: c1de 213d 9e73 973d 666b c2bd 4729 593d
00000070: 642c 75bd d124 fc3c 015a 8d3d ebc6 efbd
00000080: 6ee5 8bbd c58a cbbd d5b2 883d 8079 e1bb
00000090: 7212 c03d 4071 4abd 007c 4439 cb7f 9dbc
000000a0: f3fd 76bc ad67 853d 9e58 ba3d 6609 aa3d
000000b0: c0ad e3bb 1629 fd3d 4eb9 af3d 1538 cd3a
000000c0: 5249 ca3d c0f6 d63b b364 9e3d 8202 973d
000000d0: c6de f5bd f378 5fbd b719 c13d 6c0b 623d
000000e0: b392 c73d ba1f bb3c 940c 63bd 125f b93d
000000f0: 0ae1 89bd b8b9 9338 d800 2abd 09cc ecbd
00000100: a4a6 753d c8c0 c43c 3021 5abd 5006 a5bc
00000110: ecca 4ebd 3686 eabd 2843 fb3c 7a3b df3d
00000120: 4c92 98bd 6c84 e23d 5a3e 9ebd d841 3f3d
00000130: 76c4 fcbd b4e9 5dbd a8ac 92bd 3cb4 e73d
00000140: 18a5 173d 44e3 bd3d 6ca5 733d c4de c23d
00000150: 34d8 afbd 002e 883d 0a82 f03d 0092 c439
00000160: a8ab d8bc d0d9 183d be3a c93d bea6 8cbd
00000170: a0a2 d13b fcd3 2a3d 3847 efbd a0cc e6bc
00000180: d0df 8b3c 0078 22bd ecf4 033d ba9e 90bd
00000190: b85c e43d e42c 903d 1016 5dbd 4892 193d
000001a0: 6a6d 97bd 46ba e03d 802c 37bb fa70 afbd
000001b0: 7030 6d3d a8a8 d1bd 0091 62bd e4d7 d2bd
000001c0: f892 8e3c 58b9 ec3c d4d1 793d 288a c7bd
000001d0: 0cac 603d 46f6 d3bd 7493 dfbd 50ec df3c
000001e0: c0c0 ce3b 1255 aebd c02d febb 24ac fe3d
000001f0: f09e 933d d6b6 b6bd 183f 19bd 84a8 f9bd
00000200: dfb7 fa3d b961 c53d b2e3 c8bc b4f1 b2bd
00000210: bcee 84bd ef8d f53d f528 44bd 326e e33d
00000220: 940c edbd 1908 e13d 3a15 b93d 0096 b3bd
00000230: 95a2 843d 8392 dcbd 618d e53b 06be af3c
00000240: 4a96 a43c 3a43 da3c edcd c33d 4588 923c
00000250: f4a6 d0bd 266d 08bc c524 a7bd 47dd 7ebd
00000260: 3a27 9abd 4c24 7bbd 46ea bcbd 44cf e73d
00000270: 727b adbd 4129 afbd 0ab7 80bd 6618 8e3d
00000280: 1153 cfbc ef00 b2bd 5fda 97bd f40f a43d
00000290: 2355 96bd 60da 863b 2acf 983d 022b e8bd
000002a0: 4ea4 b33d 1b67 77bd 3c28 b23d 8bed 473d
000002b0: 88b9 fb3d 99fd 30bd d8cf 7c3d 2d90 80bd
000002c0: 36eb eb3d 1f91 a63d 0a1b f03d 34fd fb3d
000002d0: 4010 56bd c483 8bbd 77a2 50bd 7c08 efbc
000002e0: 4d41 f93c f4a3 df39 703a b83d 2a01 a4bd
000002f0: bef2 e0bd 6250 fcbb 6e64 cb3d 01d4 01be
00000300: eeae e03d 4759 b93d c482 f6bc c3a3 773d
00000310: a093 a23d c302 893c 3387 b13d 9760 3d3d
00000320: 1842 f9bd af04 cbbc 3834 06bd 78b9 b13d
00000330: 4f8c b9bc e321 fbbd 37b6 943b c383 983d
00000340: 4bf5 17bd f845 b2bd 8946 ec3d b7a6 55bd
00000350: 1067 dbbc 707b 7b3d cc5b ec3d bdb4 f53b
00000360: 5b95 ddbd 50df 5dbd 2e1d 86bd 653b a83d
00000370: 1ab7 b43d 8ca6 8fbd 2db7 f2bd 6ccd 703d
00000380: dbf5 e7bd 73b3 bcbc 886f 9dbc c479 923d
00000390: 3fb9 07bd 10a0 dd3d c87a d2bd b9a0 ff3d
000003a0: 2e43 033c 3fb1 7e3d b679 da3d 2176 163c
000003b0: 6acc d2bd c23c 9d3d 5470 503d 83e9 f83d
000003c0: 6c49 ad3d 0b74 9c3d c9cd 9abd 8c85 dbbd
000003d0: e21e e3bd a551 16bc 80a3 f9bc 33e1 71bd
000003e0: c3c4 abbd 2e57 003d 3c1f a6bd 0a99 063d
000003f0: 9e02 a2bd 3aac b43d ad7c 44bd e006 83bc
0.10318938 0.10218009 -0.08384627 -0.022654537 -0.019500079 -0.017014122 0.04981441 0.12735617
-0.0865621 -0.107913636 -0.061870262 -0.046916224 0.10509272 0.1227179 -0.07103493 0.014445105
0.041528586 0.063102946 -0.083854795 0.062878236 -0.07541545 -0.055192817 0.08925072 0.040692337
0.039519075 0.07395099 -0.09493141 0.05301788 -0.059856787 0.030779274 0.069019325 -0.117078625
-0.068308696 -0.099385776 0.066747345 -0.006880939 0.09378518 -0.04942441 0.0001873821 -0.019225975
-0.015075195 0.06513915 0.09098934 0.08302574 -0.006948203 0.12361352 0.08580266 0.0015656973
0.09877266 0.0065601766 0.077340506 0.07373525 -0.12005381 -0.054558706 0.09428733 0.055186674
0.097447775 0.022842277 -0.055431917 0.09051336 -0.06732376 7.044099e-05 -0.04150471 -0.11562354
0.059973374 0.024017707 -0.053254306 -0.020144612 -0.05048649 -0.1145138 0.030671671 0.10900016
-0.07449779 0.11060414 -0.07726736 0.046693653 -0.123421595 -0.054177955 -0.07161838 0.11313674
0.03702268 0.09271863 0.05948393 0.095151454 -0.08586159 0.06649399 0.11743553 0.00037492812
-0.02644904 0.037317097 0.09825657 -0.06867741 0.0063975602 0.04170607 -0.11683506 -0.028173745
0.017074496 -0.039665222 0.032215998 -0.07061525 0.11150497 0.07039812 -0.05397612 0.03749302
-0.07393916 0.10973029 -0.0027950108 -0.085664704 0.05790752 -0.10237247 -0.055314064 -0.10295084
0.017404065 0.028896973 0.060991123 -0.09743148 0.054851577 -0.10349707 -0.10916796 0.027334362
0.0063095987 -0.085123196 -0.0077569187 0.12435177 0.07208049 -0.08921592 -0.037413687 -0.12190345
0.12242102 0.0963778 -0.024522636 -0.087375075 -0.064908475 0.11989962 -0.047890622 0.111050025
-0.11574665 0.10987873 0.09037252 -0.087688446 0.064763226 -0.107701324 0.007005379 0.021452915
0.020091195 0.026643384 0.095607616 0.017887244 -0.10188094 -0.008326804 -0.0816131 -0.062222745
-0.07527013 -0.061313912 -0.092243716 0.1131883 -0.08470811 -0.085527904 -0.06284912 0.069382474
-0.025308164 -0.08691584 -0.07414698 0.08010855 -0.07340457 0.004115388 0.074613884 -0.11336328
0.08771573 -0.060401063 0.0869908 0.048810523 0.12291247 -0.0432106 0.061721653 -0.06277499
0.11519472 0.081331484 0.11723907 0.12304154 -0.05226159 -0.06812242 -0.05093619 -0.02917885
0.030426646 0.0004265603 0.08995521 -0.080080345 -0.109837994 -0.007700012 0.09931265 -0.1267853
0.10970865 0.090502314 -0.03009165 0.06045891 0.079383135 0.01672495 0.08668365 0.046234693
-0.121708095 -0.024782507 -0.032764643 0.086779535 -0.022649912 -0.12262323 0.0045383233 0.074470066
-0.037099164 -0.08704752 0.11536891 -0.052160945 -0.026782542 0.061397016 0.11540946 0.0074983523
-0.10819503 -0.054168046 -0.06548534 0.082144536 0.08823986 -0.07014188 -0.11851344 0.058789656
-0.1132619 -0.023034787 -0.019218221 0.07152131 -0.03313565 0.10821545 -0.10277325 0.12481827
0.008011622 0.062180754 0.10667746 0.009183438 -0.10292895 0.07677604 0.050888374 0.12153914
0.0846127 0.07639321 -0.07558782 -0.107188314 -0.11089875 -0.009174739 -0.03047347 -0.059052657
-0.08387139 0.03133314 -0.08111426 0.032860793 -0.079106554 0.08821912 -0.047970463 -0.01599449

fc2.bias f4 [32]
00000000: 0a83 943d c026 febc 30c0 8fbc e8f2 e3bd
00000010: a0a0 803d dcdd cdbd 8b52 b93d 29af c7bd
00000020: 451a cd3d 300a 573d b997 ad3d 2496 ee3d
00000030: 58a4 6e3d 6097 b8bc d6b6 4d3d 5491 573d
00000040: 924e 02be 3831 013d 4020 9dbd cfad 223d
00000050: aa65 38bd c083 be3b d864 aabd cad0 953d
00000060: cf31 f53d 77e1 ad3d 439a a23d 0880 29b9
00000070: 8ae7 77bd 50d9 323c 4c27 393d f8eb 14bd
0.07251556 -0.031024337 -0.017547697 -0.11130315 0.06280637 -0.10052082 0.09048947 -0.09750206
0.10014776 0.05249995 0.084762044 0.11649731 0.0582622 -0.022533119 0.050223194 0.05262883
-0.12725285 0.03154108 -0.07672167 0.039716538 -0.04501883 0.0058140457 -0.08320016 0.07315214
0.11972391 0.0849027 0.07939579 -0.00016164791 -0.060523547 0.010916069 0.045203492 -0.03635785

fc3.weight f4 [16, 32]
00000000: 239d 2c3e 7e5c ae3d a2d8 7fbb 5923 c4bd
00000010: ff8a 12be 86b4 883d 53b2 603d 0ad2 003e
00000020: 8b18 04bd 27dc 163e 47f8 7abd 9332 33be
00000030: b3a8 1fbe c484 ef3c a3cc 63bb 7bfb ad3d
00000040: d5bb 513d e862 f1bc 8a23 e2bd 0d88 93bd
00000050: cee6 f4b9 09ae 083e deb7 043e 56bb a13d
00000060: 0522 0cbd 46e5 3cbd 136d f0bd ee6c 293e
00000070: 8ad6 1a3e 5635 b93d 0263 2d3e b36f 1f3e
00000080: afc9 083e c6b0 68bd 9f2a 11be 1400 0bbe
00000090: 206c 24be a020 17bd f0d6 9abd 0847 9dbd
000000a0: 27e6 49bd 5945 27be dafa b03d 51bc 0ebe
000000b0: b83a ffbd 3a9e bf3c e631 e2bc 1755 17be
000000c0: da22 e73a cbaa b6bd a52d 243e 13dd 31be
000000d0: 6c0a e23d 743e 113d 8245 2f3e 703a 873c
000000e0: 343c debd f70b b33d 05fb 88bd bb39 1fbe
000000f0: e278 bc3d 7162 043e 2558 173e 465c e33d
00000100: d264 a8bd 16ce e83d 6c07 eebd ea9c dabd
00000110: 0087 7b3d 74b7 04be 08c0 15bd b757 323e
00000120: 68d6 22be fc09 2abe ebfd 0dbe 906d d53c
00000130: 597f 333e bce3 493d 7cb6 38bd 671d c1bd
00000140: f0b2 483d f310 2cbe ebc0 273e dac2 5bbd
00000150: e1e7 08be 102e 343d 864e 863d 78c9 a03c
00000160: dd6b c0bd a7cc 023e a0bf c4bc 92ce bf3d
00000170: 0409 cebd b064 02be 788a c33c fab4 82bd
00000180: 5454 e3bd 449a abbd 8b1e 213e e695 e73d
00000190: 863d ec3d 85c1 2a3e 2dc5 213e 1f0e ccbd
000001a0: 2600 c73d 02ce b23d 8648 85bd f046 0abc
000001b0: 7c27 3e3d c9c2 fcbd ca55 eabd ab02 1e3d
000001c0: b2e2 2ebe d8ab ab3c b896 3f3d 0dc9 233d
000001d0: 002c 0239 8091 56bb dd96 c33d 5e34 833d
000001e0: eb49 ccbd 9f54 c1bd 0399 af3d d305 8bbd
000001f0: 2443 523c 7188 e7bd 5f43 513d a6b2 dfbd
00000200: 2f60 5a3c e581 9ebd 8a20 01be f80e 033e
00000210: b3f0 d5bd 48a7 0a3d 3a3b 883c fd3c dcbd
00000220: 70e9 82bc b647 e83d 0124 51bd 32e3 bd3d
00000230: f08e 863d 3260 e63d 83db 913d ca4d 8bbd
00000240: fe76 84bd 70a1 bf3c 60aa f9bb f110 13be
00000250: 220a 9ebd 280d bfbc 33fd 113c 0270 cd3d
00000260: 5931 f93c 6490 d73d 85a1 9ebd 5334 2bbe
00000270: 3781 2a3e c932 093e 6a97 133d 1ca3 20be
00000280: b368 02be a655 db3d 1311 163e 6667 e93d
00000290: 1625 2abe 75fb 0e3e 00ee cebc c090 30bb
000002a0: a9c3 1f3e 42b3 a23d e42b bcbd 1c8b adbd
000002b0: c050 0dbb 397c 1ebe 5fab 143e 4e90 e03d
000002c0: 80a5 a53b c589 203e edb1 0a3e e627 10be
000002d0: 303a f33c 8048 03bd 8010 b2bd 46b9 f73d
000002e0: 15fd cbbd 27ce bcbd b00b c3bc 6680 2ebe
000002f0: a654 a1bd 62b8 a5bd 18d7 00be 0f32 123e
00000300: 112f 29bd 4ad6 17be a50d db3d bc89 02be
00000310: 94a0 293d e09c f13b 9d4a 113e e135 1dbe
00000320: c455 8fbd 3120 14be 3c32 a8bc 2efd 61bd
00000330: 8e39 a93d c67e 31be 1f3f 2abc 7c31 233e
00000340: 34ec c73c e688 a83d adb1 133e a47a ba3c
00000350: 5dc2 57bd aa9a a33d 3bda 953d 2a29 a83d
00000360: 75f4 1f3d 1f42 b6bd 47a2 453d 0daf e23c
00000370: f8ed b13d 4952 abbd 4d46 bf3d 0b95 183e
00000380: f6d7 093e fc88 46bd b403 8ebc d965 8f3d
00000390: 1c20 42bd 1864 633d de28 a43d 476e e0bd
000003a0: 127a afbc 16d7 f63d 505d 37bc d0ea f53c
000003b0: 801f 4cbb 3425 f2bd 5c8b 57bd 1a2a fa3d
000003c0: af5a 083e 5009 283c 2eb5 ebbd 3e13 2dbd
000003d0: b999 b63d 64e6 4abd 2a19 1fbe 52ce d53d
000003e0: e6f6 2fbd c80d c3bd 4674 07be 67cb 70bb
000003f0: 607c 21bd e81f 8d3d ab0c 4d3d c56f eb3d
0.16856818 0.08513735 -0.0039039035 -0.095770545 -0.14310835 0.06675057 0.054857563 0.12580124
-0.03224997 0.14732419 -0.061271932 -0.17499761 -0.15591697 0.029238112 -0.0034759424 0.08495232
0.05120452 -0.029466107 -0.11041935 -0.07203684 -0.0004671127 0.13347639 0.12960765 0.078970596
-0.03421213 -0.04611709 -0.11739554 0.1654546 0.15120903 0.09043376 0.169323 0.15569954
0.13358186 -0.05680921 -0.14176415 -0.13574249 -0.16056871 -0.036896348 -0.07560527 -0.07679564
-0.049291756 -0.16335048 0.08641596 -0.13939025 -0.124623716 0.023390878 -0.027611684 -0.14778553
0.0017634288 -0.08919295 0.16033037 -0.1736949 0.11037144 0.03545995 0.17116359 0.016507357
-0.108513266 0.087425165 -0.06688503 -0.15549366 0.09202744 0.12928177 0.14779718 0.11101584
-0.08222355 0.11367433 -0.11622509 -0.1067446 0.061408043 -0.12960607 -0.03656009 0.17416273
-0.15902102 -0.16605371 -0.13866393 0.02605322 0.17529048 0.04928945 -0.045095906 -0.09429436
0.048998773 -0.1680334 0.16382186 -0.05365262 -0.13369705 0.04398924 0.06557946 0.019627318
-0.09395573 0.12773381 -0.024017155 0.09365572 -0.10060313 -0.12733722 0.023869738 -0.06382175
-0.11100069 -0.08379033 0.15734307 0.11307888 0.11535172 0.16675384 0.15797873 -0.09963631
0.09716825 0.08730699 -0.065079734 -0.008439764 0.046424374 -0.1234184 -0.11442144 0.038576763
-0.17078665 0.020955965 0.046774596 0.03998666 0.00012414157 -0.0032740533 0.09550259 0.064064726
-0.09975036 -0.09439968 0.085741065 -0.0678822 0.01283339 -0.11305321 0.05108964 -0.10922746
0.013328596 -0.07739619 -0.12610069 0.12798679 -0.104463 0.033850938 0.016629804 -0.1075382
-0.015980452 0.11341803 -0.051059727 0.0927185 0.06570232 0.112488165 0.07121947 -0.068019465
-0.064680085 0.02339241 -0.0076191872 -0.14361931 -0.077167764 -0.023321703 0.008910465 0.100311294
0.030419039 0.10525587 -0.07745651 -0.16719179 0.16650854 0.13398279 0.03603307 -0.15687221
-0.12735252 0.107096955 0.14654951 0.11396675 -0.1661571 0.1396311 -0.025259972 -0.0026941746
0.15601982 0.07944347 -0.09188059 -0.08473799 -0.0021563023 -0.15477075 0.14518498 0.10965024
0.0050551295 0.15677555 0.13544436 -0.1407772 0.029690832 -0.032051563 -0.086945534 0.12095885
-0.09960381 -0.09219008 -0.023809284 -0.17041168 -0.078774735 -0.08091809 -0.12582052 0.14276908
-0.04130465 -0.14827839 0.10695962 -0.12747854 0.041412905 0.0073734373 0.14188619 -0.15352584
-0.0699878 -0.14465405 -0.020531766 -0.05517309 0.08262931 -0.17333516 -0.010391026 0.15936846
0.024404623 0.08229236 0.14423247 0.022763558 -0.052675594 0.07988484 0.07317015 0.082109764
0.03905149 -0.0889933 0.048250463 0.027671361 0.08687967 -0.08365304 0.09339581 0.14900605
0.13461289 -0.048470482 -0.01733575 0.07001848 -0.047393903 0.05551538 0.08015607 -0.10958534
-0.021420512 0.12052743 -0.011191681 0.030019194 -0.0031146705 -0.11823502 -0.052623138 0.122150615
0.13315843 0.0102561265 -0.11509167 -0.04225468 0.08916039 -0.049536124 -0.15536943 0.10439743
-0.04296007 -0.09524113 -0.13227949 -0.003674233 -0.039425254 0.06890851 0.05006091 0.11495928

fc3.bias f4 [16]
00000000: ce59 62bd 20b1 393d 2110 143e 6dd3 b63c
00000010: bf2a 093e 0061 a5bc 5c60 a43c 489b 1c3e
00000020: d9dd 99bd b7ee cebd 3cff 203e 99ee d63d
00000030: 8806 203e b861 12be 62f0 cb3d b4aa 2fbe
-0.055261426 0.045334935 0.14459278 0.022317613 0.13395213 -0.020187855 0.020065479 0.1529361
-0.07513017 -0.10104125 0.15722364 0.10494728 0.15627491 -0.14295089 0.09957959 -0.17154962

fc_value.weight f4 [1, 16]
00000000: 4ada 273e 6259 8e3c a0e3 463d 7eef c5bd
00000010: 5fb0 e33d 283d 123d 3cd4 af3d a056 073e
00000020: 88c6 dfbd 8611 a63d 4883 353e b57c 953d
00000030: b1f2 29be 49d2 2cbe fcad 24be df4e 093e
0.16391864 0.017376605 0.048556924 -0.0966482 0.111176245 0.035702854 0.08585402 0.13216639
-0.10926539 0.08108811 0.17725861 0.072991766 -0.16596486 -0.16877092 -0.16081995 0.13408993

exp_avg f4 [64, 3]
00000000: 781d 9f37 2d87 bc38 bab2 07b9 ef39 16b7
00000010: 24de 5537 b41b 8737 a2fc 3d39 7ba3 d739
00000020: e370 ccb9 3577 163a 0c84 4c3a 9d01 c2bb
00000030: 9984 b0b8 c4b0 9fb7 40db 08b9 0096 03b8
00000040: 1425 f8b8 e3f6 bc39 8c4c 4bb9 fc75 0dba
00000050: 7420 8d38 9d13 19ba 5ded b6ba b223 28ba
00000060: 0000 0000 0000 0000 0000 0000 f140 05b9
00000070: 1876 0cba 9a5c e4b6 0000 0000 0000 0000
00000080: 0000 0000 0cc0 35b7 ffc8 6b37 e1c7 9237
00000090: 574c 99b9 7344 14ba 1ce8 80b9 9f6d 39ba
000000a0: cbcd feba 1cb2 69ba 9d5e 873a da7a 233b
000000b0: 0be5 ae3a 76c4 b037 2225 54b8 4592 063a
000000c0: 7568 bbb9 d247 6fba 82a4 a6b9 d580 6eba
000000d0: baff 19bb 986e a5ba ea53 0a3a c11a b23a
000000e0: ff01 203c 1a09 cbb9 0d21 85ba 062f 01ba
000000f0: 0000 0000 0000 0000 0000 0000 1f9d 4f3a
00000100: ae65 f83a f7bf e339 a432 5b39 1411 7939
00000110: 1e55 e0ba 3a36 aa38 7a65 cb38 49e6 80b9
00000120: 8e12 5737 eb49 f938 dc76 2fba 0000 0000
00000130: 0000 0000 0000 0000 0000 0000 0000 0000
00000140: 0000 0000 895c 3a3a 7f12 f73a 0373 673a
00000150: 0000 0000 0000 0000 0000 0000 78f2 bcb9
00000160: 4743 60ba 2291 52ba 4aed a6b9 60e4 4dba
00000170: b4e2 f6b9 fd74 e837 0fe4 16b8 e562 3cb8
00000180: 17b7 56ba c99f 03bb ccd0 6bba 2e72 023a
00000190: b53c b13a d45e c7b8 e0a4 b2b9 6919 23ba
000001a0: b51d 3fba 0000 0000 0000 0000 0000 0000
000001b0: 4316 28b9 9ba5 1437 6177 103a 0000 0000
000001c0: 0000 0000 0000 0000 0000 0000 0000 0000
000001d0: 0000 0000 d465 1aba 6614 b6ba daea 61ba
000001e0: 810d 06b6 9269 c9b5 54f3 2f37 36cc 27ba
000001f0: 5dd7 d7ba 57b5 5dba 0000 0000 0000 0000
00000200: 0000 0000 1ee0 053a e0c9 b63a 585e 753a
00000210: 0000 0000 0000 0000 0000 0000 5db8 2336
00000220: 78f5 1f39 24a6 3e3a 0000 0000 0000 0000
00000230: 0000 0000 0a52 8b3a 00f6 453b bc62 223a
00000240: 0000 0000 0000 0000 0000 0000 e2f2 09b9
00000250: f726 d3b9 e81d 5f39 25e1 42ba 1dd7 08bb
00000260: 04f7 25ba 0000 0000 0000 0000 0000 0000
00000270: 0000 0000 0000 0000 0000 0000 6402 dbb8
00000280: a58e 1aba 80db 563b a850 4639 ec46 7f39
00000290: d0d9 2539 2f5f 98b9 bb8c 4cba ce8c 5139
000002a0: 4e74 d8b9 4c71 7cba 2070 36ba 0959 8939
000002b0: d781 2b3a 7404 893a 86f1 a936 d84e eeb6
000002c0: ad2b 35b7 5148 5bb9 f5a3 0aba dfa0 a939
000002d0: 0000 0000 0000 0000 0000 0000 e864 0838
000002e0: 63c8 8d39 1d3e 0bbb e3bd 35b9 e579 deb9
000002f0: dec5 9a39 eb91 7137 64ce 9cb7 86c5 c3b7
1.8968e-05 8.989717e-05 -0.00012941184 -8.954185e-06 1.27475105e-05 1.6106154e-05 0.00018118558 0.00041129798
-0.0003899402 0.0005739809 0.0007801659 -0.0059206025 -8.417032e-05 -1.903659e-05 -0.00013051648 -3.1372532e-05
-0.00011832468 0.000360421 -0.00019388105 -0.0005396304 6.729449e-05 -0.00058394094 -0.0013956238 -0.00064140104
0.0 0.0 0.0 -0.00012708061 -0.00053581735 -6.8057097e-06 0.0 0.0
0.0 -1.0833155e-05 1.405389e-05 1.7497632e-05 -0.00029239312 -0.00056559517 -0.00024586997 -0.0007073525
-0.0019439993 -0.0008914785 0.001032788 0.0024945051 0.0013343407 2.107232e-05 -5.057932e-05 0.000513349
-0.00035745246 -0.00091278285 -0.00031784555 -0.0009098177 -0.0023498372 -0.001262146 0.00052767864 0.0013588296
0.009766101 -0.00038725958 -0.0010156945 -0.00049279665 0.0 0.0 0.0 0.0007919836
0.0018951201 0.0004343984 0.00020904333 0.00023752853 -0.0017115211 8.116332e-05 9.698696e-05 -0.00024585638
1.2819319e-05 0.000118870135 -0.00066934316 0.0 0.0 0.0 0.0 0.0
0.0 0.0007109126 0.0018850117 0.0008829089 0.0 0.0 0.0 -0.00036038808
-0.0008554947 -0.0008032491 -0.0003183878 -0.000785416 -0.00047089683 2.7711032e-05 -3.5975183e-05 -4.4914796e-05
-0.00081907347 -0.0020084253 -0.0008995652 0.00049761205 0.001352212 -9.5067226e-05 -0.00034073647 -0.0006221743
-0.00072904985 0.0 0.0 0.0 -0.00016030022 8.860045e-06 0.0005510953 0.0
0.0 0.0 0.0 0.0 0.0 -0.00058898074 -0.0013891577 -0.00086180645
-1.9975416e-06 -1.5006392e-06 1.0487467e-05 -0.0006400974 -0.0016467382 -0.00084575027 0.0 0.0
0.0 0.00051069434 0.0013945661 0.00093600666 0.0 0.0 0.0 2.4396206e-06
0.00015254866 0.00072726817 0.0 0.0 0.0 0.0010629308 0.0030206442 0.0006194522
0.0 0.0 0.0 -0.00013155819 -0.00040274087 0.00021278078 -0.0007434062 -0.002088017
-0.00063310587 0.0 0.0 0.0 0.0 0.0 0.0 -0.00010443179
-0.00058958895 0.003278464 0.00018912798 0.00024345116 0.00015816768 -0.00029062617 -0.0007802953 0.00019984247
-0.00041285384 -0.00096299197 -0.0006959457 0.00026197013 0.000654248 0.0010453598 5.0647095e-06 -7.1021313e-06
-1.079861e-05 -0.00020912407 -0.0005288714 0.0003235405 0.0 0.0 0.0 3.2518903e-05
0.00027042915 -0.002124674 -0.00017332243 -0.00042433958 0.00029520591 1.4398694e-05 -1.8692757e-05 -2.333779e-05

exp_avg_sq f4 [64, 3]
00000000: d00e 882f 47b1 fa30 20f9 3331 c75d df2d
00000010: 07ce 492e d131 bc2e f011 b530 b4c4 a531
00000020: 06ca 0832 08bd 5832 f2da 9532 0a66 8335
00000030: af7c bf30 1a5b f42e 65b3 ed31 d0fc 652e
00000040: 7c3f dc2f 0682 9f31 e139 e130 69e4 2f32
00000050: 6818 ad30 6ccd 3132 b468 6133 9521 4732
00000060: 0000 0000 0000 0000 0000 0000 e60e 4630
00000070: da58 0732 9563 1e32 0000 0000 0000 0000
00000080: 0000 0000 264a 132e 4de3 772e ca20 c02e
00000090: c807 7631 d2f0 1232 2349 4532 eb62 8032
000000a0: ef69 da33 c05e 2033 892c 0533 6809 3334
000000b0: 32b1 7433 5052 792f 4c65 6f2f 3b7e 5732
000000c0: e565 7831 afad bf32 37a2 f231 47ec c932
000000d0: e0ef 1d34 1b77 9f33 eadf 1232 4f68 5233
000000e0: 2a7b 2b36 a44e 9331 18ce ee32 5332 8332
000000f0: 0000 0000 0000 0000 0000 0000 0bc2 a032
00000100: bcca cf33 166f 9632 8a2e e330 7e37 df30
00000110: 5c24 bd33 9e03 ba2f e74d a12f 7d12 1631
00000120: 773a 3b2e 6231 0c30 08ed 7832 0000 0000
00000130: 0000 0000 0000 0000 0000 0000 0000 0000
00000140: 0000 0000 e10b 8032 a2b2 d433 7e48 6733
00000150: 0000 0000 0000 0000 0000 0000 80ab 8731
00000160: c969 a932 d746 d332 7776 5d31 f6fb 8e32
00000170: 8975 ad32 79f0 702f d909 cb2f e43d 1e30
00000180: 5db5 ac32 3da9 e733 2f90 5633 5efc fa31
00000190: f214 5433 f284 8532 00ac 9531 6a5d 3932
000001a0: f302 d732 0000 0000 0000 0000 0000 0000
000001b0: 8c70 0c31 a131 3f30 8e15 9d32 0000 0000
000001c0: 0000 0000 0000 0000 0000 0000 0000 0000
000001d0: 0000 0000 abe0 5632 44c7 6133 66f3 d432
000001e0: 3c72 8d2c dec2 0d2b 1f45 4b2e faf6 5332
000001f0: 9826 9b33 b795 ae32 0000 0000 0000 0000
00000200: 0000 0000 8b2e fc31 caa1 5e33 9184 1333
00000210: 0000 0000 0000 0000 0000 0000 0640 9a30
00000220: 508b 8930 e93b c332 0000 0000 0000 0000
00000230: 0000 0000 17f3 0a33 4ffc 8334 43d4 b333
00000240: 0000 0000 0000 0000 0000 0000 7b8b 7630
00000250: 8094 9831 1189 b731 f455 8432 c50b fb33
00000260: 62a0 3033 0000 0000 0000 0000 0000 0000
00000270: 0000 0000 0000 0000 0000 0000 9827 a530
00000280: 0fc0 2432 cff0 9e34 6eb1 f230 3440 1d31
00000290: c8ce c631 030e 8431 4eac be32 a7d2 9432
000002a0: 2e95 b231 a816 d832 79da df32 e376 1631
000002b0: 359a 5632 c903 1233 63c6 002d 9338 7d2d
000002c0: 0c5a 122e 7899 0931 59d3 4332 210a a431
000002d0: 0000 0000 0000 0000 0000 0000 cbb8 ba2f
000002e0: a7f4 1131 79fc 0c34 c7b0 b430 eff6 f931
000002f0: 5586 3f32 b019 822e 1945 db2e 5be4 2a2f
2.474878e-10 1.8240279e-09 2.618954e-09 2.539381e-11 4.5885098e-11 8.5580994e-11 1.3174581e-09 4.8244946e-09
7.962177e-09 1.26158355e-08 1.7445448e-08 9.789958e-07 1.3932516e-09 1.1112018e-10 6.9180026e-09 5.2293114e-11
4.0062875e-10 4.642291e-09 1.6387355e-09 1.0238275e-08 1.2594343e-09 1.03494635e-08 5.248212e-08 1.159096e-08
0.0 0.0 0.0 7.205315e-10 7.878237e-09 9.219453e-09 0.0 0.0
0.0 3.3489787e-11 5.636318e-11 8.7369736e-11 3.5802135e-09 8.553075e-09 1.1483539e-08 1.4946144e-08
1.0170685e-07 3.7339078e-08 3.100698e-08 1.6674096e-07 5.6971835e-08 2.2675661e-10 2.1772911e-10 1.2543349e-08
3.614667e-09 2.2314309e-08 7.0615687e-09 2.3506926e-08 1.470903e-07 7.4256796e-08 8.549231e-09 4.8989303e-08
2.5552677e-06 4.2872035e-09 2.7800567e-08 1.5273292e-08 0.0 0.0 0.0 1.8714692e-08
9.676066e-08 1.7512814e-08 1.6529651e-09 1.6241157e-09 8.807612e-08 3.3835773e-10 2.9341082e-10 2.1838382e-09
4.2570805e-11 5.100188e-10 1.4489395e-08 0.0 0.0 0.0 0.0 0.0
0.0 1.4906563e-08 9.9045124e-08 5.384981e-08 0.0 0.0 0.0 3.9485144e-09
1.9722295e-08 2.4595847e-08 3.2227072e-09 1.6645554e-08 2.01933e-08 2.1913306e-10 3.6932482e-10 5.7568017e-10
2.010591e-08 1.078756e-07 4.9956892e-08 7.3046484e-09 4.9379146e-08 1.5543694e-08 4.356025e-09 1.0789657e-08
2.5030635e-08 0.0 0.0 0.0 2.0436657e-09 6.955592e-10 1.8287007e-08 0.0
0.0 0.0 0.0 0.0 0.0 1.2507523e-08 5.2568126e-08 2.4790733e-08
4.0201436e-12 5.0363695e-13 4.6218248e-11 1.2337972e-08 7.22477e-08 2.0324348e-08 0.0 0.0
0.0 7.3394566e-09 5.183555e-08 3.4346673e-08 0.0 0.0 0.0 1.1223171e-09
1.0007657e-09 2.2728232e-08 0.0 0.0 0.0 3.2351718e-08 2.458423e-07 8.373947e-08
0.0 0.0 0.0 8.969249e-10 4.4406647e-09 5.3415836e-09 1.540591e-08 1.1690239e-07
4.112406e-08 0.0 0.0 0.0 0.0 0.0 0.0 1.2016583e-09
9.5897255e-09 2.9605005e-07 1.7658246e-09 2.2883002e-09 5.7860667e-09 3.8432986e-09 2.2197266e-08 1.7325261e-08
5.1974416e-09 2.5156012e-08 2.6059967e-08 2.1895452e-09 1.2491502e-08 3.3996717e-08 7.320008e-12 1.4393947e-11
3.3276534e-11 2.002336e-09 1.1398549e-08 4.7741797e-09 0.0 0.0 0.0 3.3964506e-10
2.1239346e-09 1.3130365e-07 1.3146967e-09 7.274927e-09 1.1148207e-08 5.9162786e-11 9.971241e-11 1.5542538e-10

exp_avg f4 [64]
00000000: 88b9 b737 4af5 80b7 35de 0839 c0b1 973a
00000010: 59b5 34b8 87b7 86b8 7281 8cb8 4dc4 e6b8
00000020: 0000 0000 15f2 8db7 0000 0000 8fd9 94b7
00000030: f9a2 9eb8 0fc2 b7b8 45a9 3339 aaed 8bb8
00000040: c5c5 85b8 4ec4 bab8 a274 afba 09ee 4bb8
00000050: 0000 0000 2447 6339 f316 b539 027c a438
00000060: e32f de38 0000 0000 0000 0000 5abf ad38
00000070: 0000 0000 0258 5eb7 7a63 25b8 2a77 3e38
00000080: 0427 03b9 5a0a 3f39 9bc6 0ab8 0000 0000
00000090: 0720 4cb9 0000 0000 0000 0000 c1af d8b8
000000a0: bdfc 21b6 4d05 98b8 0000 0000 87c4 2a36
000000b0: 0000 0000 38aa 1fb9 0000 0000 3db1 6039
000000c0: 0000 0000 64ce b0b8 7c95 08b9 0000 0000
000000d0: 0000 0000 a972 11ba 00fe 9538 77b6 08b9
000000e0: b1c8 ffb7 bdda afb8 13ce 1237 f573 feb8
000000f0: 0000 0000 403f b439 fb0c b8b8 acee c537
2.1901695e-05 -1.537301e-05 0.0001305275 0.0011573359 -4.3084237e-05 -6.4238026e-05 -6.699831e-05 -0.000110038185
0.0 -1.6921238e-05 0.0 -1.7744283e-05 -7.564383e-05 -8.762266e-05 0.00017133828 -6.672305e-05
-6.378772e-05 -8.905736e-05 -0.00133862 -4.862066e-05 0.0 0.00021674909 0.0003454011 7.843228e-05
0.000105947045 0.0 0.0 8.284925e-05 0.0 -1.3252722e-05 -3.943171e-05 4.541051e-05
-0.00012507668 0.00018219036 -3.308673e-05 0.0 -0.00019466887 0.0 0.0 -0.00010332419
-2.4137983e-06 -7.248912e-05 0.0 2.5446368e-06 0.0 -0.00015226833 0.0 0.00021428331
0.0 -8.430777e-05 -0.00013025658 0.0 0.0 -0.0005548397 7.152185e-05 -0.00013037944
-3.0491823e-05 -8.3853934e-05 8.7502585e-06 -0.000121332625 0.0 0.000343794 -8.7762215e-05 2.359537e-05

exp_avg_sq f4 [64]
00000000: 84ca 082f ef94 9d2e 0526 6630 1e78 2833
00000010: 7f49 d430 ec1c 1d2f db99 b92f c182 6030
00000020: 0000 0000 c0ff 3430 0000 0000 3495 c52e
00000030: f367 b530 0017 a130 25f2 c730 7537 ea2f
00000040: 30a3 9d2f d636 e830 b8e9 4e33 a38c ae2f
00000050: 0000 0000 8d87 0931 34f9 8231 4feb 982f
00000060: 6a25 cf2f 0000 0000 0000 0000 46ee a930
00000070: 0000 0000 8951 972f ab6f 2130 0bc1 2130
00000080: dfdb 2231 93ce d230 ca22 8430 0000 0000
00000090: 7392 4e31 0000 0000 0000 0000 d9a4 4b31
000000a0: 5776 a12c a91b 2330 0000 0000 e109 2c30
000000b0: 0000 0000 4e9c 3331 0000 0000 da51 ac31
000000c0: 0000 0000 ed97 3630 1c81 d030 0000 0000
000000d0: 0000 0000 da6d 0e32 4182 8f30 9ad7 8230
000000e0: 79f5 2b30 f821 1830 0231 c02d e368 1f30
000000f0: 0000 0000 b0a5 6a31 afa1 8630 67af 2e2f
1.2441076e-10 7.165989e-11 8.372754e-10 3.9224794e-08 1.5445919e-09 1.4289342e-10 3.3760625e-10 8.167654e-10
0.0 6.584706e-10 0.0 8.9850266e-11 1.3199027e-09 1.1720829e-09 1.4547977e-09 4.2603757e-10
2.8674085e-10 1.6895807e-09 4.817568e-08 3.1750344e-10 0.0 2.0013176e-09 3.811829e-09 2.7815836e-10
3.7679665e-10 0.0 0.0 1.236409e-09 0.0 2.7524674e-10 5.873015e-10 5.884579e-10
2.3699085e-09 1.5338223e-09 9.614152e-10 0.0 3.0060192e-09 0.0 0.0 2.9634093e-09
4.5890336e-12 5.933836e-10 0.0 6.2587274e-10 0.0 2.6136777e-09 0.0 5.0151643e-09
0.0 6.6427114e-10 1.5170687e-09 0.0 0.0 8.290465e-09 1.044164e-09 9.520023e-10
6.2558275e-10 5.534555e-10 2.1849637e-11 5.7992916e-10 0.0 3.4145664e-09 9.795736e-10 1.5887523e-10

exp_avg f4 [32, 64]
00000000: 0096 88b9 c437 11b9 fc27 573a 409b b3b9
00000010: 60ee a1b9 80fd 38ba 2da2 c53a 7308 e1ba
00000020: 0000 0000 10c7 17ba 0000 0000 e33c 78b8
00000030: 6716 343a 5efe 1cbb b597 a93a fc0c c0ba
00000040: 5bd3 8dba 0369 36b9 4208 af3a 027b d639
00000050: 0000 0000 e475 1e3a 69ee 67b8 470b 79b9
00000060: 02c6 65b9 0000 0000 0000 0000 af6a 5eba
00000070: 0000 0000 206a 5dba 66e3 6eba 84e1 19b7
00000080: 9cf5 1dba c9be b13a 0743 f53a 0000 0000
00000090: 1ef0 05b9 0000 0000 0000 0000 849a 263a
000000a0: ee8a 5bb7 6472 84ba 0000 0000 bd97 aa39
000000b0: 0000 0000 9737 10ba 0000 0000 3bc1 b13a
000000c0: 0000 0000 c808 e8b9 bef9 cbba 0000 0000
000000d0: 0000 0000 abef 9bba 5ccf 7f39 8191 d93a
000000e0: 0a59 e13a 9845 c739 5441 44b8 edf1 283b
000000f0: 0000 0000 032c 1aba e9b1 e43a 8643 6fb7
00000100: 0000 0000 0000 0000 0000 0000 0000 0000
00000110: 0000 0000 0000 0000 0000 0000 0000 0000
00000120: 0000 0000 0000 0000 0000 0000 0000 0000
00000130: 0000 0000 0000 0000 0000 0000 0000 0000
00000140: 0000 0000 0000 0000 0000 0000 0000 0000
00000150: 0000 0000 0000 0000 0000 0000 0000 0000
00000160: 0000 0000 0000 0000 0000 0000 0000 0000
00000170: 0000 0000 0000 0000 0000 0000 0000 0000
00000180: 0000 0000 0000 0000 0000 0000 0000 0000
00000190: 0000 0000 0000 0000 0000 0000 0000 0000
000001a0: 0000 0000 0000 0000 0000 0000 0000 0000
000001b0: 0000 0000 0000 0000 0000 0000 0000 0000
000001c0: 0000 0000 0000 0000 0000 0000 0000 0000
000001d0: 0000 0000 0000 0000 0000 0000 0000 0000
000001e0: 0000 0000 0000 0000 0000 0000 0000 0000
000001f0: 0000 0000 0000 0000 0000 0000 0000 0000
00000200: 16ea 0db9 e84e b538 a535 0db9 2106 bcb8
00000210: 551b 8eba 878a a5ba 5517 15ba e090 7fba
00000220: 0000 0000 140f 72ba 0000 0000 7972 1b38
00000230: cb50 49ba 18ea 52ba 5876 e2b8 0ee5 72ba
00000240: 8a8b e4b9 157d fcb9 c190 6039 e877 0aba
00000250: 0000 0000 d77d 3cba f5c3 94b7 5234 0238
00000260: 0ea0 52b8 0000 0000 0000 0000 033a 7aba
00000270: 0000 0000 12a7 a0ba acea aaba 4fab c036
00000280: 2cb5 29ba 4184 70b7 fb4b e5b8 0000 0000
00000290: 122e 8a37 0000 0000 0000 0000 419a 33ba
000002a0: 9d0c a234 6147 33ba 0000 0000 e473 f9b9
000002b0: 0000 0000 e141 59ba 0000 0000 33b8 27b9
000002c0: 0000 0000 2628 dfb9 c2fe 8eba 0000 0000
000002d0: 0000 0000 7c2f ceb9 95f3 e1b9 d9b7 78b8
000002e0: 8d12 f137 4254 2e38 f3d9 f737 699f e0b8
000002f0: 0000 0000 dea6 31b9 7f18 5fb9 80c9 1537
00000300: 1f8f 493a 5108 1c33 e481 47bb 220b 633a
00000310: e18d fd38 180b 8b3a f922 99bb 75ee 953b
00000320: 0000 0000 7bca 823a 0000 0000 0000 0000
00000330: 80cb 53bb a30a e33b c969 8fbb 2872 863b
00000340: 2e89 4c3b 524c dd39 71cd 83bb cdb7 04bb
00000350: 0000 0000 8bee 2ebb 1107 1139 ccc7 c039
00000360: be9b 2a3a 0000 0000 0000 0000 cb6e fb3a
00000370: 0000 0000 615f 093b a4fb fa3a 0000 0000
00000380: 1dee d73a e04b 88bb 97d2 c7bb 0000 0000
00000390: 811e 5039 0000 0000 0000 0000 5a9f 27bb
000003a0: d02d 9d37 6cc1 393b 0000 0000 7710 a4ba
000003b0: 0000 0000 c979 4c3a 0000 0000 4d5d 89bb
000003c0: 0000 0000 5404 623a 6256 813b 0000 0000
000003d0: 0000 0000 f223 603b e445 d3ba d6f0 a3bb
000003e0: 3937 b4bb de6b a5ba e1b9 f6b4 eb0a 04bc
000003f0: 0000 0000 ae62 e03a dcb8 bcbb 0000 0000
-0.000260517 -0.00013849052 0.0008207557 -0.0003425721 -0.00030885916 -0.00070568174 0.0015078239 -0.0017168656
0.0 -0.00057898555 0.0 -5.9184513e-05 0.0006869793 -0.0023955326 0.0012938889 -0.0014652307
-0.0010820435 -0.00017395992 0.0013353901 0.0004090891 0.0 0.0006044789 -5.529673e-05 -0.00023750692
-0.00021912906 0.0 0.0 -0.0008484525 0.0 -0.0008446295 -0.00091128645 -9.172018e-06
-0.00060256734 0.0013560887 0.0018711992 0.0 -0.00012773319 0.0 0.0 0.0006355422
-1.3085764e-05 -0.0010104892 0.0 0.0003253798 0.0 -0.00055014476 0.0 0.0013561615
0.0 -0.0004425703 -0.00155621 0.0 0.0 -0.0011896988 0.00024395942 0.001659915
0.0017192673 0.0003800809 -4.6790883e-05 0.0025778965 0.0 -0.0005881192 0.0017448041 -1.4261232e-05
0.0 0.0 0.0 0.0 0.0 0.0 0.0 0.0
0.0 0.0 0.0 0.0 0.0 0.0 0.0 0.0
0.0 0.0 0.0 0.0 0.0 0.0 0.0 0.0
0.0 0.0 0.0 0.0 0.0 0.0 0.0 0.0
0.0 0.0 0.0 0.0 0.0 0.0 0.0 0.0
0.0 0.0 0.0 0.0 0.0 0.0 0.0 0.0
0.0 0.0 0.0 0.0 0.0 0.0 0.0 0.0
0.0 0.0 0.0 0.0 0.0 0.0 0.0 0.0
-0.00013534012 8.64545e-05 -0.00013466792 -8.96568e-05 -0.0010841886 -0.0012629785 -0.00056873757 -0.0009749066
0.0 -0.0009233814 0.0 3.706149e-05 -0.00076795806 -0.0008045747 -0.00010798563 -0.0009265699
-0.00043591514 -0.0004815838 0.0002141623 -0.00052821497 0.0 -0.00071903825 -1.7734224e-05 3.1043142e-05
-5.0216964e-05 0.0 0.0 -0.00095453876 0.0 -0.0012256822 -0.0013039908 5.741989e-06
-0.0006473835 -1.43359075e-05 -0.000109337234 0.0 1.6472335e-05 0.0 0.0 -0.0006851294
3.018403e-07 -0.00068389444 0.0 -0.00047579326 0.0 -0.000828771 0.0 -0.0001599498
0.0 -0.00042563787 -0.0010909664 0.0 0.0 -0.0003932676 -0.00043096827 -5.929903e-05
2.8738077e-05 4.1563304e-05 2.9546185e-05 -0.00010710845 0.0 -0.00016942198 -0.00021276063 8.928007e-06
0.0007688868 3.6329144e-08 -0.003044241 0.0008661022 0.00012090407 0.0010608165 -0.0046733585 0.0045755454
0.0 0.0009978557 0.0 0.0 -0.003231734 0.006928758 -0.0043766242 0.004102964
0.0031209695 0.00042209268 -0.0040222933 -0.0020251155 0.0 -0.0026692476 0.0001383091 0.00036769954
0.0006508193 0.0 0.0 0.0019182799 0.0 0.0020961391 0.0019148481 0.0
0.0016474162 -0.0041594356 -0.0060981023 0.0 0.0001984779 0.0 0.0 -0.0025577159
1.8737192e-05 0.0028344048 0.0 -0.0012517114 0.0 0.000780013 0.0 -0.0041920305
0.0 0.0008621861 0.003947065 0.0 0.0 0.0034201113 -0.0016118851 -0.005003075
-0.005499747 -0.0012620648 -4.5956315e-07 -0.008059244 0.0 0.0017119253 -0.0057593416 0.0

exp_avg_sq f4 [32, 64]
00000000: 06fa 0831 c2bf b331 4fd9 c632 cc3f b431
00000010: 089d 0f32 287a c532 e7bf 9733 0bac b133
00000020: 0000 0000 139a 8632 0000 0000 b161 8930
00000030: 1e80 eb32 3f92 2534 4f98 4c33 a801 8033
00000040: 637e 0733 bae3 c431 fcef 4c33 5a2c 3e32
00000050: 0000 0000 40f4 7c32 d648 412f 3fd0 0532
00000060: a177 be30 0000 0000 0000 0000 0245 be32
00000070: 0000 0000 428f e432 795a f632 432a d32d
00000080: 0cdd 6632 56cf 5533 59da cb33 0000 0000
00000090: 940c 4031 0000 0000 0000 0000 89eb 7332
000000a0: 811a 5c2f adb3 f732 0000 0000 89ce 9931
000000b0: 0000 0000 cd7b 8932 0000 0000 ab10 5c33
000000c0: 0000 0000 c3df 1d32 224d 9733 0000 0000
000000d0: 0000 0000 153a 2b33 ef33 5a32 3bd1 a333
000000e0: c6d9 aa33 3027 a831 c3bc 2b30 aa2e 4134
000000f0: 0000 0000 ec12 2b32 9ab8 b133 9a41 7f2e
00000100: 0000 0000 0000 0000 0000 0000 0000 0000
00000110: 0000 0000 0000 0000 0000 0000 0000 0000
00000120: 0000 0000 0000 0000 0000 0000 0000 0000
00000130: 0000 0000 0000 0000 0000 0000 0000 0000
00000140: 0000 0000 0000 0000 0000 0000 0000 0000
00000150: 0000 0000 0000 0000 0000 0000 0000 0000
00000160: 0000 0000 0000 0000 0000 0000 0000 0000
00000170: 0000 0000 0000 0000 0000 0000 0000 0000
00000180: 0000 0000 0000 0000 0000 0000 0000 0000
00000190: 0000 0000 0000 0000 0000 0000 0000 0000
000001a0: 0000 0000 0000 0000 0000 0000 0000 0000
000001b0: 0000 0000 0000 0000 0000 0000 0000 0000
000001c0: 0000 0000 0000 0000 0000 0000 0000 0000
000001d0: 0000 0000 0000 0000 0000 0000 0000 0000
000001e0: 0000 0000 0000 0000 0000 0000 0000 0000
000001f0: 0000 0000 0000 0000 0000 0000 0000 0000
00000200: d6e2 2a30 0aff 1331 314b 1a32 d1f3 db2f
00000210: e14b 7133 9a0b a433 4e8a c532 eac9 0f33
00000220: 0000 0000 c01e 2e33 0000 0000 4a7c d72f
00000230: 8e42 6733 b088 a232 cc5d 2832 f716 ec32
00000240: b452 be31 fa1d 0d32 01fb 2131 e31f d332
00000250: 0000 0000 da4f 2433 dd9a 832d 29a1 9f30
00000260: 4f37 ca2e 0000 0000 0000 0000 dbdc 1e33
00000270: 0000 0000 f53e 6e33 d3e0 9733 ca84 252d
00000280: 6b4f 6f32 01c7 6031 3a74 5b32 0000 0000
00000290: 4fec a42f 0000 0000 0000 0000 8af4 0533
000002a0: a1f7 3b2c d4a1 7d32 0000 0000 bf3e 5232
000002b0: 0000 0000 bba7 1d33 0000 0000 7cea c531
000002c0: 0000 0000 ba4a 2832 82e9 4233 0000 0000
000002d0: 0000 0000 4a4a a131 f3fd b532 2241 a531
000002e0: 5690 ea31 de54 4030 44f4 882f 5890 8632
000002f0: 0000 0000 fe6f 7030 848c 8232 3714 c82d
00000300: 5270 9432 014a f62c e861 c234 13a5 e332
00000310: 516a 2235 2220 6735 e528 5f35 0241 6735
00000320: 0000 0000 5ca9 0235 0000 0000 0000 0000
00000330: 1b72 8135 b6d1 b935 2d01 2735 644c 3035
00000340: c4b5 9c34 1143 a433 e3c0 e834 345f e234
00000350: 0000 0000 98a3 2c35 52ca 4930 f5b5 7732
00000360: 1afa 5132 0000 0000 0000 0000 97df f434
00000370: 0000 0000 f879 2635 fa81 5935 0000 0000
00000380: 08a3 4434 df4e 0335 309e 9735 0000 0000
00000390: 7abd b431 0000 0000 0000 0000 c91d 1135
000003a0: ce1f b02f f73a ad34 0000 0000 cc3c 3a34
000003b0: 0000 0000 45ab ea34 0000 0000 c91e 0e35
000003c0: 0000 0000 1083 1834 149f 6635 0000 0000
000003d0: 0000 0000 5ad3 b734 c766 bc34 d933 3f35
000003e0: b5bd 6835 6ad1 5333 9eb6 8729 8a2a fd35
000003f0: 0000 0000 2a91 b933 cedf 8d35 0000 0000
1.9932727e-09 5.231386e-09 2.3149054e-08 5.2459423e-09 8.3594e-09 2.2989369e-08 7.066392e-08 8.273499e-08
0.0 1.5669718e-08 0.0 9.995827e-10 2.7415862e-08 1.5420027e-07 4.7635975e-08 5.960766e-08
3.1547085e-08 5.7302403e-09 4.7715716e-08 1.106954e-08 0.0 1.4723867e-08 1.7579124e-10 7.788969e-09
1.385832e-09 0.0 0.0 2.2150292e-08 0.0 2.660784e-08 2.8679311e-08 2.400669e-11
1.3438022e-08 4.9781498e-08 9.492641e-08 0.0 2.7946827e-09 0.0 0.0 1.4198016e-08
2.00183e-10 2.8836292e-08 0.0 4.4763664e-09 0.0 1.6005197e-08 0.0 5.12379e-08
0.0 9.18948e-09 7.045516e-08 0.0 0.0 3.9866865e-08 1.2701078e-08 7.628338e-08
7.9558546e-08 4.8938986e-09 6.2477684e-10 1.7991502e-07 0.0 9.957812e-09 8.2757836e-08 5.8038553e-11
0.0 0.0 0.0 0.0 0.0 0.0 0.0 0.0
0.0 0.0 0.0 0.0 0.0 0.0 0.0 0.0
0.0 0.0 0.0 0.0 0.0 0.0 0.0 0.0
0.0 0.0 0.0 0.0 0.0 0.0 0.0 0.0
0.0 0.0 0.0 0.0 0.0 0.0 0.0 0.0
0.0 0.0 0.0 0.0 0.0 0.0 0.0 0.0
0.0 0.0 0.0 0.0 0.0 0.0 0.0 0.0
0.0 0.0 0.0 0.0 0.0 0.0 0.0 0.0
6.2167993e-10 2.1536288e-09 8.981076e-09 4.000911e-10 5.6181197e-08 7.6389554e-08 2.2996712e-08 3.3478422e-08
0.0 4.05405e-08 0.0 3.9196585e-10 5.384441e-08 1.892144e-08 9.800214e-09 2.748446e-08
5.53913e-09 8.214096e-09 2.3571263e-09 2.4578133e-08 0.0 3.825685e-08 1.4961749e-11 1.1614577e-09
9.195721e-11 0.0 0.0 3.698811e-08 0.0 5.5470952e-08 7.072381e-08 9.408649e-12
1.39296885e-08 3.270941e-09 1.2773905e-08 0.0 2.9999334e-10 0.0 0.0 3.1188883e-08
2.671176e-12 1.4763334e-08 0.0 1.2237876e-08 0.0 3.670696e-08 0.0 5.7601124e-09
0.0 9.795878e-09 4.538152e-08 0.0 0.0 4.6941624e-09 2.1186656e-08 4.8095368e-09
6.8267054e-09 6.9969797e-10 2.4911817e-10 1.5665293e-08 0.0 8.747064e-10 1.5197891e-08 2.2746345e-11
1.7280545e-08 6.9999566e-12 3.6206552e-07 2.6501345e-08 6.0504414e-07 8.6100965e-07 8.3133483e-07 8.6148805e-07
0.0 4.8675224e-07 0.0 0.0 9.644458e-07 1.3844608e-06 6.221406e-07 6.567627e-07
2.9189516e-07 7.6490444e-08 4.335371e-07 4.216505e-07 0.0 6.4313053e-07 7.341089e-10 1.44186645e-08
1.2222268e-08 0.0 0.0 4.5611225e-07 0.0 6.2017307e-07 8.102794e-07 0.0
1.8313233e-07 4.8916075e-07 1.1296415e-06 0.0 5.2602305e-09 0.0 0.0 5.406005e-07
3.2036812e-10 3.2266664e-07 0.0 1.7344718e-07 0.0 4.3710511e-07 0.0 5.294392e-07
0.0 1.4203783e-07 8.5913166e-07 0.0 0.0 3.4240185e-07 3.509251e-07 7.1228493e-07
8.6702795e-07 4.9317727e-08 6.0268834e-14 1.8862349e-06 0.0 8.641139e-08 1.0570454e-06 0.0

exp_avg f4 [32]
00000000: 60ce edb9 0000 0000 a643 7bb9 7e45 263a
00000010: 0000 0000 0000 0000 0a86 cbb9 9ae2 12b9
00000020: 2dab 5639 0000 0000 9166 6b39 0000 0000
00000030: 0000 0000 7eb6 3bb8 1149 b6b9 fd78 0939
00000040: a43b 9137 0000 0000 0000 0000 0c1c cd39
00000050: a031 2138 0000 0000 c813 a7b9 0000 0000
00000060: 5901 8eb8 e4ba 26b9 9b14 183a 9ee6 f839
00000070: 85ee 77b9 0000 0000 1dd0 0bba b71e 16b9
-0.00045357924 0.0 -0.00023962426 0.00063427526 0.0 0.0 -0.00038819044 -0.0001400806
0.00020472398 0.0 0.00022449555 0.0 0.0 -4.4754233e-05 -0.00034768184 0.0001311041
1.731312e-05 0.0 0.0 0.00039121544 3.8431608e-05 0.0 -0.0003186746 0.0
-6.771339e-05 -0.00015900616 0.00058014103 0.0004747407 -0.00023644611 0.0 -0.00053334405 -0.00014316557

exp_avg_sq f4 [32]
00000000: defe 6d32 0000 0000 744e 0232 31bc cd33
00000010: 0000 0000 0000 0000 405f c631 48d0 8230
00000020: b279 4d32 0000 0000 5f59 6831 0000 0000
00000030: 0000 0000 168b a52e 978a d631 9403 8f31
00000040: f218 bc2e 0000 0000 0000 0000 8554 cb31
00000050: 2bca 312f 0000 0000 4147 9f31 0000 0000
00000060: bbd5 5831 a359 2732 00a3 8932 b11a 6632
00000070: d546 1331 0000 0000 9cef 4a32 ae61 9431
1.3853166e-08 0.0 7.584834e-09 9.580288e-08 0.0 0.0 5.773387e-09 9.517942e-10
1.1960241e-08 0.0 3.3811245e-09 0.0 0.0 7.528038e-11 6.2439756e-09 4.1622545e-09
8.5536814e-11 0.0 0.0 5.9176863e-09 1.6169881e-10 0.0 4.6356097e-09 0.0
3.1553629e-09 9.74106e-09 1.6023023e-08 1.3393831e-08 2.1431579e-09 0.0 1.1812428e-08 4.318472e-09
