2_수학으로 풀어보는 강화학습 원리와 알고리즘/rackhun/2_A3C_pendulum/gradient_base/saved_model/A3C_ACTOR.pth (torch_old, 13125 bytes, 8 tensors)

fc1.weight f4 [64, 3]
0	0xbe936683	-0.28789148
1	0xbee1b082	-0.44079977
2	0xbea32482	-0.3186379
3	0x3be589fb	0.007004974
4	0xbf35cd00	-0.7101593
5	0xbe0a4cec	-0.13505906
6	0x3d5280a7	0.051392224
7	0xbf5f9d23	-0.87349147
8	0xbe648926	-0.22317943
9	0x3e4d1bf9	0.20030202
10	0x3f0868fb	0.5328519
11	0xbeecff2a	-0.46288425
12	0xbe85c447	-0.2612631
13	0x3f0ff278	0.5622935
14	0x3de6cec0	0.11269903
15	0xbf17c908	-0.59291124
16	0xbdfa466a	-0.12220462
17	0x3f02775b	0.5096337
18	0x3eb537dc	0.3539418
19	0x3f0e9ac6	0.55704916
20	0xbf09fdd9	-0.53902966
21	0x3e90f914	0.28315032
22	0x3e3f609a	0.18689194
23	0x3f09c59e	0.53817165
24	0xbf235a78	-0.6380992
25	0xbe2f9f3b	-0.17150585
26	0x3da3df69	0.080015965
27	0xbe5706a4	-0.20998627
28	0xbd0b7798	-0.0340496
29	0xbeae476f	-0.34038875
30	0x3f2d253f	0.6763496
31	0x3f0fe684	0.56211114
32	0x3e76aeaa	0.24090067
33	0x3e5188b7	0.20462309
34	0xbd70cd54	-0.058789566
35	0x3ea66381	0.3249779
36	0xbf25180e	-0.6448983
37	0xbf1631fd	-0.58670026
38	0xbef2e75f	-0.47442147
39	0xbeb5de48	-0.3552115
40	0xbf348b99	-0.7052551
41	0x3c3d8ac6	0.011568731
42	0x3f04769f	0.517435
43	0x3f3a8a70	0.7286749
44	0xbe3a2cd5	-0.18181165
45	0x3ead41f5	0.33839384
46	0xbf3661da	-0.7124306
47	0xbeba65e8	-0.36405873
48	0x3db935ee	0.090434894
49	0x3dd5c3c6	0.104377314
50	0xbeeacbc1	-0.45858577
51	0xbea1f8cc	-0.3163513
52	0xbf28aeb7	-0.65891594
53	0xbe1e706f	-0.15472578
54	0xbe5aedda	-0.21379796
55	0xbe718bde	-0.23588511
56	0xbe926190	-0.2859006
57	0x3ecd855d	0.4014081
58	0x3db66a4a	0.08906992
59	0x3eda9a0d	0.42695656
60	0xbf5261be	-0.8218039
61	0xbd98a355	-0.07453028
62	0xbed9cea1	-0.42540458
63	0xbefac908	-0.489815
64	0xbec85a4e	-0.39131397
65	0x3e65a92a	0.22427812
66	0x3ed65312	0.41860253
67	0xbdcb1b51	-0.099173196
68	0x3ebb7db4	0.3661934
69	0xbefb32db	-0.49062237
70	0xbdf2628d	-0.11835203
71	0xbea6f55c	-0.3260907
72	0x3f0f0d3c	0.5587957
73	0x3df50fde	0.11965917
74	0xbb60029d	-0.0034181245
75	0x3f300a21	0.68765455
76	0x3d915357	0.07095974
77	0xbe94c1ee	-0.29054207
78	0xbf129d9c	-0.5727174
79	0xbe209885	-0.15683182
80	0x3efd20cf	0.49439093
81	0xbefb72ce	-0.49111027
82	0xbeaf5ced	-0.34250584
83	0xbeb90ff6	-0.3614499
84	0xbdb06987	-0.08613878
85	0xbf163d46	-0.58687246
86	0x3e50b73a	0.20382395
87	0xbf492ff7	-0.78588814
88	0x3f07f513	0.5310833
89	0xbeb85b22	-0.3600703
90	0x3f31c172	0.694358
91	0xbddb1fa5	-0.10699395
92	0xbc7c7854	-0.015409548
93	0xbf05a9b9	-0.522121
94	0xbe2ccf8f	-0.16876052
95	0xbe8978e1	-0.26850036
96	0xbed4c0dd	-0.41553393
97	0xbf1c66a6	-0.6109413
98	0xbef677cb	-0.4813827
99	0x3df7c941	0.12098933
100	0x3e8d70b4	0.27625048
101	0x3ed19658	0.40935016
102	0x3ec89a4b	0.39180216
103	0x3e9cc6cb	0.30620417
104	0xbeecbb2c	-0.4623655
105	0xbf2262ec	-0.6343219
106	0x3ed2e231	0.41188195
107	0x3e32ecb6	0.1747311
108	0x3efd7ca4	0.49509156
109	0x3ee6cfbf	0.45080373
110	0xbf15cfbd	-0.5852011
111	0x3f370973	0.71498793
112	0x3ef2d0f9	0.47425058
113	0x3ec9fb44	0.39449513
114	0xbf34e5fb	-0.7066342
115	0x3e441499	0.19148482
116	0xbe83d0d3	-0.25745258
117	0xbf1de0d1	-0.6167117
118	0xbeb832a9	-0.3597615
119	0x3e7a1bc5	0.24424656
120	0x3ec5b219	0.3861244
121	0x3ea267c2	0.31719786
122	0xbefb744c	-0.49112165
123	0xbe9026f9	-0.28154734
124	0xbe15bf87	-0.14623843
125	0x3e82c603	0.25541696
126	0xbcfb6731	-0.030688854
127	0x3e280eda	0.16411915
128	0xbe51e747	-0.20498382
129	0x3eb377ce	0.3505234
130	0xbe3fafd2	-0.18719414
131	0x3ee092a2	0.43861872
132	0x3f190774	0.59777
133	0xbf2f0e98	-0.68381643
134	0xbef48bfe	-0.47763056
135	0xbe065743	-0.13119225
136	0xbf363140	-0.711689
137	0x3e53cd12	0.20683697
138	0x3dbf82e3	0.093511365
139	0xbe74be99	-0.23900832
140	0x3eb220e7	0.34790727
141	0xbee8f9a9	-0.45502976
142	0xbde5cc4a	-0.11220606
143	0x3d84d2a2	0.064854875
144	0xbcddfa91	-0.027097018
145	0xbdd2a599	-0.102854915
146	0xbe986ecd	-0.29772034
147	0xbf422126	-0.7583183
148	0x3d8ba5f4	0.068187624
149	0xbea6994f	-0.3253884
150	0xbf168138	-0.5879092
151	0xbccca8f4	-0.024982907
152	0x3d8cd019	0.06875629
153	0x3f415d2e	0.75532806
154	0xbe021960	-0.12704992
155	0x3f11432f	0.5674314
156	0x3c05c7e1	0.008165331
157	0xbcc6cf95	-0.024268905
158	0xbee14ca8	-0.44003797
159	0xbdd42ad6	-0.10359733
160	0xbf0eaf27	-0.5573601
161	0xbdff46fb	-0.1246471
162	0x3ecf4e82	0.40489584
163	0x3b608c49	0.0034263304
164	0x3ea3949d	0.3194932
165	0xbd4a6b20	-0.04941857
166	0x3d2b7330	0.0418579
167	0xbc4fdfc0	-0.0126876235
168	0xbe92a504	-0.28641522
169	0x3f08381f	0.53210634
170	0xbed14c42	-0.40878493
171	0x3e08d008	0.13360608
172	0xbda2bfe9	-0.0794676
173	0xbefe26aa	-0.49638873
174	0xbf3e8774	-0.74425435
175	0x3e785ce0	0.24254179
176	0xbeae4ed5	-0.3404452
177	0x3f362aaf	0.7115888
178	0x3f0c2658	0.5474601
179	0x3f08fe63	0.53513163
180	0x3f2dc719	0.67881924
181	0xbe9c90e3	-0.3057929
182	0xbeacf54b	-0.33780894
183	0xbf44968d	-0.7679222
184	0x3eeae75f	0.45879647
185	0x3ecce65b	0.40019497
186	0x3e9add6b	0.30247054
187	0x3ed19486	0.40933627
188	0xbd7083fe	-0.058719628
189	0x3cd9e0a0	0.026596367
190	0xbb0d0b2a	-0.0021521547
191	0x3e52845d	0.20558305

fc1.bias f4 [64]
0	0xbd92b3fc	-0.071632355
1	0x3e5ce87e	0.21573064
2	0x3f137014	0.5759289
3	0xbeaacfc4	-0.33361638
4	0x3f02987d	0.5101393
5	0x3edb291d	0.42804804
6	0x3df75ab2	0.12077846
7	0xbd1d57ec	-0.038413927
8	0x3ca9cdfd	0.020728106
9	0xbe9183e2	-0.2842093
10	0x3cc33c94	0.023832597
11	0xbf0bd8b7	-0.54627556
12	0x3ecc955c	0.39957702
13	0x3f02dd47	0.5111889
14	0x3ecab744	0.39592946
15	0xbdf81266	-0.12112884
16	0x3d9fc705	0.07801632
17	0x3f0b2c68	0.54364634
18	0x3e9b86bf	0.3037624
19	0x3f0d9c28	0.553164
20	0xbe36aaee	-0.17838642
21	0xbee5e5f2	-0.44901997
22	0x3d2a3934	0.04155846
23	0x3ea47b71	0.32125428
24	0x3ef87d4e	0.485331
25	0xbef761ea	-0.4831689
26	0x3dc34c2f	0.09536015
27	0x3f147ea6	0.5800575
28	0x3e1c44fb	0.15260689
29	0xbdea6b06	-0.11446194
30	0x3ed068bd	0.4070491
31	0xbeaa7cd4	-0.3329836
32	0xbe91ee9e	-0.28502363
33	0x3c117ce8	0.008879878
34	0x3e766e62	0.24065545
35	0xbee0243b	-0.43777642
36	0xbeba80f6	-0.36426514
37	0x3d2fdd8c	0.042935893
38	0xbee60dcf	-0.4493241
39	0xbd82a1f3	-0.063785456
40	0xbf05fc03	-0.52337664
41	0x3ee057c1	0.4381695
42	0x3dd7e4ce	0.10541688
43	0xbe164420	-0.14674425
44	0x3f1123a0	0.56694984
45	0x3efcdaf3	0.49385795
46	0x3eae62ad	0.3405966
47	0x3d495c70	0.04916042
48	0xbeecf437	-0.4628007
49	0xbee0864f	-0.4385247
50	0x3f135033	0.5754425
51	0x3e77a1c7	0.24182807
52	0x3ea315a9	0.31852463
53	0x3eb7aa1d	0.35871974
54	0x3d6badb4	0.057538703
55	0xbecf3160	-0.40467358
56	0x3f08e825	0.53479224
57	0xbf166f22	-0.58763325
58	0xbe8bb337	-0.27285168
59	0x3c10bd49	0.008834192
60	0xbee9d1c3	-0.45667848
61	0x3e321871	0.17392136
62	0x3e9db5b1	0.30802682
63	0x3de0881d	0.109634615

fc2.weight f4 [32, 64]
0	0x3cdf4ce0	0.027258337
1	0x3d906c8e	0.07051955
2	0xbd9664b7	-0.073434286
3	0xbda51d35	-0.080622114
4	0x3de49741	0.11161662
5	0xbdc416fb	-0.09574696
6	0xbda1b02f	-0.078949325
7	0x3d99db96	0.07512586
8	0x3dec4d54	0.11538187
9	0x3df2ae92	0.11849703
10	0x3d49424c	0.04913549
11	0xbd309cec	-0.043118402
12	0xbd03d742	-0.032187708
13	0xbdd6dda0	-0.1049149
14	0x3dec736c	0.115454525
15	0x3cbe51c0	0.02323234
16	0xbca0998c	-0.019604467
17	0xbd8e4d59	-0.06948347
18	0xbb971adc	-0.004611356
19	0x3d8a5be2	0.067558065
20	0xbdca06b1	-0.098645575
21	0x3cb1c100	0.021698475
22	0xbda327c0	-0.07966566
23	0x3dad7829	0.08470184
24	0xbd9f3ca9	-0.07775242
25	0xbde02388	-0.10944277
26	0xbda86d89	-0.08224017
27	0x3b933c53	0.004493275
28	0x3b72e7c0	0.0037064403
29	0x3d8e7647	0.06956153
30	0x3d54134d	0.05177622
31	0x3d0d8684	0.034552112
32	0x3d1ccab4	0.03827925
33	0xbdf8a5a5	-0.12140969
34	0xbd2210f0	-0.039566934
35	0xbdd2e0f8	-0.10296816
36	0x3c290b5e	0.010317652
37	0xbd7ba64a	-0.061437882
38	0xbcc69f04	-0.024245746
39	0x3defc2f6	0.11707108
40	0x3cbaf7cd	0.022823239
41	0x3c61ff0b	0.013793717
42	0xbd0ca013	-0.034332346
43	0xbdd0f6e6	-0.10203342
44	0xbe03bf17	-0.12865864
45	0xbd5dd801	-0.054161076
46	0x3cb093cf	0.021554856
47	0xbd83d57a	-0.06437202
48	0xbdf187ca	-0.11793478
49	0x3ddd3c35	0.10802499
50	0xbe012c4c	-0.12614554
51	0xbda5e920	-0.08101106
52	0xbdef91c5	-0.11697725
53	0xbc6df5cc	-0.014523935
54	0x3d378c38	0.044811457
55	0xbd3702a8	-0.044680268
56	0x3de46b7a	0.11153312
57	0xbdf5a53e	-0.11994408
58	0x3db1f169	0.086886235
59	0xbd3cae1d	-0.046064485
60	0xbd7009c0	-0.05860305
61	0xbde0aa14	-0.1096994
62	0xbdfe9134	-0.12430039
63	0xbd4e57bc	-0.05037664
64	0xbe24240d	-0.16029377
65	0xbe5b635c	-0.21424621
66	0xbe809bfe	-0.25119013
67	0xbd00ace1	-0.03141487
68	0x3d51ef08	0.05125335
69	0x3d21448d	0.039372016
70	0x3e167abe	0.1469526
71	0xbd5fad70	-0.054608762
72	0xbdcdf46d	-0.10056386
73	0x3bab23fd	0.005222796
74	0x3d9b06bd	0.075696446
75	0x3e021bd6	0.12705931
76	0xbe2c0159	-0.16797389
77	0xbe8004e2	-0.25003725
78	0x3e0a2fb4	0.1349476
79	0xbe03a7aa	-0.12856928
80	0x3da925b3	0.08259144
81	0xbe8d31a1	-0.27576926
82	0x3cd14695	0.025546351
83	0x3df2be0a	0.11852653
84	0x3c0c3cb5	0.008559396
85	0x3c067b42	0.008208098
86	0x3deb4289	0.114873
87	0x3d26a8e9	0.04068843
88	0x3db4c5ae	0.08826767
89	0x3dff265b	0.124584876
90	0xbd34d561	-0.044148806
91	0xbd33e002	-0.043914802
92	0xbce94930	-0.028477281
93	0xbda96e4f	-0.08272993
94	0x3e27f6f0	0.16402793
95	0x3d1f22a8	0.03885141
96	0xbcad3db8	-0.021147594
97	0x3d726042	0.05917383
98	0xbc11ab78	-0.008890979
99	0xbdf08e64	-0.11745909
100	0x3e320e99	0.17388381
101	0x3d9abba7	0.07555323
102	0xbd40dd59	-0.047086094
103	0x3d62e6a3	0.055395734
104	0x3dcd680d	0.10029612
105	0xbd1af0c7	-0.03782728
106	0x3caff8c3	0.021480924
107	0xbda30660	-0.079602
108	0xbda5ad17	-0.08089655
109	0xbe0dba5b	-0.1384062
110	0xbdd15c4e	-0.10222684
111	0xbc8c1b77	-0.01710294
112	0xbe3dfa15	-0.1855243
113	0xbcb916da	-0.022593904
114	0xbe16ff8d	-0.14745922
115	0x3e213f4e	0.15746805
116	0x3da78b7a	0.081809
117	0xbe8004b2	-0.25003582
118	0x3e1d5eee	0.15368244
119	0x3d1b13f0	0.03786081
120	0x3b248a85	0.0025106978
121	0xbce45d9d	-0.02787667
122	0xbe1b555c	-0.15169281
123	0x3e245f77	0.16052042
124	0xbdc79023	-0.09744289
125	0xbe048104	-0.1293984
126	0x3d1aea90	0.037821352
127	0x3d760cb6	0.060070716
128	0xbb60205f	-0.0034198982
129	0x3e44e880	0.19229317
130	0x3e38e482	0.18055919
131	0xbc725cd8	-0.0147926435
132	0xbe1b74fe	-0.15181348
133	0xbd0f1f0e	-0.034941725
134	0x3ded6ee1	0.11593414
135	0x3dc86deb	0.0978659
136	0x3e201812	0.15634182
137	0x3dc0f36e	0.094214305
138	0xbe24a324	-0.16077858
139	0xbcf71940	-0.030163407
140	0xbc9e871f	-0.01935154
141	0x3e1c0ae0	0.15238523
142	0x3d9a18d1	0.075242646
143	0xbd0303df	-0.031986114
144	0x3d6867c6	0.05673959
145	0xbcda7df0	-0.02667138
146	0x3da91ca1	0.08257414
147	0x3d9e939e	0.077429995
148	0xbdb08adb	-0.086202346
149	0x3e06a994	0.13150626
150	0x3d2b4ea1	0.041823033
151	0xbdba4b8f	-0.09096443
152	0x3de5d87d	0.112229325
153	0x3e22a235	0.1588219
154	0x3dc853d8	0.09781617
155	0x3d4d3e61	0.050108317
156	0x3d84ef01	0.06490899
157	0xbd91eb1c	-0.07124922
158	0x3d0d4523	0.034489762
159	0xbe3d794a	-0.185033
160	0xbcf887e9	-0.030338245
161	0x3d115373	0.035479974
162	0xbd97f20a	-0.07419212
163	0x3e1553b7	0.14582716
164	0x3d1f5f5a	0.038909294
165	0xbdf21e1f	-0.118221514
166	0xbdbbbdf4	-0.0916709
167	0x3d341b6c	0.043971464
168	0x3d7c1170	0.061540067
169	0xbc158a19	-0.009127163
170	0x3d00ab0c	0.031413123
171	0x3c4e260b	0.012582312
172	0x3d05324d	0.032518674
173	0x3e395463	0.18098597
174	0x3dd5121f	0.10403847
175	0x3c0e34f7	0.00867962
176	0x3d0eba15	0.03484543
177	0xbd9a72d6	-0.075414345
178	0x3c1cb19f	0.009563833
179	0x3dc96e4e	0.09835492
180	0xbcb8980a	-0.022533435
181	0xbd77d417	-0.060505
182	0xbd9568df	-0.07295393
183	0xbd5c8198	-0.053834528
184	0xbcb97a82	-0.022641424
185	0x3e0e30d5	0.13885815
186	0xbda70b88	-0.08156496
187	0xbd752bf7	-0.05985638
188	0x3e28f10a	0.16498199
189	0x3e249f5b	0.16076414
190	0xbc870b64	-0.016484924
191	0xbc8f9902	-0.017529014
192	0x3d5720fa	0.052521683
193	0xbda53a8f	-0.0806781
194	0xbcbc0ea6	-0.022956204
195	0xbd919262	-0.071079984
196	0x3c5c3931	0.01344137
197	0x3dcb34e1	0.09922195
198	0x3daa1749	0.083052225
199	0x3e062098	0.13098371
200	0x3ccb005c	0.024780445
201	0x3ca7e429	0.020494537
202	0x3d7c95e6	0.06166639
203	0xbcf3f29d	-0.029778773
204	0xbce52b76	-0.027974825
205	0xbaf5e2b5	-0.001875958
206	0x3d47d8c3	0.048790704
207	0xbdb3963c	-0.08768889
208	0x3d0bd3ca	0.034137525
209	0xbe02ad8b	-0.12761514
210	0xbc871041	-0.016487243
211	0xbda57405	-0.080787696
212	0xbcc49b42	-0.023999814
213	0x3d0abf2e	0.03387373
214	0x3b888cb7	0.004167165
215	0x3db67085	0.0890818
216	0xbd8a9be6	-0.067680165
217	0x3e046805	0.12930305
218	0xbd8c68a2	-0.068558946
219	0x3ca21ff9	0.019790636
220	0xbd3a480b	-0.04547886
221	0xbd4524b9	-0.048130725
222	0x3e01960c	0.12654895
223	0x3d992f2c	0.074797004
224	0xbc5f4ea6	-0.013629591
225	0xbd5c8b46	-0.05384376
226	0x3d668060	0.05627477
227	0xbd199682	-0.03749705
228	0x3d6dfc73	0.058102082
229	0x3df3cd4f	0.11904394
230	0xbe1aaeeb	-0.15105788
231	0x3d523f53	0.051329922
232	0x3d6e20d7	0.058136787
233	0xbddd2608	-0.107982695
234	0xbdd96c7a	-0.106163934
235	0xbd0969cd	-0.033548165
236	0xbdbe34ee	-0.09287439
237	0xbcadbe5f	-0.02120894
238	0xbd38e0cd	-0.04513626
239	0x3ce92359	0.028459238
240	0xbd851bad	-0.06499419
241	0xbd74762c	-0.05968301
242	0xbd075cba	-0.033047415
243	0x3e0a92b7	0.1353253
244	0xbde4fa52	-0.11180557
245	0xbde66092	-0.11248888
246	0xbd7c9270	-0.06166309
247	0x3d81ac42	0.06331684
248	0x3d98444a	0.074349
249	0xbbe4aeeb	-0.0069788597
250	0xbcc42d95	-0.023947516
251	0xbbbaea76	-0.0057042195
252	0x3d8c9212	0.06863798
253	0x3cfb0acb	0.030644795
254	0x3cb3e0e7	0.021957828
255	0x3d92b91a	0.071642116

fc2.bias f4 [32]
0	0xbce59617	-0.02802567
1	0xbccd4bbb	-0.025060525
2	0x3d4db673	0.050222825
3	0xbd062874	-0.032753423
4	0x3dc86282	0.09784414
5	0xbe03ff60	-0.12890387
6	0xbccfda42	-0.025372628
7	0x3e1d383f	0.15353487
8	0x3df98613	0.12183776
9	0xbc538f20	-0.012912542
10	0xbd40f2ce	-0.047106557
11	0x3ba138f5	0.00492012
12	0x3d0dcb90	0.03461796
13	0xbd8ec95a	-0.069719985
14	0xbc417f98	-0.011810206
15	0x3d35a21a	0.044344045
16	0x3d8751f4	0.06607428
17	0x3b87dd58	0.0041462593
18	0x3dbfae9f	0.09359478
19	0xbcdb9728	-0.026805475
20	0x3d76f73b	0.06029437
21	0x3e784792	0.24246052
22	0x3ce861f1	0.028367015
23	0x3d6e45c3	0.058172
24	0x3d4dc7d2	0.05023939
25	0x3d962f05	0.07333187
26	0x3d6a746f	0.057239946
27	0x3cc7d412	0.024393115
28	0xbcd13d9b	-0.025542071
29	0x3e56e1e6	0.20984611
30	0x3d9f8fb5	0.07791082
31	0x3ba17f27	0.004928488

fc3.weight f4 [16, 32]
0	0xbd505b70	-0.05086845
1	0xbe421ed7	-0.18957077
2	0x3e6f542c	0.23371953
3	0xbe16915f	-0.14703892
4	0x3d46e291	0.048555914
5	0xbd5b9468	-0.053608328
6	0x3e69e4c4	0.22841173
7	0x3e089ed4	0.13341838
8	0xbd5ef278	-0.054430455
9	0x3d74a890	0.059731066
10	0xbdb86169	-0.090029545
11	0x3e0951ed	0.13410158
12	0xbe974464	-0.29544365
13	0xbc65a776	-0.014016977
14	0x3ddb32ee	0.107030734
15	0xbe6652b5	-0.22492488
16	0x3d2e084c	0.04248838
17	0xbdaf519a	-0.08560486
18	0xbe30fdad	-0.1728427
19	0xbe440999	-0.19144286
20	0x3e12d732	0.14339903
21	0x3d5dac91	0.05411965
22	0xbe870123	-0.26368055
23	0xbd89e845	-0.06733755
24	0x3e71ec26	0.2362524
25	0x3d3cf0a8	0.046127945
26	0xbe188de3	-0.14897875
27	0xbdc07857	-0.09397953
28	0x3d56c280	0.052431583
29	0x3cdc623f	0.026902316
30	0x3db2f01d	0.08737204
31	0x3be09984	0.006854238
32	0xbcb9777a	-0.022639979
33	0x3d0478bd	0.032341707
34	0x3d5dbb29	0.054133568
35	0x3db75949	0.08952577
36	0xbd060aa7	-0.032725003
37	0xbe364bd8	-0.1780237
38	0x3e086ce9	0.13322796
39	0x3e5a8cd0	0.21342778
40	0x3dda7cd2	0.10668339
41	0xbd84988d	-0.06474409
42	0xbbfa6404	-0.0076413173
43	0x3b5b62f5	0.003347573
44	0xbd2d6060	-0.04232824
45	0xbe183b4d	-0.14866371
46	0xbe2ba884	-0.16763502
47	0xbd86dc2b	-0.065849625
48	0xbe3ca5f5	-0.18422683
49	0x3c799918	0.015234254
50	0xbdbcee82	-0.09225179
51	0xbe2c1b6b	-0.16807334
52	0x3e03a0b9	0.1285428
53	0x3dd99299	0.106236644
54	0xbc4eec44	-0.012629572
55	0xbcd3ade5	-0.025839755
56	0xbd014e48	-0.031568795
57	0x3e098a90	0.13431764
58	0xbd4ccb51	-0.049998585
59	0x3dcbd6b0	0.09953058
60	0x3de0647a	0.109566644
61	0xbe38cacd	-0.18046112
62	0x3e515217	0.20441471
63	0xbe1b7da4	-0.15184647
64	0x3dfd67fc	0.12373349
65	0xbe916981	-0.28400806
66	0xbda5b7b6	-0.08091681
67	0xbd97ef6e	-0.074187145
68	0x3d196883	0.037453186
69	0xbc9cad3f	-0.019125579
70	0x3dca8db8	0.09890312
71	0xbc59d015	-0.0132942395
72	0x3d1009df	0.035165664
73	0xbde778eb	-0.1130236
74	0xbdd726ef	-0.10505473
75	0xbcf05c1a	-0.029340792
76	0xbe7f9778	-0.24960124
77	0xbc11a4da	-0.008889401
78	0x3d2a9f5e	0.04165589
79	0xbe6787b0	-0.22610354
80	0xbe425dfb	-0.18981163
81	0x3d7e460c	0.06207852
82	0xbd78686c	-0.06064646
83	0x3de2163f	0.11039399
84	0xbac0570f	-0.0014674383
85	0x3dca4f03	0.098783515
86	0xbe82bbb0	-0.2553382
87	0x3d74309f	0.05961668
88	0x3e915e2f	0.2839217
89	0x3b9ae77e	0.004727303
90	0xbe6677d3	-0.22506647
91	0x3e2d66fe	0.1693382
92	0x3d53d56e	0.051717214
93	0xbc4778b4	-0.012174774
94	0x3da89343	0.08231213
95	0x3e438bdc	0.19096321
96	0x3d99fa9a	0.075185016
97	0x3e082a3c	0.13297361
98	0x3d882fd4	0.066497475
99	0xbcd97d8f	-0.026549129
100	0xbd327e57	-0.04357752
101	0x3e00ef29	0.12591232
102	0xbd3551c8	-0.044267446
103	0xbd789b21	-0.060694817
104	0xbbb4b924	-0.0055152345
105	0x3dfc1e1e	0.12310432
106	0xbe1c4011	-0.15258814
107	0x3d93aa8d	0.07210264
108	0x3de0f854	0.10984865
109	0x3e0e306b	0.13885657
110	0xbc0732fe	-0.008251904
111	0xbb025e18	-0.001989251
112	0xbd5dd8bd	-0.054161776
113	0xbd59cfba	-0.05317662
114	0xbdacdf53	-0.08441033
115	0x3d37d5bf	0.04488158
116	0xbdcbde15	-0.09954468
117	0xbe11a988	-0.14224827
118	0xbdeb9668	-0.11503297
119	0x3dc0abfe	0.09407805
120	0x3d9e861a	0.077404216
121	0x3d82e4f1	0.06391323
122	0x3cf25fb8	0.029586658
123	0x3cce8392	0.025209222
124	0x3c5b844e	0.013398243
125	0xbd2896de	-0.041159503
126	0xbcdc4118	-0.026886508
127	0x3df0482d	0.117325164
128	0x3d518a2c	0.05115716
129	0xbe2c9c49	-0.16856493
130	0x3e54e745	0.20791347
131	0x3e334892	0.17508152
132	0x3dae685b	0.08515998
133	0x3de3b174	0.11117831
134	0xbdbff1ad	-0.09372268
135	0x3df1b5d8	0.11802262
136	0xbe3b3bf3	-0.18284588
137	0x3de8f82e	0.113754615
138	0xbe232c2f	-0.15934823
139	0x3e612c41	0.21989538
140	0xbe861152	-0.2618509
141	0xbd9bc1fb	-0.07605358
142	0xbd2f8126	-0.042847775
143	0xbe0796b0	-0.13241076
144	0x3e2e39c1	0.17014219
145	0xbd064faa	-0.032790817
146	0xbdee40f3	-0.11633482
147	0xbd269b9c	-0.040675744
148	0x3d9fd5f3	0.078044794
149	0x3e5376d4	0.20650798
150	0xbe19fb7e	-0.15037343
151	0x3d86344d	0.06552944
152	0xbd074f42	-0.03303457
153	0xbe01d24f	-0.12677883
154	0xbe915f11	-0.28392842
155	0x3e38a09d	0.18030019
156	0xbe6a4fd6	-0.22882017
157	0x3e1e1d63	0.15440898
158	0xbcecdae4	-0.028912969
159	0xbde8583b	-0.113449536
160	0xbdc452e0	-0.0958612
161	0xbe879d2c	-0.264871
162	0x3e6d9298	0.23200452
163	0xbd07880c	-0.03308873
164	0xbd93689d	-0.07197688
165	0xbd236e7b	-0.039900284
166	0x3e143a2b	0.14475314
167	0x3dffd1c0	0.124911785
168	0x3d0ee5e4	0.03488721
169	0xbd7c2f22	-0.061568387
170	0x3d2e1916	0.042504393
171	0x3d020198	0.0317398
172	0xbe5f4e07	-0.21807109
173	0xbe30169d	-0.17196126
174	0xbe1ad857	-0.1512159
175	0x3dea7c08	0.11449438
176	0xbdd9e0e8	-0.106386006
177	0xbe1b52cc	-0.15168303
178	0xbdca2a7f	-0.09871387
179	0xbe2a5430	-0.16633677
180	0xbdf1ec5a	-0.118126586
181	0x3e4e98e3	0.20175509
182	0xbe22a21f	-0.15882157
183	0xbd288364	-0.04114093
184	0x3e9fb21b	0.3119057
185	0x3cff40ac	0.031158768
186	0xbe80e613	-0.25175533
187	0x3d95a4bc	0.07306811
188	0x3bfa3ef3	0.0076368987
189	0x3d8887ea	0.066665486
190	0xbd724da6	-0.059156083
191	0x3e4e4846	0.20144758
192	0xbccb3ef0	-0.024810284
193	0x3eb80dc1	0.35947993
194	0xbd03481c	-0.03205119
195	0x3d316edd	0.043318618
196	0x3e0cebff	0.137619
197	0xbe0631a9	-0.13104881
198	0xbc99d724	-0.018779345
199	0xbdec351e	-0.11533569
200	0x3e91ba7e	0.28462595
201	0x3d8dc984	0.06923202
202	0x3d0b1a9f	0.033960935
203	0xbd3848f5	-0.044991452
204	0x3eaf549c	0.3424424
205	0xbd03201c	-0.032013044
206	0x3e5d3e68	0.21605837
207	0x3ddddb87	0.10832887
208	0x3ca33d80	0.019926786
209	0x3e99febf	0.30077168
210	0x3e93b5c6	0.2884962
211	0x3e883663	0.26603994
212	0x3e88aff6	0.26696748
213	0x3e30d7ce	0.17269823
214	0x3cedd05a	0.029030014
215	0xbddbc898	-0.107316196
216	0xbd2e4b26	-0.042552136
217	0x3e466c7a	0.19377318
218	0x3e96fc63	0.2948943
219	0xbd9ac161	-0.07556415
220	0x3ea01c84	0.31271756
221	0x3e7e3df5	0.24828322
222	0xbe56ed16	-0.20988879
223	0x3c992bde	0.018697675
224	0x3dd2d83a	0.10295148
225	0xbbfccc0c	-0.007714754
226	0xbdf8d0cc	-0.121492
227	0x3e23b363	0.159864
228	0xbe460a91	-0.19339968
229	0xbe2b826e	-0.16748974
230	0x3c46c4b8	0.012131862
231	0x3e002d72	0.12517336
232	0x3d890fdb	0.06692477
233	0xbe2b444b	-0.1672527
234	0xbe0d3817	-0.13790928
235	0x3daaecdc	0.083459586
236	0xbe1b3f37	-0.15160833
237	0xbe0907ac	-0.13381833
238	0xbe105a69	-0.14096989
239	0xbd1ccd6a	-0.038281836
240	0xbde9ae09	-0.11410148
241	0x3d95ca85	0.07314018
242	0x3e116de8	0.14202082
243	0x3c97c29a	0.01852541
244	0xbc84cd8f	-0.0162113
245	0xbdfe0b46	-0.12404494
246	0x3d5349cd	0.051584054
247	0xbd11d13c	-0.035599932
248	0x3dd43920	0.10362458
249	0x3d91ad0a	0.07113083
250	0x3dc28fef	0.095001094
251	0xbe1661b9	-0.14685716
252	0xbd6085c0	-0.054815054
253	0x3e23b653	0.1598752
254	0xbc4b4053	-0.012405473
255	0xbe010e7c	-0.12603182

fc3.bias f4 [16]
0	0xbb4a48d0	-0.0030866154
1	0xbe2d9feb	-0.16955535
2	0x3d9bdf13	0.076109074
3	0xbdfa8c0e	-0.122337446
4	0x3dcd4735	0.10023347
5	0x3c1c4da8	0.009539999
6	0x3df443af	0.11926972
7	0xbe342f17	-0.17596088
8	0x3c58f187	0.013241178
9	0x3d4c97a4	0.049949303
10	0xbdfbae0c	-0.12289056
11	0xbbef0593	-0.0072943657
12	0x3bbc30a5	0.0057431036
13	0xbdbef5f1	-0.09324253
14	0x3e0bdf46	0.13659391
15	0x3d196d04	0.03745748

fc_mu.weight f4 [1, 16]
0	0x3e623234	0.22089463
1	0x3e3036da	0.17208424
2	0x3ec3d068	0.3824494
3	0x3e28ac6f	0.16472028
4	0x3eb5f9de	0.35542196
5	0x3eb7ddb5	0.35911337
6	0xbed40f6c	-0.41418016
7	0x3d3bfc89	0.045895133
8	0x3eca0b75	0.39461866
9	0x3e851e47	0.25999662
10	0x3d5b5148	0.053544313
11	0xbdc50135	-0.09619371
12	0x3eae7631	0.34074548
13	0xbd561366	-0.052264594
14	0x3ebab1d6	0.36463803
15	0x3e69aca5	0.22819765

fc_std.weight f4 [1, 16]
0	0xbe81f173	-0.25379524
1	0x3ba98fb9	0.005174604
2	0x3d0eb8ba	0.034844138
3	0x3dc80cbd	0.09768055
4	0xbe81c972	-0.25349003
5	0x3dbe2681	0.09284688
6	0x3e17ea15	0.14835389
7	0x3e509de3	0.20372729
8	0xbd87787c	-0.066147774
9	0xbea4e74b	-0.32207713
10	0x3d92806c	0.07153401
11	0xbe6ab9f0	-0.22922492
12	0xbd41a669	-0.04727784
13	0xbd335ba2	-0.04378856
14	0xbd89e48c	-0.06733045
15	0xbe1d6287	-0.15369616
