2_수학으로 풀어보는 강화학습 원리와 알고리즘/rackhun/1_A2C_pendulum/saved_model/A2C_CRITIC.pth (torch_old, 37794 bytes, 21 tensors)

fc1.weight f4 [64, 3]
-0.47374085 -0.49913144 0.061515775 0.6210175 -0.3523573 -0.21783265 -0.17225109 0.07232294
0.05507507 0.58947986 0.9009239 0.24299562 -0.57108307 -0.13261583 0.08335508 0.09789231
-0.22664101 0.15826893 -0.50935113 0.1669458 -0.013258294 -0.26842263 -0.06299382 0.43937248
0.20415486 0.024369478 -0.24818149 0.13244884 0.35890442 -0.22365373 0.67796296 0.17808756
0.49494222 -0.39014927 1.0346276 0.32649705 0.28643382 -0.124424644 -0.11564428 0.6291312
0.96816665 0.3148012 0.7389653 -0.24383296 -0.29842523 0.33250743 0.75611764 0.16186811
0.23362255 -0.5605748 -0.28584537 0.0154618975 0.052080892 0.15862566 0.10719502 0.81825554
0.15462105 0.54923886 -0.21950279 -0.22878258 -0.33090976 1.4400669 0.28368875 0.36727202
-0.030934447 -0.019762225 -0.3975814 0.104233086 0.0979993 -0.58773375 -0.09814136 0.12445547
0.5501008 0.22688599 -0.30459335 0.3850385 0.4012166 -0.10539145 0.07038986 0.5951933
-0.11490383 0.054080296 -0.047198895 0.009706283 0.46649665 0.2074521 0.47147232 -0.15664814
0.5078055 -0.08663677 0.4160193 0.14609165 0.20730764 -0.4710159 -0.15269373 -0.012137049
-0.46660402 -0.04830431 0.016114712 0.6416606 -0.1500977 -0.015655799 0.44915107 -0.08800803
-0.21384545 -0.23030901 0.07672001 -0.01691655 0.54014885 1.2986232 0.29644287 0.61896557
-0.48443308 -0.43666857 0.32567412 -0.50883335 0.082686864 -0.6218597 0.69344115 0.19067203
-0.5748578 -0.18112718 0.14168496 0.83169943 -0.48036972 -0.3262989 -0.19137453 -0.6745405
-0.0647918 -0.2493124 -0.2753375 0.104489945 -0.2380016 1.3228371 0.2671895 0.6586607
-0.56199574 -0.20278998 -0.2959316 -0.804059 -0.26463664 -0.5657071 1.3674408 0.28461885
-1.0335675 -0.18349627 0.023389341 0.24688545 0.74236095 0.017890573 0.23969029 0.9760898
-0.031282913 0.4005062 1.380914 0.28483355 0.5513191 -0.024525532 -0.3102782 0.5738881
0.3787276 0.03082618 0.094988555 -0.3989242 -0.40797234 0.016620027 -0.22669213 -0.24447712
0.31325915 0.8102392 -0.041918606 0.43622607 1.2599068 0.33181098 0.32260048 1.1011919
0.24538106 0.25506458 0.01811294 -0.07953513 0.51178527 -0.043913376 -0.25076416 -0.48876554
0.6499468 0.28775057 0.77417386 -0.97939515 -0.3237335 -0.25219357 -0.4957696 0.22898506
00000000: 298e f2be 288e ffbe f7f7 7b3d 01fb 1e3f
00000010: 2d68 b4be 860f 5fbe 9762 30be 0d1e 943d
00000020: 6696 613d 27e8 163f f3a2 663f d8d3 783e
00000030: 8032 12bf 72cc 07be 11b6 aa3d c37b c83d
00000040: 9514 68be 4011 223e d664 02bf d7f3 2a3e
00000050: 5139 59bc b16e 89be e702 81bd 6ef5 e03e
00000060: f90d 513e 80a2 c73c 4a23 7ebe aba0 073e
00000070: 52c2 b73e 7c05 65be fb8e 2d3f 965c 363e
00000080: 1169 fd3e a5c1 c7be ad6e 843f 9f2a a73e
00000090: 74a7 923e 59d2 febd e9d6 ecbd be0e 213f
000000a0: c5d9 773f 9f2d a13e d42c 3d3f 59af 79be
000000b0: 31cb 98be 6a3e aa3e ed90 413f c1c0 253e
000000c0: c03a 6f3e d581 0fbf 535a 92be e653 7d3c
000000d0: c652 553d c46e 223e 1089 db3d 3279 513f
000000e0: fb54 1e3e eb9a 0c3f 57c5 60be fb45 6abe
000000f0: 016d a9be 1d54 b83f a73f 913e 140b bc3e
00000100: 3d6a fdbc 64e4 a1bc ca8f cbbe 2878 d53d
00000110: dbb3 c83d b875 16bf 56fe c8bd 82e2 fe3d
00000120: 68d3 0c3f cd54 683e a9f3 9bbe c423 c53e
00000130: 436c cd3e 79d7 d7bd 8f28 903d 975e 183f
00000140: b352 ebbd 4d83 5d3d a153 41bd 1a07 1f3c
00000150: a6d8 ee3e 536e 543e d264 f13e 5f68 20be
00000160: 8bff 013f 9e6e b1bd 7b00 d53e 0d99 153e
00000170: 7448 543e ff28 f1be bf5b 1cbe 79da 46bc
00000180: b9e6 eebe bdda 45bd 0003 843c de43 243f
00000190: 36b3 19be 9740 80bc 21f7 e53e 8e3d b4bd
000001a0: 4dfa 5abe 20d6 6bbe 611f 9d3d 9494 8abc
000001b0: 3247 0a3f 4939 a63f 5cc7 973e 8774 1e3f
000001c0: 9d07 f8be 0693 dfbe c2be a63e e742 02bf
000001d0: bb57 a93d 3332 1fbf 5c85 313f 873f 433e
000001e0: e129 13bf 6779 39be dd15 113e 41ea 543f
000001f0: 05f3 f5be a610 a7be aff7 43be b0ae 2cbf
00000200: 90b1 84bd c04b 7fbe 09f9 8cbe d3fe d53d
00000210: b1b6 73be ba52 a93f 10cd 883e fd9d 283f
00000220: f4de 0fbf 2da8 4fbe 5984 97be d0d6 4dbf
00000230: 747e 87be 2ed2 10bf 4d08 af3f 90b9 913e
00000240: f14b 84bf 72e6 3bbe 019b bf3c 8acf 7c3e
00000250: 5e0b 3e3f 408f 923c 5f71 753e 05e1 793f
00000260: 8322 00bd 260f cd3e cac1 b03f b4d5 913e
00000270: 4023 0d3f c5e9 c8bc c9dc 9ebe 55ea 123f
00000280: 96e8 c13e 2f87 fc3c 5c89 c23d cb3f ccbe
00000290: c0e1 d0be b926 883c fb21 68be 3658 7abe
000002a0: 8163 a03e d66b 4f3f d8b2 2bbd 0659 df3e
000002b0: a044 a13f 21e3 a93e e42b a53e dbf3 8c3f
000002c0: 2c45 7b3e d397 823e 9761 943c 50e3 a2bd
000002d0: 5c04 033f 83de 33bd 2964 80be 7a3f fabe
000002e0: ea62 263f 0b54 933e 4230 463f a4b9 7abf
000002f0: 66c0 a5be 841f 81be 83d5 fdbe 0f7b 6a3e

fc1.bias f4 [64]
0.2896652 -0.70351106 -0.6469369 -0.44876322 0.29017368 0.61845255 -0.32371292 -0.13870575
-0.76773494 0.5664037 0.5369831 -0.29693505 0.43617317 0.61468357 0.7884537 0.29410982
-0.20914488 0.07594022 0.4525047 -0.67306006 0.07163824 -0.48028767 -0.13016653 -0.23951699
0.6625733 0.75299555 0.14383018 0.61813796 0.5261743 -0.3237418 0.4188771 0.1966308
0.2793803 -0.2871266 0.75245374 0.14307405 -0.39455304 -0.7254235 0.5120864 0.35466006
0.14094141 0.8624083 0.20160353 -0.4427401 -0.01019335 0.44546476 0.079487436 0.2704895
0.725813 0.19008955 0.24482535 0.6351947 0.7995618 -0.29907644 -0.20725429 -0.83640736
0.598301 -0.6279729 -0.30905226 0.6207445 0.34512213 -0.7728674 -0.6360014 0.054380562
00000000: ff4e 943e 4d19 34bf a89d 25bf 4bc4 e5be
00000010: a591 943e e852 1e3f b3bd a5be e108 0ebe
00000020: 478a 44bf d5ff 103f b977 093f df07 98be
00000030: 1752 df3e e75b 1d3f 1ad8 493f 9095 963e
00000040: 132a 56be 8c86 9b3d b2ae e73e aa4d 2cbf
00000050: 12b7 923d 44e8 f5be 604a 05be f143 75be
00000060: 679e 293f 51c4 403f 3848 133e 4a3e 1e3f
00000070: 5cb3 063f 7cc1 a5be 0f77 d63e 9659 493e
00000080: ef0a 8f3e 4202 93be cfa0 403f 0182 123e
00000090: db02 cabe 5bb5 39bf 1818 033f 0196 b53e
000000a0: f252 103e cac6 5c3f 2871 4e3e d5ae e2be
000000b0: 0202 27bc f513 e43e 4fca a23d 9a7d 8a3e
000000c0: e1ce 393f d6a6 423e 7fb3 7a3e 1f9c 223f
000000d0: 15b0 4c3f 8c20 99be 783a 54be cb1e 56bf
000000e0: 412a 193f d5c2 20bf 193c 9ebe 1de9 1e3f
000000f0: d9b3 b03e a3da 45bf fdd0 22bf 27be 5e3d

fc2.weight f4 [32, 64]
0.1429541 -0.05746619 -0.009341364 -0.27658415 0.309817 0.017117947 -0.1538578 -0.085301004
-0.097671606 0.015181616 0.07843671 0.09757977 -0.053272653 0.14222665 -0.020703407 0.05509876
-0.06325696 -0.12401449 0.08555892 0.008389993 0.0044332426 0.09108738 -0.03546298 0.07848948
0.038810685 0.10564151 -0.1776866 -0.12210039 0.060491774 -0.060844366 0.019482657 0.08159649
0.3455512 0.12515648 0.06333682 -0.010839773 -0.24371673 -0.16784355 0.015066249 0.004537143
-0.030812114 0.17929143 -0.05556482 -0.09142456 -0.22230905 0.0705672 0.026136056 -0.020958573
0.35170588 -0.026168108 -0.08527436 0.123251945 0.12320808 -0.16640192 -0.12691665 0.025714196
-0.00065247837 -0.15659566 -0.25042257 0.07067996 0.08062234 0.03618086 -0.03618376 -0.113787815
-0.046028953 -0.12651213 -0.06610041 -0.5214127 0.007228408 0.2563593 0.080888644 0.18961337
-0.009940616 0.08050491 0.17215529 0.040543083 0.09985076 0.28162807 0.18300793 0.36631876
-0.0007066418 0.17699827 0.19373503 -0.109726936 -0.25399184 -0.0034710984 -0.03127741 0.28574157
0.16394846 0.20579131 0.04350786 -0.0646503 0.20290749 -0.13291432 0.35766342 -0.035005804
-0.034574915 0.029627884 -0.0417768 0.0007702887 -0.3412022 0.0002347034 0.16134074 -0.3298668
0.069891766 0.14333138 -0.071107686 0.32669368 -0.45105997 0.17958489 0.08684503 -0.35225958
0.14964625 0.22717775 0.11098122 0.21065617 0.119743176 0.08457591 -0.1269468 -0.057685476
-0.051516403 -0.17726618 -0.29702955 -0.025644034 -0.034878038 0.12960425 -0.2377096 0.3869322
0.06957529 0.06597203 0.050467744 0.02633816 0.035492558 0.08105659 -0.05343479 -0.10556738
-0.091601074 -0.031152966 -0.063760675 -0.040654063 0.06189822 0.10010265 -0.06385679 -0.04640165
0.034955196 -0.0067074723 0.0013190934 0.00033079018 -0.0426248 -0.0007723123 0.07911152 -0.050974783
0.07867893 -0.11288904 0.056450993 0.021792293 -0.016015548 0.01447314 0.021328127 0.04439653
-0.006311234 -0.1260449 -0.13175318 -0.10372709 -0.1114113 -0.09475491 0.054130547 -0.058091972
-0.04944533 0.021572383 -0.08852917 0.05781613 0.011680931 0.08591771 -0.07861333 0.04618517
-0.090355664 0.07916371 -0.0776488 -0.12936564 -0.07182898 -0.008027047 -0.085120685 -0.04168187
-0.028074188 -0.028794095 0.102197364 0.021991089 0.10048555 -0.09456458 -0.111431435 -0.0027186407
0.10425118 -0.3080345 0.093725085 -0.36531374 0.06433427 0.12465438 0.05028577 0.19938034
-0.09783114 0.14533062 0.21855018 0.11902241 0.08538666 0.08416336 0.0360157 0.33206376
0.1034898 0.1053874 0.30000734 -0.16749962 -0.06198516 -0.08746157 -0.17020792 0.13231045
0.054172188 0.12560949 0.25659916 0.15723084 0.083963044 0.1616412 0.29674506 0.024343694
0.06709387 0.0922427 0.10348531 -0.014287347 -0.18080428 -0.15337344 0.09054236 0.0056559206
-0.06256664 0.2314867 0.008832078 0.15529072 -0.25132248 0.20798735 -0.083091855 -0.19548453
0.08287589 0.2834481 0.2553596 0.08681686 0.07512931 0.12864639 -0.0938729 -0.12160085
0.09832553 -0.26736796 -0.23602766 0.12072543 0.106471635 0.08132883 -0.05895987 0.14146677
00000000: 8f62 123e ab61 6bbd 850c 19bc 709c 8dbe
00000010: 55a0 9e3e f03a 8c3c e68c 1dbe 4bb2 aebd
00000020: 0d08 c8bd 50bc 783c 6da3 a03d e7d7 c73d
00000030: 6d34 5abd dda3 113e 319a a9bc 3daf 613d
00000040: dd8c 81bd 4ffb fdbd 8439 af3d 2e76 093c
00000050: bc44 913b 058c ba3d a141 11bd 18bf a03d
00000060: f4f7 1e3d 935a d83d 7af3 35be c50f fabd
00000070: 39c6 773d f137 79bd 189a 9f3c 101c a73d
00000080: 16ec b03e 0529 003e bcb6 813d 4e99 31bc
00000090: e190 79be 2edf 2bbe 6ed8 763c 50ac 943b
000000a0: b069 fcbc 2c98 373e f097 63bd cd3c bbbd
000000b0: fca4 63be 8985 903d 481b d63c 50b1 abbc
000000c0: cb12 b43e 805e d6bc 53a4 aebd 846b fc3d
000000d0: 8554 fc3d 4465 2abe 70f6 01be 94a6 d23c
000000e0: 150b 2bba 9d5a 20be 6337 80be a8c0 903d
000000f0: 531d a53d 6232 143d 6c35 14bd 9609 e9bd
00000100: db88 3cbd 658c 01be a75f 87bd 4d7b 05bf
00000110: 48dc ec3b 8741 833e f2a8 a53d 022a 423e
00000120: f7dd 22bc c2df a43d 7a49 303e 8110 263d
00000130: 8e7e cc3d 8e31 903e 6e66 3b3e 228e bb3e
00000140: ee3d 39ba 093f 353e 7a62 463e 84b8 e0bd
00000150: 380b 82be 5e7b 63bb be1c 00bd b84c 923e
00000160: 1be2 273e f5ba 523e 4c35 323d 6067 84bd
00000170: fbc6 4f3e b11a 08be a91f b73e 3f62 0fbd
00000180: 6d9e 0dbd 2db6 f23c 261e 2bbd 33ed 493a
00000190: 0eb2 aebe b71a 7639 8236 253e 4de4 a8be
000001a0: 6a23 8f3d 76c5 123e e8a0 91bd 6544 a73e
000001b0: 55f1 e6be 1ae5 373e cfdb b13d 5e5b b4be
000001c0: de3c 193e 49a1 683e 1f4a e33d 40b6 573e
000001d0: e93b f53d 2236 ad3d 58fe 01be 9b47 6cbd
000001e0: dd02 53bd 4485 35be 4214 98be 7013 d2bc
000001f0: 46dc 0ebd fab6 043e 256a 73be fa1b c63e
00000200: 7d7d 8e3d 581c 873d 44b7 4e3d 20c3 d73c
00000210: a560 113d ff00 a63d 70de 5abd b633 d8bd
00000220: 5899 bbbd 8134 ffbc f594 82bd e084 26bd
00000230: fd88 7d3d 9e02 cd3d 59c7 82bd a80f 3ebd
00000240: 2e2d 0f3d 5bca dbbb 6ee5 ac3a e86d ad39
00000250: 5897 2ebd 0075 4aba 3805 a23d efca 50bd
00000260: 6b22 a13d 5e32 e7bd 2839 673d c085 b23c
00000270: 0a33 83bc c020 6d3c 53b8 ae3c 23d9 353d
00000280: 78ce cebb ea11 01be 4eea 06be de6e d4bd
00000290: 9c2b e4bd dd0e c2bd feb7 5d3d d9f1 6dbd
000002a0: 3087 4abd 91b8 b03c c84e b5bd 9bd0 6c3d
000002b0: 6061 3f3c a0f5 af3d 0700 a1bd a92c 3d3d
000002c0: 640c b9bd 9520 a23d 5606 9fbd 6d78 04be
000002d0: 131b 93bd e083 03bc c153 aebd 9cba 2abd
000002e0: d7fb e5bc 98e1 ebbc da4c d13d a826 b43c
000002f0: 5ecb cd3d 13ab c1bd 2a36 e4bd 392b 32bb
00000300: a581 d53d b3b6 9dbe f0f2 bf3d 670a bbbe
00000310: b0c1 833d cc4a ff3d 74f8 4d3d 5c2a 4c3e
00000320: b15b c8bd 8dd1 143e 9ecb 5f3e 05c2 f33d
00000330: 34df ae3d d75d ac3d 3385 133d 4304 aa3e
00000340: 76f2 d33d 59d5 d73d 909a 993e 0585 2bbe
00000350: 27e4 7dbd 0d1f b3bd fc4a 2ebe 647c 073e
00000360: a8e3 5d3d c69f 003e f760 833e 1f01 213e
00000370: d1f4 ab3d 4585 253e f8ee 973e 6d6c c73c
00000380: 8368 893d bee9 bc3d 1bf0 d33d 7a15 6abc
00000390: c224 39be ed0d 1dbe 466e b93d 4d55 b93b
000003a0: f022 80bd d90a 6d3e 6cb4 103c 8804 1f3e
000003b0: 57ad 80be a3fa 543e 102c aabd 192d 48be
000003c0: d6ba a93d 1c20 913e 7ebe 823e 0acd b13d
000003d0: 65dd 993d e1bb 033e 6f40 c0bd de09 f9bd
000003e0: e55e c93d 74e4 88be 3cb1 71be e53e f73d
000003f0: cd0d da3d bb8f a63d e87f 71bd aadc 103e

fc2.bias f4 [32]
0.035079546 0.18719095 -0.05180408 0.17781594 0.25866076 -0.19686815 0.25856268 0.037927993
-0.2140626 0.2386274 -0.06748733 -0.055388357 -0.124270275 0.30571577 -0.029879102 -0.32790965
0.026492428 -0.039947923 -0.2899553 -0.07563682 0.35406643 0.22655913 0.049777653 0.2104994
0.17678124 0.173779 0.25900957 0.24822688 0.18515621 -0.015680568 0.17489615 0.2698756
00000000: 92af 0f3d fcae 3f3e 8430 54bd 6215 363e
00000010: 2f6f 843e ce97 49be 5462 843e 625a 1b3d
00000020: 3a33 5bbe be5a 743e cc36 8abd e7de 62bd
00000030: 6a81 febd c786 9c3e 05c5 f4bc c6e3 a7be
00000040: a606 d93c 6fa0 23bd 0575 94be 7ae7 9abd
00000050: 3248 b53e 1eff 673e a7e3 4b3d 288d 573e
00000060: 2406 353e 1ff3 313e e79c 843e 302f 7e3e
00000070: 9799 3d3e 8974 80bc fa17 333e 222d 8a3e

fc3.weight f4 [16, 32]
0.10280457 -0.08227743 0.0834326 -0.051563766 -0.016500717 -0.14601527 -0.15490937 -0.1037832
-0.113651 -0.1536791 -0.15492357 -0.1529729 0.079349175 -0.06377504 0.087427154 -0.17333858
0.1061017 -0.08963077 0.025180593 -0.19872837 0.0772537 -0.05074146 0.124941655 0.055866916
-0.11609033 -0.119973 -0.097533114 -0.009359688 -0.00826497 0.04468569 -0.12627058 -0.093223296
0.09767158 0.0925869 0.04981753 0.17509517 0.0896859 -0.21521285 0.14727238 0.0049470663
-0.15645064 0.2521523 -0.08577064 0.33810318 -0.090532824 0.07803492 -0.018775107 -0.35577407
-0.0388246 -0.026728602 -0.14299975 -0.06079085 0.1988544 0.07271813 0.0130881155 0.1532081
0.34106806 0.09177101 0.21998544 0.2860739 0.18220276 -0.014972011 -0.05671878 0.20871484
-0.010107063 -0.20674331 -0.0014797121 0.0037906223 -0.17814973 -0.118250705 -0.22112794 -0.014427174
0.18601581 0.10654245 0.06862111 0.1104976 0.11841406 -0.20039539 -0.026822967 -0.044375658
0.13766174 0.13715939 0.091720775 -0.114570245 -0.08795599 -0.22010066 0.12846698 -0.11491859
-0.13001417 0.04576456 -0.06510148 -0.021367125 -0.19855408 0.1880774 -0.08073115 -0.14907454
-0.08759548 0.2800875 -0.0725939 0.169137 0.009744837 -0.25095075 0.2144184 -0.011732678
-0.10623602 0.51194024 0.15449195 0.08810761 -0.044504788 0.44978958 0.05565604 -0.36533815
-0.003868114 -0.16526869 -0.20483215 -0.0041951407 0.29922882 0.27310488 -0.15146133 0.06452702
0.25196043 -0.019164382 0.2066015 0.28822097 0.3215005 0.03908369 0.13910647 0.25562686
-0.22371562 -0.103237025 -0.16364746 -0.19208822 -0.076413974 0.24485125 -0.08967129 0.11153452
0.08268587 -0.034982584 -0.03585949 -0.020791302 0.116074376 0.04348332 -0.032921128 0.098757915
-0.17743015 0.04844897 0.01999286 -0.0900087 -0.011848623 0.015300037 -0.17936319 -0.121264964
-0.00028499324 -0.05986294 -0.14446135 0.19920522 0.19320016 -0.0069671795 -0.25759497 0.07557573
0.07795627 -0.2495301 -0.059302427 -0.24801226 -0.039166387 0.046083808 -0.026898995 -0.038830817
0.18191178 -0.21415246 0.18531616 0.009901345 0.0057522375 -0.21036442 -0.08918084 0.18709724
0.03296767 -0.123012245 -0.058015946 0.049447745 0.0004516815 -0.19193812 -0.12429761 0.019918533
-0.12559082 -0.16650501 -0.21596767 -0.070218794 0.0049358993 -0.10938438 0.19236982 -0.040128917
-0.13045426 0.19430384 0.15932648 0.28826708 0.08542256 -0.12301912 0.2404544 0.16464828
0.04699883 0.32195333 -0.09447388 0.12533247 0.0020238594 0.121053495 -0.016810995 -0.4194316
0.06539372 -0.25552619 -0.37151894 -0.007280084 0.045288853 0.22428052 -0.07706327 0.06851623
0.29910368 0.08973597 0.34842923 0.18201035 0.0582164 -0.086148284 0.18058735 -0.016231736
-0.08940523 -0.027177801 0.0077783465 -0.24016397 0.062017523 0.16349699 -0.059639096 -0.13880546
0.13912092 -0.16400959 0.11422925 -0.024982005 0.009814594 -0.14752856 -0.11537096 0.010684968
0.16644192 -0.08634824 -0.042753927 -0.11462173 -0.04831846 -0.13868544 0.048784964 -0.17750587
-0.2562572 -0.1413658 -0.008597543 0.10466536 -0.1537115 0.024843732 0.091146156 -0.060628667
00000000: 348b d23d 1281 a8bd b6de aa3d 8734 53bd
00000010: 832c 87bc 0785 15be 90a0 1ebe 498c d4bd
00000020: dbc1 e8bd 0e5e 1dbe 49a4 1ebe eea4 1cbe
00000030: d281 a23d 7d9c 82bd 020d b33d ab7f 31be
00000040: d94b d93d 5690 b7bd 8847 ce3c 737f 4bbe
00000050: 3037 9e3d 47d6 4fbd 69e1 ff3d b5d4 643d
00000060: c4c0 edbd 67b4 f5bd 71bf c7bd 6059 19bc
00000070: cc69 07bc 5808 373d 134d 01be dbeb bebd
00000080: 0a08 c83d 339e bd3d 770d 4c3d 264c 333e
00000090: 3ead b73d c260 5cbe 92ce 163e 001b a23b
000000a0: 9934 20be 1b1a 813e 84a8 afbd dc1b ad3e
000000b0: 4669 b9bd c6d0 9f3d 41ce 99bc 0528 b6be
000000c0: 8b06 1fbd f1f5 dabc 876e 12be d4ff 78bd
000000d0: 7da0 4b3e 3eed 943d 896f 563c 96e2 1c3e
000000e0: 79a0 ae3e 70f2 bb3d dd43 613e 4778 923e
000000f0: 5c93 3a3e 2a4d 75bc f451 68bd 58b9 553e
00000100: 1898 25bc 85b4 53be e6f2 c1ba 176c 783b
00000110: e26c 36be 6d2d f2bd 5d6f 62be f45f 6cbc
00000120: ee7a 3e3e ee32 da3d 3989 8c3d 914c e23d
00000130: 1283 f23d 7334 4dbe d7bb dbbc 40c3 35bd
00000140: 33f7 0c3e 8373 0c3e 1ad8 bb3d cea3 eabd
00000150: 4522 b4bd 1162 61be d98c 033e 705a ebbd
00000160: 6f22 05be 9f73 3b3d ed53 85bd 1c0a afbc
00000170: c351 4bbe 5d97 403e 6056 a5bd ffa6 18be
00000180: 4265 b3bd a167 8f3e 1cac 94bd 4032 2d3e
00000190: cfa8 1f3c 9e7c 80be 7f90 5b3e 6b3a 40bc
000001a0: 4592 d9bd 840e 033f 2333 1e3e c371 b43d
000001b0: a74a 36bd d24a e63e 96f7 633d 9a0d bbbe
000001c0: 2f80 7dbb 323c 29be 85bf 51be 6477 89bb
000001d0: 8534 993e 67d4 8b3e ae18 1bbe be26 843d
000001e0: f500 813e 9ffe 9cbc 588f 533e b391 933e
000001f0: b79b a43e 3816 203d ed71 0e3e 86e1 823e
00000200: b515 65be ef6d d3bd 3393 27be c6b2 44be
00000210: ee7e 9cbd 49ba 7a3e 95a5 b7bd 366c e43d
00000220: 3657 a93d e649 0fbd 67e1 12bd 8552 aabc
00000230: 67b8 ed3d 911b 323d 4ed8 06bd 9741 ca3d
00000240: 40b0 35be 6d72 463d 11c8 a33c 7b56 b8bd
00000250: ba20 42bc 02ad 7a3c fcaa 37be c459 f8bd
00000260: 256b 95b9 d832 75bd aded 13be 74fc 4b3e
00000270: 43d6 453e f04c e4bb 7de3 83be 73c7 9a3d
00000280: 89a7 9f3d d284 7fbe 1ae7 72bd edf6 7dbe
00000290: ef6c 20bd 60c2 3c3d 485b dcbc 100d 1fbd
000002a0: 1547 3a3e c84a 5bbe 85c3 3d3e 4039 223c
000002b0: 447d bc3b c569 57be 72a4 b6bd 6b96 3f3e
000002c0: 1c09 073d d8ed fbbd 21a2 6dbd b889 4a3d
000002d0: aacf ec39 6d8b 44be bf8f febd 312c a33c
000002e0: e19a 00be 4a80 2abe a126 5dbe dfce 8fbd
000002f0: 53bd a13b eb04 e0bd 98fc 443e 385e 24bd
00000300: cd95 05be 96f7 463e 7b26 233e be97 933e
00000310: 06f2 ae3d 73f1 fbbd ae39 763e 8f99 283e
00000320: d881 403d 11d7 a43e 867b c1bd 2857 003e
00000330: baa2 043b e5ea f73d 36b7 89bc bdbf d6be
00000340: 25ed 853d 54d4 82be bb37 bebe c58d eebb
00000350: ce80 393d cba9 653e 59d3 9dbd 3d52 8c3d
00000360: 1e24 993e 7ec7 b73d 5165 b23e ec60 3a3e
00000370: 5274 6e3d 836e b0bd e4eb 383e 6bf8 84bc
00000380: 171a b7bd fba3 debc 80e1 fe3b 8bed 75be
00000390: 1606 7e3d c16b 273e 2048 74bd 0523 0ebe
000003a0: b775 0e3e 21f2 27be 06f1 e93d 10a7 ccbc
000003b0: 64cd 203c ba11 17be 9c47 ecbd 0110 2f3c
000003c0: c06f 2a3e 59d7 b0bd be1e 2fbd ccbe eabd
000003d0: 94e9 45bd 8e03 0ebe bed2 473d 19c4 35be
000003e0: 2534 83be 32c2 10be b6dc 0cbc cb5a d63d
000003f0: 8c66 1dbe 1585 cb3c d6aa ba3d c455 78bd

fc3.bias f4 [16]
-0.19875857 0.28430626 0.046730254 0.45075867 -0.18769605 -0.22421837 0.43634647 -0.109551534
0.330261 -0.09492493 0.42011616 -0.14670406 -0.10255267 -0.3171718 0.43612307 -0.1671802
00000000: 5e87 4bbe 9790 913e 3968 3f3d d7c9 e63e
00000010: 6533 40be 8099 65be ce68 df3e 8e5c e0bd
00000020: f817 a93e 0068 c2bd 7719 d73e 9739 16be
00000030: 2207 d2bd 5864 a2be 864b df3e 4931 2bbe

fc_value.weight f4 [1, 16]
-0.007132637 0.33444643 -0.1568123 0.31674993 -0.2985784 -0.1927907 0.15884636 -0.29524583
0.30798376 -0.11590924 0.20508853 -0.108728446 -0.20275955 -0.28993034 0.23320663 -0.21856716
00000000: e5b8 e9bb 903c ab3e 6793 20be 0c2d a23e
00000010: 45df 98be ed6a 45be 9fa8 223e 762a 97be
00000020: 0cb0 9d3e d361 edbd ba02 523e 05ad debd
00000030: 33a0 4fbe c071 94be b8cd 6e3e 12d0 5fbe

exp_avg f4 [64, 3]
0.00023600586 0.00055827206 -0.002717171 -0.009859914 0.00088180834 -0.023471313 -6e-45 -6e-45
6e-45 -0.08372812 -0.022033097 0.16730165 0.0010483221 0.0015623332 -0.011433425 0.023917865
0.01335792 -0.09372121 -1.129984e-05 -0.00037395628 0.009682833 0.0021997506 0.005066039 -0.030887108
-0.0016601094 -0.00015880328 -0.0014577319 0.010566157 0.0027992 0.0038077044 0.022503478 0.010989106
-0.07328854 -0.0010852949 -0.002416076 0.017443834 0.011103719 0.0035470715 -0.004532138 0.038628932
0.027869873 -0.18236105 0.01819702 0.004972428 -0.0031532776 0.0484394 0.03630437 -0.22898424
-0.0022371674 -7.497415e-05 -0.0003290173 0.013073286 0.0052131126 -0.030608451 0.032201063 0.023931796
-0.14619778 -0.0018177127 -0.00042582492 -0.0043995376 -0.0064351307 -0.018954273 0.11216517 6e-45
-6e-45 -6e-45 0.00066714344 0.00055372674 -0.006409521 0.0041215294 0.0076371417 -0.04976888
0.012707316 0.0022617825 0.0033601925 0.025232995 0.0075966567 -0.01074001 0.017379746 0.0035935284
0.008690397 0.019879919 0.0103058815 -0.05064541 0.017903812 0.008846871 -0.0584276 0.00058864243
0.0005261481 0.0039845947 0.033407483 0.017310748 -0.107884645 0.00017326955 -0.0005130759 0.0069277314
0.0003417946 -0.0013071104 0.008880811 0.0055310694 0.000115751754 -0.0019582948 0.0139900325 0.004552212
-0.0042503336 -0.00026153986 -0.00052474346 0.0010218942 -0.072621636 -0.013285279 0.117435165 -0.0060652755
0.00039846075 -0.008857219 0.017156117 0.009104261 -0.076742366 -0.0040427665 -0.019356014 0.09232461
0.0011826241 0.0028578176 -0.022432163 0.022169873 0.0070316005 -0.008064779 -0.008133606 -0.0008492777
0.00051663927 0.0036000842 0.005861737 -0.044689078 -0.0116223395 -0.031007713 0.1830098 0.022269402
0.0058130533 -0.009216534 -0.0008925638 -0.00012056972 -0.003310303 -0.0102203125 -0.02759555 0.16197291
0.011174365 0.013135437 -0.056337424 0.029891418 0.0068937326 -0.0195438 0.029921954 0.0064132446
0.015139899 0.036667313 0.03000446 -0.19642395 0.012629828 0.0035121597 -0.00019544813 0.008739134
0.0014372098 -0.0073058554 -0.0030359493 -3.5608617e-05 -0.0052676504 -0.0008646463 -7.771387e-05 -0.00067457836
0.020409765 0.004242522 0.0034525406 -0.012788275 -0.013870406 0.10216016 -0.015078969 -0.011141697
0.0764781 0.0181522 0.0085731065 -0.026014065 0.008991316 0.0015356031 0.0005094607 0.0011906066
0.0010234069 -0.006889225 -0.027211506 0.0009379809 -0.013711664 0.0055177156 0.011639769 -0.087478064
00000000: 5778 7739 0159 123a 9112 32bb 7a8b 21bc
00000010: 2829 673a e946 c0bc 0400 0080 0400 0080
00000020: 0400 0000 a679 abbd c17e b4bc 2051 2b3e
00000030: da67 893a 34c7 cc3a 4353 3bbc 66ef c33c
00000040: 2ddb 5a3c e8f0 bfbd 7194 3db7 900f c4b9
00000050: bfa4 1e3c b129 103b 0401 a63b f606 fdbc
00000060: 0798 d9ba 6e84 26b9 5e11 bfba ad1d 2d3c
00000070: c872 373b ae8a 793b 3759 b83c a70b 343c
00000080: 4d18 96bd 7440 8eba 0757 1ebb 5fe6 8e3c
00000090: 5fec 353c fc75 683b 5482 94bb 5f39 1e3d
000000a0: 5c4f e43c dbbc 3abe eb11 953c c0ef a23b
000000b0: 38a7 4ebb 6468 463d e4b3 143d d87a 6abe
000000c0: 719d 12bb 713b 9db8 f47f acb9 5631 563c
000000d0: c2d2 aa3b 93be fabc 43e5 033d 9d0c c43c
000000e0: dfb4 15be 5140 eeba 4141 dfb9 ff29 90bb
000000f0: cadd d2bb fe45 9bbc dab6 e53d 0400 0000
00000100: 0400 0080 0400 0080 3de3 2e3a f927 113a
00000110: f606 d2bb e50d 873b fd40 fa3b 74da 4bbd
00000120: 5932 503c 6a3a 143b ad36 5c3b 6db5 ce3c
00000130: 60ed f83b def6 2fbc f85f 8e3c 6781 6b3b
00000140: 2b62 0e3c 36db a23c 00da 283c 9071 4fbd
00000150: 04ab 923c 77f2 103c c751 6fbd 204f 1a3a
00000160: 34ed 093a 3491 823b 49d6 083d 45cf 8d3c
00000170: a0f2 dcbd b1af 3539 f17f 06ba 0602 e33b
00000180: e532 b339 5953 abba d280 113c f93d b53b
00000190: c0bf f238 bc56 00bb 7336 653c b92a 953b
000001a0: 6246 8bbb 491f 89b9 f08e 09ba 14f1 853a
000001b0: a7ba 94bd 80aa 59bc d981 f03d 38bf c6bb
000001c0: 7fe8 d039 de1d 11bc fc8a 8c3c 0a2a 153c
000001d0: 1a2b 9dbd 2f79 84bb 8190 9ebc af14 bd3d
000001e0: 4802 9b3a 394a 3b3b a8c3 b7bc 989d b53c
000001f0: 5769 e63b 2322 04bc d142 05bc 10a2 5eba
00000200: 136f 073a 64ef 6b3b d013 c03b e50b 37bd
00000210: a06b 3ebc e303 febc ec66 3b3e 526e b63c
00000220: 6d7b be3b f200 17bc f1fa 69ba 60da fcb8
00000230: abf1 58bb 1973 27bc 1010 e2bc 3adc 253e
00000240: af14 373c 0436 573c 12c2 66bd d9de f43c
00000250: d2e4 e13b 521a a0bc e31e f53c 3226 d23b
00000260: 570d 783c 7730 163d eacb f53c 5c23 49be
00000270: 57ed 4e3c 432c 663b 35f1 4cb9 962e 0f3c
00000280: c260 bc3a f565 efbb c7f6 46bb 765a 15b8
00000290: 419c acbb 6ea9 62ba 51fa a2b8 30d6 30ba
000002a0: 6132 a73c db04 8b3b 0544 623b ea85 51bc
000002b0: b340 63bc 5939 d13d c80d 77bc aa8b 36bc
000002c0: 8da0 9c3d ecb3 943c 3776 0c3c 731b d5bc
000002d0: 5050 133c 4a46 c93a 548d 053a 210e 9c3a
000002e0: d623 863a 02bf e1bb aaea debc d5e2 753a
000002f0: e3a6 60bc f4cd b43b bbb4 3e3c b327 b3bd

exp_avg_sq f4 [64, 3]
4.413989e-05 3.8428992e-05 0.0013031252 0.009659661 0.010029694 0.24642843 3.075956e-08 5.58477e-08
2.2532993e-06 0.039569527 0.013401293 0.7279718 0.00013733294 0.00020462254 0.008158774 0.00824281
0.004202394 0.1461284 0.000102634614 0.00020492625 0.0071686814 0.0002723312 0.00026222746 0.015330717
0.0001853505 0.0002990731 0.006711768 0.0018473807 0.0010992597 0.022604804 0.0057155374 0.0027807637
0.10394581 0.00031194845 0.0002801637 0.012865406 0.0019576596 0.0011891567 0.028792923 0.02247134
0.0113926325 0.45881027 0.00403455 0.0022544917 0.049214564 0.03404194 0.017518038 0.7207233
0.00021977608 0.00015876262 0.003657988 0.0013549154 0.00052535214 0.018216783 0.015417788 0.009787216
0.4448127 0.00097116304 0.0009537691 0.02271135 0.011769823 0.008664489 0.3337149 5.339394e-07
7.495578e-07 2.0505036e-05 2.2793784e-05 2.5660316e-05 0.0011514028 0.0004504372 0.000907275 0.039925154
0.0019394469 0.0011805253 0.024078267 0.010865172 0.0064666206 0.1638516 0.004616351 0.0026395477
0.07696177 0.004875414 0.0037933353 0.11204324 0.002792607 0.0014415411 0.055790707 9.786205e-05
0.00010821599 0.0044385497 0.014814945 0.007044835 0.24304964 6.182648e-05 0.0001299266 0.002651524
7.932357e-05 0.00014169289 0.003064624 0.00046680085 0.00012680226 0.0036562316 0.0024732496 0.0012149496
0.02419039 0.00014469729 0.00010878062 0.002799609 0.035247814 0.011918956 0.6218202 0.00414885
0.0042295265 0.10168682 0.0034846098 0.0019944885 0.06872654 0.006067988 0.0071295695 0.24552803
0.00021673803 0.00026733734 0.009589288 0.0060960418 0.003478971 0.074093364 0.0015892637 0.0009982515
0.034797 0.00028516396 0.00052223133 0.025358653 0.03230636 0.022006929 0.9028225 0.0071481653
0.0043293755 0.10946977 0.0002442899 0.0002673814 0.0057838475 0.017768528 0.016016334 0.63949287
0.0014282296 0.005856947 0.12701517 0.015788492 0.006744402 0.32099065 0.010060408 0.0041114124
0.19794524 0.025205774 0.014599408 0.67719024 0.002102304 0.001090834 0.02098705 0.0014501939
0.00032627574 0.012038955 0.0011345191 0.0012475335 0.026429875 5.1284773e-05 0.00014851356 0.0032606616
0.006700902 0.003263632 0.1228446 0.016330238 0.008067655 0.44782183 0.027713735 0.009352888
0.4600397 0.0051537445 0.0034785834 0.08821466 0.0009004181 0.0004542739 0.009626923 3.567294e-05
4.129111e-05 0.0033094047 0.007097272 0.0049867225 0.12092732 0.0025582945 0.0022093162 0.11106603
00000000: d922 3938 d12e 2138 a0cd aa3a 8e43 1e3c
00000010: 9653 243c bc57 7c3e 7e1c 0433 32dd 6f33
00000020: 6337 1736 a813 223d 1991 5b3c 5c5c 3a3f
00000030: 0801 1039 f28f 5639 61ac 053c da0c 073c
00000040: 3cb4 893b afa2 153e 8a3d d738 79e1 5639
00000050: 42e7 ea3b adc7 8e39 937b 8939 b02d 7b3c
00000060: a55a 4239 e9cc 9c39 64ee db3b cf23 f23a
00000070: 0915 903a b62d b93c 6749 bb3b 793d 363b
00000080: 8ae1 d43d 038d a339 efe2 9239 6dc9 523c
00000090: 144c 003b 7add 9b3a 23df eb3c d115 b83c
000000a0: 2aa8 3a3c 2ee9 ea3e 4234 843b 18c0 133b
000000b0: 3695 493d 906f 0b3d fd81 8f3c 5281 383f
000000c0: b173 6639 8479 2639 dbba 6f3b 6b97 b13a
000000d0: c9b7 093a 5d3b 953c e49a 7c3c 8f5a 203c
000000e0: 7dbe e33e a695 7e3a 5c06 7a3a 270d ba3c
000000f0: 37d6 403c 80f5 0d3c aedc aa3e 0954 0f35
00000100: 3835 4935 3b02 ac37 4735 bf37 1c41 d737
00000110: abea 963a a828 ec39 32d6 6d3a 8f88 233d
00000120: 0a35 fe3a dbbb 9a3a c93f c53c d603 323c
00000130: f2e5 d33b b7c8 273e c244 973b 43fc 2c3b
00000140: 229e 9d3d f0c1 9f3b 9b99 783b ed76 e53d
00000150: 2c04 373b 18f2 bc3a cc84 643d 4a3b cd38
00000160: 04f2 e238 4171 913b 62ba 723c 5cd8 e63b
00000170: 01e2 783e d7a8 8138 e83c 0839 31c5 2d3b
00000180: 845a a638 6593 1439 dcd7 483b f3bc f439
00000190: 39f6 0439 639d 6f3b 3e16 223b f23e 9f3a
000001a0: ed2a c63c e2b9 1739 2721 e438 a579 373b
000001b0: 0360 103d ba47 433c 9c2f 1f3f 14f3 873b
000001c0: d797 8a3b 2e41 d03d 0d5e 643b f7b5 023b
000001d0: 80c0 8c3d f9d5 c63b 2a9f e93b b36b 7b3e
000001e0: 2c44 6339 6929 8c39 641c 1d3c 4ec1 c73b
000001f0: 73ff 633b 43be 973d d74e d03a c3d7 823a
00000200: 4d87 0e3d 0f82 9539 5ae6 083a f3bc cf3c
00000210: ac53 043d e047 b43c 601f 673f 283b ea3b
00000220: 6fdd 8d3b b031 e03d 0914 8039 532f 8c39
00000230: 6e86 bd3b 4e8f 913c b034 833c ceb5 233f
00000240: 6f33 bb3a a2eb bf3b 4410 023e de56 813c
00000250: 2500 dd3b e358 a43e 69d4 243c 07b9 863b
00000260: 28b2 4a3e 577c ce3c 5b32 6f3c 575c 2d3f
00000270: cfc6 093b 51fa 8e3a 09ed ab3c 6f14 be3a
00000280: fd0f ab39 0a3f 453c 25b4 943a 4784 a33a
00000290: 7783 d83c 9b1a 5738 4eba 1b39 d3b0 553b
000002a0: 3d93 db3b a9e2 553b f395 fb3d fec6 853c
000002b0: 332e 043c e748 e53e ea07 e33c db3c 193c
000002c0: 538a eb3e bee0 a83b f2f8 633b e3a9 b43d
000002d0: 090a 6c3a 9c2b ee39 3eba 1d3c 879f 1538
000002e0: fe2f 2d38 99e2 583b 3c90 e83b a967 a33b
000002f0: bea8 f73d 0fa9 273b 2dca 103b 9676 e33d

exp_avg f4 [64]
-0.0009126451 0.0006187104 6e-45 -0.049326684 -0.0017943853 0.0056719068 -0.00012306221 -0.0051709
-0.00028773828 0.011068788 0.0067118406 0.003982284 0.008573357 0.012546431 0.0143491365 0.02120535
-0.0016416303 0.0066950535 0.008927631 0.00062833616 0.011227753 6e-45 -0.0010027917 -0.009820657
0.010898666 0.019616507 0.017083948 0.0050142575 0.004822167 -5.373654e-05 0.0116975475 -0.0004024696
0.000871795 0.005363867 0.013055365 0.0002690732 -0.047287874 -0.0018342853 0.0020742756 0.018050889
-0.0041922727 0.01660471 -0.0033939534 -0.00837356 0.019055296 0.014874704 3.1514905e-05 0.020346103
-0.0127175385 0.029233066 0.023932047 0.009644603 0.011297415 0.009689285 -0.0008194599 -0.00015179026
0.016092973 0.013056081 0.0027481036 0.010279831 0.008099092 -0.0007145387 -0.019461727 -0.017663416
00000000: 933e 6fba f430 223a 0400 0000 c70a 4abd
00000010: 9431 ebba 67db b93b 430a 01b9 a770 a9bb
00000020: 94db 96b9 dd59 353c 00ef db3b d27d 823b
00000030: 4477 0c3c 8c8f 4d3c a418 6b3c d8b6 ad3c
00000040: f92b d7ba 2e62 db3b 3345 123c edb6 243a
00000050: 9cf4 373c 0400 0000 1b70 83ba d2e6 20bc
00000060: 5290 323c ccb2 a03c a3f3 8b3c a44e a43b
00000070: 4503 9e3b 2c63 61b8 12a7 3f3c 8e02 d3b9
00000080: 2c89 643a 61c3 af3b 2be6 553c 6512 8d39
00000090: eeb0 41bd 676c f0ba 92f0 073b 75df 933c
000000a0: 555f 89bb 9a06 883c 176d 5ebb 4231 09bc
000000b0: da19 9c3c 08b5 733c df2e 0438 dfac a63c
000000c0: 395d 50bc 2f7a ef3c 240d c43c 6604 1e3c
000000d0: cb18 393c cfbf 1e3c 06d1 56ba e329 1fb9
000000e0: 69d5 833c 2ce9 553c 8719 343b bc6c 283c
000000f0: 0eb2 043c e14f 3bba 336e 9fbc deb2 90bc

exp_avg_sq f4 [64]
7.18052e-05 0.014515683 5.460428e-08 0.05720879 0.0002909784 0.012010578 0.00019349402 0.00061159383
0.00030289276 0.0022217897 0.008622184 0.000615581 0.0025466387 0.035435304 0.0050072293 0.056499254
0.00031504457 0.0018967644 0.028367922 0.001426804 0.021761363 6.7669936e-07 4.1246964e-05 0.0013118379
0.0022646158 0.014038759 0.0061507924 0.007071384 0.00437492 0.00018449246 0.021654923 9.4116374e-05
0.00015078332 0.00060431246 0.002993731 0.00017460293 0.050493523 0.005962547 0.0052457866 0.013421041
0.0004677537 0.0075958427 0.0022997595 0.000859538 0.05764242 0.009573754 0.000360219 0.035371467
0.0035627168 0.025381012 0.015675921 0.04520136 0.0024567791 0.0018653077 0.0015312411 0.00010160692
0.009208172 0.026254024 0.039307337 0.0071231443 0.0010680174 0.00012764477 0.009379073 0.0056882347
00000000: 2096 9638 30d3 6d3c 0a86 6a33 c453 6a3d
00000010: 768e 9839 04c8 443c a8e4 4a39 5e53 203a
00000020: 94cd 9e39 729b 113b 1044 0d3c f15e 213a
00000030: 82e5 263b 9c24 113d af13 a43b c36b 673d
00000040: 912c a539 da9c f83a d863 e83c 9903 bb3a
00000050: e344 b23c 6da6 3535 9700 2d38 faf1 ab3a
00000060: f369 143b d302 663c 968c c93b 12b7 e73b
00000070: 7d5b 8f3b 5174 4139 aa65 b13c 5860 c538
00000080: 971b 1e39 b96a 1e3a 7932 443b 9e15 3739
00000090: 4cd2 4e3d 7861 c33b d9e4 ab3b ede3 5b3c
000000a0: d73c f539 8ce6 f83b 90b7 163b 9e52 613a
000000b0: 751a 6c3d 3cdb 1c3c c7db bc39 ace1 103d
000000c0: 787c 693b d7eb cf3c ca6a 803c 1025 393d
000000d0: ea01 213b 577d f43a edb3 c83a cd15 d538
000000e0: dfdd 163c ae12 d73c bb00 213d 4469 e93b
000000f0: b8fc 8b3a 62d8 0539 afaa 193c 5f64 ba3b

exp_avg f4 [32, 64]
-0.0012264979 0.00011413903 6e-45 0.00010601931 -0.0010152642 -0.00059765513 -2.0372068e-05 -0.0024749783
0.00017815475 0.0017521573 -0.0012628656 -0.00067681883 0.0014721748 0.0005076935 0.0032535826 0.00061676407
0.00037996675 -0.0008098429 0.00043491894 0.00014600073 -0.00046079548 6e-45 -0.00037087034 -0.0006088325
0.0028163907 0.0023359745 0.0006619572 0.0005252074 -0.0014692736 0.0001278556 -0.000110841196 -0.00044727002
-0.00060421013 0.00057391584 0.0025453027 -3.251584e-05 5.5735294e-05 0.00034006767 -2.1498068e-05 -0.000964204
-0.001207762 0.0035293745 -0.0004616731 -0.0003641013 -0.00037428082 0.0021854802 0.00019685105 -0.00076782855
-0.0013262194 0.00092831696 0.0011335828 0.0008332682 0.0030323504 0.00046239 0.00037894768 3.1185606e-05
0.0019031218 -6.767201e-05 -5.3559528e-05 0.0016319444 0.0020098914 -0.00035505713 0.0005729552 -0.0019045243
-0.00833128 0.00021471198 6e-45 0.00024057463 -0.0077493084 -0.0062930677 -0.00055648625 -0.016968912
-0.00066496903 0.0052288338 -0.011814736 -0.006926073 0.004462177 -0.0005936578 0.009625647 0.0017064176
-0.0005861523 -0.005537823 0.0006505101 -3.9541654e-05 -0.0044700196 6e-45 -0.0036044107 -0.0052413805
0.008488355 0.0087454505 0.0022609737 0.0002760057 -0.012632292 -3.53729e-05 -0.003140405 -0.0041633807
-0.0050946656 0.0019714527 0.0077593923 -0.001117718 -0.0003358246 -0.0011673929 -0.0025071064 -0.007477715
-0.008990475 0.010104322 -0.0031642814 -0.00245175 -0.0038756998 0.006186608 -0.002117569 -0.006477924
-0.011293811 0.0045837015 0.005480579 0.0015586652 0.0088465195 0.0019189768 -0.001830752 -0.0010272869
0.007981597 -0.0014465407 -0.0009855978 0.0056484058 0.005567599 -0.005116103 0.0012814312 -0.012197946
6e-45 0.0 0.0 0.0 6e-45 6e-45 0.0 6e-45
6e-45 6e-45 6e-45 -6e-45 6e-45 6e-45 6e-45 6e-45
6e-45 6e-45 6e-45 6e-45 6e-45 0.0 6e-45 6e-45
6e-45 6e-45 0.0 6e-45 6e-45 0.0 6e-45 6e-45
6e-45 6e-45 6e-45 0.0 0.0 6e-45 6e-45 6e-45
6e-45 6e-45 6e-45 6e-45 0.0 6e-45 6e-45 6e-45
6e-45 6e-45 0.0 6e-45 6e-45 0.0 6e-45 0.0
6e-45 0.0 0.0 6e-45 6e-45 -6e-45 6e-45 6e-45
-0.006698725 0.00023876372 6e-45 0.00042165033 -0.0060386313 -0.004701712 -0.00039132283 -0.013484675
-0.00031127845 0.0050549116 -0.008872218 -0.004975318 0.0042212545 0.0003679173 0.0091592735 0.0019061074
-9.65686e-05 -0.0043679513 0.0010933538 9.012948e-05 -0.00297936 6e-45 -0.0027153394 -0.0040699556
0.008068453 0.008001372 0.002170171 0.0006943686 -0.009583938 8.4674284e-05 -0.002108042 -0.003182781
-0.0038965484 0.0017986465 0.007344832 -0.00074011274 0.000104441395 -0.000524658 -0.0017738307 -0.005570195
-0.0070642503 0.009699606 -0.0025524604 -0.0019790726 -0.0025557969 0.0059517305 -0.0012874873 -0.004564509
-0.008640545 0.004056827 0.0048717014 0.0022096406 0.008470202 0.0016877789 -0.0009460462 -0.00067739945
0.007223661 -0.0007875965 -0.00046222188 0.0052315313 0.0054041333 -0.0036652926 0.0013320857 -0.009893035
00000000: 71c2 a0ba ed5d ef38 0400 0000 af56 de38
00000010: 9d12 85ba f5ab 1cba afe4 aab7 3f33 22bb
00000020: 0dcf 3a39 a5a8 e53a bd86 a5ba 8b6c 31ba
00000030: fdf5 c03a bc16 053a 0f3a 553b 56ae 213a
00000040: 4636 c739 a34b 54ba d505 e439 c617 1939
00000050: ec96 f1b9 0400 0000 6071 c2b9 0f9a 1fba
00000060: 3293 383b 2617 193b 3287 2d3a 12ae 093a
00000070: a494 c0ba fa10 0639 6a73 e8b8 917f eab9
00000080: db63 1eba d772 163a 18cf 263b 9e61 08b8
00000090: 51c5 6938 1c4b b239 c056 b4b7 a3c2 7cba
000000a0: c54d 9eba 144d 673b b70c f2b9 d9e4 beb9
000000b0: 1f3b c4b9 463a 0f3b cd69 4e39 1a48 49ba
000000c0: 8ad4 adba 4c5a 733a ba94 943a af6f 5a3a
000000d0: 66ba 463b ef6c f239 7fad c639 4acd 0238
000000e0: 2c72 f93a 22eb 8db8 1ba5 60b8 f8e6 d53a
000000f0: 62b8 033b f626 bab9 5f32 163a 3ba1 f9ba
00000100: ec7f 08bc 4f24 6139 0400 0000 c342 7c39
00000110: e9ed fdbb 1436 cebb 29e1 11ba 6302 8bbc
00000120: 5151 2eba a356 ab3b 9892 41bc 1df4 e2bb
00000130: 7437 923b b39f 1bba e4b4 1d3c e0a9 df3a
00000140: 04a8 19ba a076 b5bb fe86 2a3a 87d9 25b8
00000150: 3e79 92bb 0400 0000 fa37 6cbb e3bf abbb
00000160: be12 0b3c 1449 0f3c d82c 143b dcb4 9039
00000170: acf7 4ebc 5d5d 14b8 41cf 4dbb f86c 88bb
00000180: 27f1 a6bb 7d33 013b 8042 fe3b 6580 92ba
00000190: 9d11 b0b9 3503 99ba 444e 24bb 9f07 f5bb
000001a0: c94c 13bc 998c 253c d55f 4fbb 8aad 20bb
000001b0: 74ff 7dbb 08b9 ca3b eac6 0abb c444 d4bb
000001c0: ad09 39bc e032 963b 6e96 b33b 204c cc3a
000001d0: fef0 103c 2d86 fb3a d8f5 efba 07a6 86ba
000001e0: 3fc5 023c da99 bdba 2d2f 81ba 4316 b93b
000001f0: 6870 b63b fca4 a7bb b2f5 a73a e5d9 47bc
00000200: 0400 0000 0000 0000 0000 0000 0000 0000
00000210: 0400 0000 0400 0000 0000 0000 0400 0000
00000220: 0400 0000 0400 0000 0400 0000 0400 0080
00000230: 0400 0000 0400 0000 0400 0000 0400 0000
00000240: 0400 0000 0400 0000 0400 0000 0400 0000
00000250: 0400 0000 0000 0000 0400 0000 0400 0000
00000260: 0400 0000 0400 0000 0000 0000 0400 0000
00000270: 0400 0000 0000 0000 0400 0000 0400 0000
00000280: 0400 0000 0400 0000 0400 0000 0000 0000
00000290: 0000 0000 0400 0000 0400 0000 0400 0000
000002a0: 0400 0000 0400 0000 0400 0000 0400 0000
000002b0: 0000 0000 0400 0000 0400 0000 0400 0000
000002c0: 0400 0000 0400 0000 0000 0000 0400 0000
000002d0: 0400 0000 0000 0000 0400 0000 0000 0000
000002e0: 0400 0000 0000 0000 0000 0000 0400 0000
000002f0: 0400 0000 0400 0080 0400 0000 0400 0000
00000300: fa80 dbbb a65c 7a39 0400 0000 f310 dd39
00000310: b6df c5bb d210 9abb 762a cdb9 d4ee 5cbc
00000320: 1633 a3b9 aca3 a53b c85c 11bc fe07 a3bb
00000330: 7352 8a3b 06e5 c039 c710 163c 5ad6 f93a
00000340: df84 cab8 0821 8fbb de4e 8f3a e503 bd38
00000350: 5e41 43bb 0400 0000 d6f3 31bb 435d 85bb
00000360: 8b31 043c 3018 033c 6d39 0e3b 4a06 363a
00000370: f305 1dbc 2993 b138 1327 0abb 3496 50bb
00000380: 3c5d 7fbb 90c0 eb3a ebac f03b 2004 42ba
00000390: 8c07 db38 3489 09ba e27f e8ba 2f86 b6bb
000003a0: 3a7b e7bb 19eb 1e3c 2e47 27bb 54b3 01bb
000003b0: 287f 27bb bc06 c33b e8c0 a8ba e091 95bb
000003c0: 1391 0dbc 22ef 843b cba2 9f3b 9ecf 103b
000003d0: 9ac6 0a3c 7638 dd3a 1600 78ba 8293 31ba
000003e0: 76b4 ec3b b576 4eba 5f56 f2b9 446d ab3b
000003f0: 2815 b13b 6835 70bb 6199 ae3a 6516 22bc

exp_avg_sq f4 [32, 64]
1.9210722e-05 9.542673e-07 3.712755e-10 4.393669e-06 1.3035772e-05 8.8101595e-05 3.933977e-07 0.00012668397
4.142e-06 2.6756496e-05 0.00033231953 1.9636767e-05 1.892274e-05 0.00014038662 8.0678445e-05 2.6841371e-05
1.1686948e-05 2.0749618e-05 2.4341276e-05 3.6051895e-06 1.224306e-05 5.342791e-10 1.3242144e-06 3.5689534e-06
5.946088e-05 4.3639582e-05 6.9219896e-06 2.7434771e-05 0.00027929188 1.1389511e-06 8.4281426e-05 2.0078714e-06
4.5166366e-06 7.0760525e-06 5.2363474e-05 1.1984621e-06 7.4482823e-06 8.86516e-06 7.558157e-05 1.49150155e-05
1.5060298e-05 9.802158e-05 5.2818887e-06 2.0573411e-06 9.5462865e-06 4.245848e-05 6.914017e-06 1.6410126e-05
1.3980057e-05 7.769863e-06 1.1327636e-05 7.921011e-05 6.962891e-05 2.737301e-06 1.1496659e-05 2.35992e-06
3.0952866e-05 6.76786e-06 4.387786e-06 2.7660302e-05 3.2203043e-05 9.835525e-06 4.7336825e-06 5.5799803e-05
0.0007618936 0.00011197126 2.9351518e-10 0.0003050858 0.0005250572 0.002511306 6.179637e-05 0.004923533
0.00056360086 0.0028951194 0.010102058 0.0014775293 0.0010216753 0.0049679154 0.005164656 0.0011433297
0.0013095667 0.0008328947 0.0012607503 0.0004153543 0.0012070552 1.5054862e-08 0.00012749291 0.00020249844
0.0051257308 0.0027687454 0.0010325337 0.00092935 0.0088575585 0.00021016612 0.002488504 0.0002526098
0.00027697114 0.00023816632 0.003475709 0.00014361631 0.0006102766 0.0012740368 0.001898712 0.0010891623
0.00057223055 0.0056566354 0.00024495783 0.000120833356 0.0009348743 0.001866976 0.0010361291 0.0015541655
0.0009894059 0.0005761802 0.001150382 0.0036445933 0.005372572 0.00013209274 0.0018527347 0.0002758535
0.0023323277 0.00057639927 0.0004107149 0.0014248671 0.0026259199 0.00087127916 0.00047115155 0.001688747
1.35413234e-11 0.0 0.0 0.0 1.6966302e-11 1.5175767e-11 0.0 2.181619e-12
4.869514e-14 5.337968e-13 1.8577106e-12 4.574517e-13 3.5374206e-12 3.6122774e-14 1.5743433e-11 1.7210898e-13
3.2087419e-12 9.589966e-13 2.8830566e-12 3.2409336e-12 1.069625e-15 0.0 1.1498654e-11 3.3101825e-13
6.3932423e-12 8.922533e-13 0.0 6.0504522e-12 4.226304e-12 0.0 1.9949654e-12 4.2656476e-13
1.0026742e-11 3.7242223e-12 7.491289e-12 0.0 0.0 1.821063e-12 1.771805e-11 1.1931246e-11
1.0794291e-14 3.1768924e-11 4.7244014e-12 9.428392e-15 0.0 1.5215872e-11 6.3019533e-12 2.914463e-14
1.7970554e-11 4.0705622e-13 0.0 9.0335367e-13 1.0765215e-11 0.0 1.3744229e-12 0.0
1.4660042e-13 0.0 0.0 2.525815e-12 3.5954744e-12 2.2987939e-18 7.593779e-12 4.579796e-12
0.0005568581 6.493332e-05 4.5224468e-08 0.00020603137 0.00035358168 0.001794675 4.0373954e-05 0.0034697084
0.00034123583 0.0016228283 0.0071543995 0.0010654724 0.0006182476 0.0034213804 0.0030516707 0.0007634694
0.00080465624 0.0005820033 0.0008239244 0.00024234473 0.00086232624 2.9560702e-08 8.2468534e-05 0.00013503345
0.0029266523 0.0016292816 0.0005702519 0.0006135062 0.006251257 0.00011803341 0.0017505932 0.0001582339
0.00018095714 0.00016162623 0.0020552524 8.9074994e-05 0.00042420512 0.0007147319 0.0013898766 0.0007285151
0.00038876192 0.0033738825 0.0001623349 8.66725e-05 0.0006501773 0.0011576355 0.0006224856 0.0010818868
0.0006168072 0.00034892347 0.00066364143 0.002424316 0.0031098602 8.4831794e-05 0.0010434358 0.00019139049
0.0013686965 0.00041660873 0.0002824042 0.00086345855 0.0015277822 0.0006195853 0.00029180257 0.0012133905
00000000: b626 a137 6014 8035 621c cc2f 546d 9336
00000010: 37b4 5a37 2fc3 b838 2b34 d334 78d6 0439
00000020: 82fb 8a36 2373 e037 2c3b ae39 a3b9 a437
00000030: 46bc 9e37 bf34 1339 e931 a938 6829 e137
00000040: 0f13 4437 770f ae37 7e30 cc37 aff0 7136
00000050: 8b67 4d37 8ddc 1230 a9bb b135 2782 6f36
00000060: a265 7938 a509 3738 7043 e836 b923 e637
00000070: ec6d 9239 10de 9835 3fc0 b038 f8be 0636
00000080: 9d8d 9736 d46e ed36 daa0 5b38 d8da a035
00000090: 42ec f936 93bb 1437 8c81 9e38 813b 7a37
000000a0: 7dab 7c37 ef90 cd38 143b b136 da10 0a36
000000b0: fd28 2037 7215 3238 f4fe e736 7aa8 8937
000000c0: e38b 6a37 4f5b 0237 d30b 3e37 9b1d a638
000000d0: bd05 9238 79b2 3736 c6e1 4037 1e5f 1e36
000000e0: 63d3 0138 7a17 e336 cb3a 9336 0c08 e837
000000f0: c111 0738 4203 2537 06d6 9e36 950a 6a38
00000100: d0b9 473a 1dd2 ea38 975c a12f ecf3 9f39
00000110: fea3 093a b994 243b ac98 8138 9755 a13b
00000120: 9dbe 133a 0bbc 3d3b 1a83 253c a8a9 c13a
00000130: bce9 853a e5c9 a23b 463c a93b c7db 953a
00000140: c4a5 ab3a 9e56 5a3a c33f a53a e9c3 d939
00000150: 0d36 9e3a fe51 8132 9eaf 0539 c355 5439
00000160: bff5 a73b d773 353b 1556 873a 9f9f 733a
00000170: 4b1f 113c 0a60 5c39 2b16 233b b770 8439
00000180: 7036 9139 49bc 7939 b8c8 633b b697 1639
00000190: f8fa 1f3a 95fd a63a 34de f83a 39c2 8e3a
000001a0: be01 163a 4c5b b93b af6d 8039 ea67 fd38
000001b0: 5a12 753a 52b5 f43a b9ce 873a 24b5 cb3a
000001c0: f4ae 813a cc0a 173a 6ac8 963a 21da 6e3b
000001d0: 670c b03b 6082 0a39 76d7 f23a 6ea0 9039
000001e0: f7d9 183b 8019 173a 3955 d739 9bc2 ba3a
000001f0: a017 2c3b 8e66 643a e404 f739 f258 dd3a
00000200: b338 6e2d 0000 0000 0000 0000 0000 0000
00000210: b73c 952d ca7c 852d 0000 0000 8e84 192c
00000220: ad4d 5b29 1d40 162b 8ab9 022c dec2 002b
00000230: 81ec 782c b9ae 2229 0f7b 8a2d 09c7 412a
00000240: 8ecb 612c 7ef7 862b 88e0 4a2c 780f 642c
00000250: 3226 9a26 0000 0000 5549 4a2d c258 ba2a
00000260: 35f1 e02c a025 7b2b 0000 0000 a1e1 d42c
00000270: 2ab3 942c 0000 0000 1a62 0c2c 7622 f02a
00000280: 6e64 302d d008 832c c4c9 032d 0000 0000
00000290: 0000 0000 5b25 002c 80d9 9b2d 8ee5 512d
000002a0: e273 4228 a1b8 0b2e a039 a62c c9d8 2928
000002b0: 0000 0000 19d7 852d f3ba dd2c 7841 0329
000002c0: 1712 9e2d fc26 e52a 0000 0000 7e45 7e2b
000002d0: 3862 3d2d 0000 0000 ce6e c12b 0000 0000
000002e0: b20e 252a 0000 0000 0000 0000 0abd 312c
000002f0: 4f02 7d2c fd9e 2922 5797 052d 2323 a12c
00000300: 1dfa 113a d02c 8838 d43c 4233 200a 5839
00000310: ee60 b939 4d3b eb3a 3457 2938 0c64 633b
00000320: e6e7 b239 15b5 d43a 746f ea3b 52a7 8b3a
00000330: e511 223a 3d39 603b 8afe 473b 9023 483a
00000340: 91ef 523a 9591 183a a1fc 573a eb1d 7e39
00000350: bc0d 623a acec fd32 f5f2 ac38 c497 0d39
00000360: 14cd 3f3b 9e8d d53a f57c 153a b4d3 203a
00000370: 58d7 cc3b b488 f738 2974 e53a 97eb 2539
00000380: 50bf 3d39 367a 2939 6ab1 063b c6cd ba38
00000390: d967 de39 d95c 3b3a 852c b63a d2f9 3e3a
000003a0: bed2 cb39 5b1c 5d3b 7138 2a39 f2c3 b538
000003b0: a970 2a3a cdbb 973a 4d2e 233a 19ce 8d3a
000003c0: 3bb1 213a b7ef b639 39f8 2d3a 46e1 1e3b
000003d0: ccce 4b3b b9e7 b138 e5c3 883a feaf 4839
000003e0: d565 b33a 476c da39 a60f 9439 b959 623a
000003f0: dd3f c83a aa6b 223a 14fd 9839 a10a 9f3a

exp_avg f4 [32]
0.00080420455 0.000118054275 6e-45 0.00088359707 0.00048573886 -0.0027940276 0.0011264002 6e-45
0.0004679802 0.0085247625 0.00030090942 0.00017380156 6e-45 0.0010840099 0.00232522 -0.0010974213
0.0014650864 0.00070465636 0.009610211 0.0012950627 0.0009010895 0.0011365816 0.00039853223 0.0008115105
0.005136259 0.0013281819 0.0017348706 0.0012788743 0.0073823063 6e-45 0.00086607144 0.0010847813
00000000: 41d1 523a e893 f738 0400 0000 32a1 673a
00000010: c4aa fe39 011c 37bb b8a3 933a 0400 0000
00000020: 3d5b f539 72ab 0b3c 61c3 9d39 803e 3639
00000030: 0400 0000 5615 8e3a b862 183b 59d7 8fba
00000040: 2408 c03a b0b8 383a 2574 1d3c 18bf a93a
00000050: 1837 6c3a 5af9 943a 17f2 d039 8cbb 543a
00000060: 104e a83b 6416 ae3a 9964 e33a e79f a73a
00000070: 46e7 f13b 0400 0000 1209 633a 382f 8e3a

exp_avg_sq f4 [32]
6.0254635e-05 0.0022165002 4.0373774e-11 0.0014443494 0.00068937225 0.0013538914 0.00097538694 1.204729e-11
7.739629e-05 0.006420639 5.019988e-05 0.001691391 3.817355e-07 0.004452427 0.00019593131 0.00243523
9.332651e-05 0.0001087764 0.0030154875 3.1625e-05 0.0021793148 0.0024661464 1.3610429e-05 0.0007457109
0.005149883 0.00010793482 0.0049820137 0.0027051796 0.0015004176 5.0385247e-06 0.00023647732 0.0009991563
00000000: ecb9 7c38 b442 113b d490 312e 5350 bd3a
00000010: fdb6 343a 0f75 b13a 1cb1 7f3a 2cf0 532d
00000020: d14f a238 3964 d23b b68d 5238 aab1 dd3a
00000030: 54f1 cc34 aae5 913b e972 4d39 6198 1f3b
00000040: 4ab8 c338 e31e e438 7c9f 453b 16a5 0438
00000050: d6d2 0e3b 129f 213b 5958 6437 d07b 433a
00000060: 5ac0 a83b 115b e238 2940 a33b 6249 313b
00000070: a9a9 c43a 9910 a936 e6f6 7739 1ff6 823a
