pytorch-DS-051/rackhun/4_DDPG_pendulum/saved_model/DDPG_CRITIC.pth (torch_old, 45470 bytes, 27 tensors)

fc1.weight f4 [64, 3]
00000000: 69b9 cd3f 3f47 0fc0 cc85 b7bf 1ea6 e33e
00000010: 054f 8fbf 58d2 6dbe d11a 2e40 96be 693e
00000020: 36cb acbd f6d1 1f3f 1742 19c0 5d05 01bf
00000030: c036 8c3e f090 44bf 0a8e 4c3f 8351 5ebf
00000040: 36c0 3e3f 37e3 19bf bb9c 163f 8bb7 11c0
00000050: caa3 d9be c6c0 04be c09a babf 493d 2c3f
00000060: da84 afbf dc19 173e 3ddc 0abe bd73 4dbf
00000070: cede 273e a1c0 2fbf f79f 0d40 4d35 00c0
00000080: b29c f9be cb97 8f3e 58f7 1f40 2359 093f
00000090: 87f1 b2bf 5656 38bf f4ca 66be 7561 053f
000000a0: 8e8d dcbf c170 abbe 3b06 60be 665e 10bf
000000b0: bc5f a6be 7393 61bf b2b1 80bf 41e8 703f
000000c0: 220e c5be b1d1 703f 77ff a7be 8f6c 6c3f
000000d0: 2d7f 403e c3f7 483e 5dd9 9f3f 4046 06bf
000000e0: a168 6dbf 4e2d 04bf 1544 7b3f 3430 35bf
000000f0: da98 f6bf fa69 b53f 1583 063f de32 f0bf
00000100: 075a d13f 43ab a2bc 9bba aa3f 31c0 a73f
00000110: ab48 37be 56a3 89be 565c 0ebd 4682 ff3e
00000120: f985 38c0 18fd 7c3e b112 163f 6a09 96bf
00000130: b894 ce3f 7004 41be b0af 64bf 9ff7 003f
00000140: 7d9a 903e d4fc b6be d19e 6d3f 752a a73e
00000150: 0a78 e5bf 2eea 2440 7ec2 2b3f 78d5 62bf
00000160: 4ae7 0dbf 91b9 77be abb5 4abf f98a d1bd
00000170: ff07 383f 746d 1c3f 05cd 7ebe 3157 ac3f
00000180: bd46 adbf 611c b03f b0b6 de3f fb89 90bf
00000190: 474d 80bf c7e3 a9be 97f6 37bf 04af 4240
000001a0: 5a6d 7a3f 5759 ae3f 5c20 843f c946 aabd
000001b0: c8a4 f43e 6f78 4cbf c755 253f 223f 753f
000001c0: de10 06bf e56a c2be d9a5 adbf 7e78 b03e
000001d0: 3380 f73e c4a7 f8be d111 cfbe 8f01 91be
000001e0: e0a7 86be 758c babe 6406 5fbf c5d5 66be
000001f0: 7c81 b73f 775b 89be 893a eb3f c1fd 0c40
00000200: 1e13 0d3f 4aec 763f 8c35 edbe 00b2 a8be
00000210: 3a92 85bf e190 7840 7cfb 0f3f 6491 e53f
00000220: 9468 e83e 18ac 083f 7991 783c 2217 f23f
00000230: d254 823f 5654 b8bf 9bf8 fbbf 0bcf d6be
00000240: fa27 35bf 57e7 ecbe e47e 9bbe 197e 463e
00000250: 70f6 dfbf a3ac aebe e045 943f d89f 0440
00000260: e7d5 8f3f b93e d23f 91fb 0cc0 7871 60be
00000270: 05fe db3e e77e 3c3f 2929 7c3e 62bc 963f
00000280: 5c8a 143f 9e7f b3be b71a f9bd a229 2d40
00000290: c511 b03e ab50 743f 5431 fa3f e6b9 cc3e
000002a0: 6507 a1bd 8877 d93f f059 27bf 8b95 42bf
000002b0: 3897 63bf 9e97 503e dcf6 febf 8b84 763f
000002c0: 0fae c63e bb7e 0740 b819 cf3e 0968 5c3e
000002d0: b62e ca3f 76a6 fd3f af58 ef3e 6b78 d0bd
000002e0: 9d3a 82bf 7520 03be 0105 8c3f bef2 a3be
000002f0: b1db 8fbe 69cd 4d3f eb98 1cbf f9be 133f
1.6072208 -2.2387235 -1.4337707 0.44462675 -1.119599 -0.23224771 2.7203867 0.22826609
-0.08437197 0.6242975 -2.3946588 -0.5039881 0.2738552 -0.7678366 0.79904234 -0.86843127
0.7451204 -0.6011233 0.588329 -2.2768276 -0.42507774 -0.12964162 -1.4578476 0.67281014
-1.3712418 0.14755958 -0.13560577 -0.8025473 0.16393587 -0.68653303 2.2128885 -2.0032532
-0.48752362 0.28045496 2.4994717 0.53651637 -1.3979958 -0.7200674 -0.22538358 0.5210183
-1.7230699 -0.33484462 -0.21877377 -0.5639404 -0.32494915 -0.88115615 -1.0054228 0.9410439
-0.38487345 0.94069964 -0.32812092 0.9235315 0.18798514 0.19625764 1.2488209 -0.52450943
-0.92737776 -0.5163163 0.9815076 -0.7077668 -1.9265397 1.4172966 0.52543765 -1.8765523
1.6355599 -0.019857055 1.3338197 1.3105527 -0.17898814 -0.26882428 -0.034756027 0.49904078
-2.883177 0.24705923 0.5862227 -1.1721623 1.6139135 -0.18849349 -0.8933058 0.5037784
0.28242865 -0.35739768 0.9282046 0.3264958 -1.7927258 2.5767932 0.67093647 -0.8860698
-0.55431044 -0.24191882 -0.79183453 -0.10231585 0.718872 0.6110451 -0.24882896 1.3464109
-1.3537213 1.375866 1.7399502 -1.1292108 -1.0023583 -0.33181593 -0.7186064 3.041932
0.9782311 1.3621014 1.0322375 -0.083142824 0.47781968 -0.7987127 0.6458401 0.9579946
-0.5236949 -0.3797218 -1.3566238 0.34466928 0.48339996 -0.48565495 -0.4044328 -0.28321502
-0.26299953 -0.36435285 -0.87119126 -0.22542484 1.433639 -0.26827595 1.8377239 2.202988
0.55107296 0.964543 -0.46329916 -0.32948303 -1.043525 3.8838427 0.5624311 1.7934995
0.45392287 0.53387594 0.015171402 1.891331 1.0182135 -1.4400737 -1.9685243 -0.41954836
-0.70764124 -0.46270248 -0.30370247 0.1938404 -1.7497082 -0.34116086 1.1583824 2.072256
1.1237153 1.6425391 -2.2028544 -0.21918285 0.4296724 0.7363114 0.24625076 1.177624
0.5802362 -0.35058302 -0.121632986 2.705666 0.34388557 0.9543559 1.9546304 0.3998558
-0.078627385 1.6989603 -0.6537161 -0.76009434 -0.88902617 0.20370337 -1.9919086 0.96295995
0.3880467 2.11711 0.4044931 0.21524061 1.5795505 1.9816425 0.46747348 -0.10179218
-1.0174137 -0.1280535 1.0939027 -0.32021135 -0.280973 0.80391556 -0.61170834 0.57713276

fc1.bias f4 [64]
00000000: 5d82 87bf d149 b63e 6488 8f3e f37f 0e3e
00000010: 8566 313e f8a4 97bd 25f7 a6bf 90c2 0dbf
00000020: 1239 cdbe 75ae 9cbe d19c cbbd b493 1e3f
00000030: 948e e7bc 8763 87bf cc10 a5be 096b 68bf
00000040: 9dc2 4b3e 39f6 c5be 0a1a 2ebf ba67 763e
00000050: 0654 5a3f eee5 a43e 3d71 a0be 993a 463f
00000060: 4e20 803f da7c 033f b969 323f 5a4d 053e
00000070: e8e5 373f fb99 1b3f 445d c13e 49ee 97be
00000080: bba7 53be 00ad 243f d315 f1bf 7553 413f
00000090: e553 8f3e 4b16 85be f08c c93d 9268 f4be
000000a0: 4601 f7bd 895e 233d 4b6b bf3e ae22 71bf
000000b0: 97c9 203e eb10 2abf 26a4 00c0 323a 4e3e
000000c0: a8d3 edbe 048f 4abf 3aa0 05be 440d f63e
000000d0: 2990 e9be 03ca 3a3f 91f5 883e 7d15 28bd
000000e0: b378 c03e cb54 843f f050 7d3f d3cc d7be
000000f0: 1d4f 25bf 8131 de3e 6686 8c3e fa24 01be
-1.0586659 0.35603192 0.28033745 0.13915996 0.17324264 -0.07404512 -1.3044173 -0.55375004
-0.40082604 -0.3060185 -0.0994202 0.6194413 -0.028266229 -1.0577248 -0.32239377 -0.9078832
0.19898458 -0.38664415 -0.6800848 0.24063006 0.8528446 0.32206672 -0.31336394 0.7743316
1.0009859 0.51362383 0.6969257 0.13017789 0.71835184 0.6078183 0.3776647 -0.29673985
-0.20669453 0.6432648 -1.8834785 0.7551797 0.27993694 -0.2599357 0.09841335 -0.4773603
-0.1206079 0.039885078 0.37386546 -0.9419354 0.157019 -0.66432065 -2.0100188 0.20139387
-0.46450543 -0.79124475 -0.13049403 0.48056996 -0.45617798 0.72964495 0.26749852 -0.041036118
0.37592086 1.0338377 0.98951626 -0.42148456 -0.6457384 0.43397143 0.27446288 -0.12611762

fc2.weight f4 [32, 64]
00000000: 134b 4cbe 2729 e2bd 6369 27bf a07f 393e
00000010: 7182 833e d3ba c8be dd66 b83f fbe1 4a3e
00000020: f9bb cebd 64cb f9be 5b5d 5b3e 9403 973e
00000030: 057c 0dbf 4301 ca3f 85ab cebe a8af cd3d
00000040: 66da a5bd 3968 393e d32d 15bd 692b a3bd
00000050: e974 6c3e fb31 8bbe 18e3 cb3e d03d 84be
00000060: 6bb9 b03d 0aae c8be 57fb 403e c0cb 58bd
00000070: 8be7 ca3e 5173 93be 4a8a b5be f083 b93e
00000080: 4b30 bfbd f8a9 d5be 1ca4 523e 7386 f83e
00000090: f47a 75be f46c 933d 596b b83e 9e05 0bbf
000000a0: e30f 63bd 410b c23f ee9a 0bbf fa53 933f
000000b0: 8912 593e 376d 8f3d 8ab5 dbbd 91ff 80be
000000c0: 51fe 05bf 1606 8d3e c3ba 04be b6b2 78bf
000000d0: e771 78bc edc1 a03f ba22 503e 746c f73c
000000e0: fa84 31be 1801 c93d 236f c23d 6329 0fbf
000000f0: 8f15 133e 0af0 96bd b3d3 443f 6700 1bbd
00000100: 14b7 4bbe f374 b6be 0a7f 703e 58df 8bbc
00000110: 38a5 263e c9c4 803e 75d8 b0bd 02b7 4c3e
00000120: 2de8 ff3d b2cc a43e 5d3e 8ebf 964b f7bd
00000130: d2b0 773f 947b ff3a d7b5 fc3d 0a27 243e
00000140: 38df 253f f042 213f 3f5d 783d 4293 3e3e
00000150: ba11 5abd 65df 5e3f 292d 963e 280e 6bbe
00000160: 9054 dfbe adcf b43e 6c9e c03d ea6c 8d3e
00000170: 4813 ab3e 1f53 da3e 6528 283e a200 b63e
00000180: 62db e43e 5bfa 4e3e 0a1e 68bd 1ede dc3e
00000190: 7dce afbe 0b66 b8be 47b8 39bd b48a 583e
000001a0: 353a edbd 0250 2bbf f2cb 0f3f bb42 fb3d
000001b0: 351c c93b 775e 163f 89b9 ce3e 5d0b cebc
000001c0: 7d3e 98bd b430 21be 87d6 dc3e 6628 17bf
000001d0: c020 263e ad6b 2bbf a765 6c3e 7915 083f
000001e0: 196e 633f d817 87be 3d41 2ebe 086a 053f
000001f0: 1ae7 a73e cc44 18bf 4f76 37bf dad0 9abe
00000200: 0966 853e 4e41 02bd 3890 8fbf 01e2 313f
00000210: 21fe 81be cac5 a6bd 778f 3c3f 2cc5 cabe
00000220: 45e8 4fbe e4dd 4d3d 3ec7 ff3e 00ed 413d
00000230: da7f 39be cab1 863e d285 4abe 7208 8ebe
00000240: 9c37 a23e 62b3 70be d0b0 4b3e 98c1 8ebe
00000250: 616e db3e 67d1 5b3e 54dd dcbe f0c9 ea3e
00000260: 5657 143d 6db9 503b c8de ff3e de09 0fbe
00000270: 0407 c03e e2eb 2ebd 2da4 6bbe a26d e9bd
00000280: 4874 b7be 8a3b 1e3f 6d41 1abf 20b4 2fbf
00000290: 1d85 2cbf 50f9 3b3d d8c7 89be c049 7bbe
000002a0: e062 e73d 77e2 54bf c07b b5be c22e 6a3f
000002b0: a930 263d 9754 68bf 55f1 d4be 8f9d c73e
000002c0: bd0b e7bb d58c 193f a5ba 34bf f4c6 903e
000002d0: 6b54 4dbe 009c 67bf a6f1 d13e 3a3f 243f
000002e0: 3547 5bbe 6b33 733e 83db b43e e379 25be
000002f0: 8761 273f 652f 633e a509 cbbe 93b9 2dbf
00000300: 4350 0b3e 3efc e6bc 961c c33e fe5a 333f
00000310: 7861 b93d f23e 9dbe f9a8 eb3c e30f 96be
00000320: 369c 3c3d d8e7 2ebd 80c2 26be 12a9 ac3d
00000330: 3b7e c1be 2359 34bd ce09 563e 8e24 98bd
00000340: 0b2d 283d a052 4ebe 2068 18be 8ffc 0ebe
00000350: b3e0 1e3f a905 493e 448a 8f3e 93a0 ba3e
00000360: 12ac da3e 2b33 063f 4b21 193f b0e7 993e
00000370: 3497 bd3e dee7 e83d ae57 43be 524f 083f
00000380: 791d a5bc 5111 003e 8a5d bdbd efeb 583e
00000390: 58ba 70bd 2e29 84be 0ce6 22bd dbe0 193d
000003a0: 5b6f 2f3d 00b5 c33e 81ba a4bd 8d2f 2d3f
000003b0: 3a55 323d 8439 57be 1d4d a8be f5dd f03e
000003c0: 2c1e 063f 124b 95be 8c91 11be 3896 913e
000003d0: 5b3f a6bc 889f 1dbf c553 523e d272 183f
000003e0: 25fc 37be cc3d 823e 465f ac3e 2d6d f0bc
000003f0: f0b8 013f d5df 9e3e 1c43 4b3d 1bdf 123c
-0.19950514 -0.110430054 -0.6539518 0.18115091 0.25685456 -0.39205036 1.4406391 0.19812767
-0.10094447 -0.48787987 0.21422331 0.29494917 -0.55267364 1.5781635 -0.40365234 0.100432694
-0.08098297 0.18106164 -0.036420655 -0.07967264 0.23091473 -0.2718657 0.39821696 -0.2582841
0.08629116 -0.3919528 0.18845879 -0.052928686 0.39629778 -0.28798917 -0.3545707 0.36233473
-0.09335383 -0.41731238 0.20570415 0.48540077 -0.23972684 0.071985155 0.360194 -0.54305446
-0.055435073 1.5159684 -0.5453328 1.1510003 0.21198477 0.07003253 -0.10727985 -0.25194982
-0.5234118 0.27543706 -0.12961869 -0.9714769 -0.015163875 1.2559181 0.20325747 0.030203082
-0.17335883 0.09814662 0.09493854 -0.55922526 0.14363693 -0.073700026 0.7688553 -0.03784218
-0.19894058 -0.356361 0.23485962 -0.017074272 0.16273963 0.25150135 -0.08635036 0.19991687
0.12495456 0.3218742 -1.1112782 -0.12074964 0.9675418 0.0019491785 0.12339371 0.16030517
0.6479373 0.62992764 0.0606358 0.18610862 -0.05323956 0.87059623 0.2933133 -0.22954619
-0.43619204 0.35314694 0.094052166 0.27622157 0.33413148 0.4264154 0.1642166 0.35547358
0.44698626 0.2021269 -0.056669272 0.43138212 -0.34337226 -0.36015353 -0.045341756 0.21146661
-0.11583368 -0.6691896 0.5617057 0.12268587 0.0061373957 0.5873789 0.40375927 -0.025151903
-0.07433794 -0.15741235 0.4313242 -0.5904602 0.1622343 -0.66961175 0.23085652 0.53157765
0.8883987 -0.2638538 -0.17017074 0.52114916 0.32793504 -0.59479976 -0.716649 -0.30237466
0.2605441 -0.03180056 -1.1215887 0.6948548 -0.25389197 -0.08143194 0.7365641 -0.39603555
-0.20303448 0.05026044 0.49956697 0.04734516 -0.18115178 0.26307517 -0.19777611 -0.27740818
0.31683052 -0.23505929 0.19891667 -0.27882075 0.4285765 0.214666 -0.4313761 0.4585719
0.036216103 0.0031848804 0.49974656 -0.13968608 0.37505352 -0.042705424 -0.23011847 -0.11397864
-0.35830903 0.618096 -0.6025608 -0.68634224 -0.67390615 0.04589206 -0.2691028 -0.24539852
0.11298156 -0.8315806 -0.35445976 0.91477597 0.04057375 -0.90754074 -0.41590372 0.38987395
-0.00705096 0.5998052 -0.70597297 0.2827679 -0.20051734 -0.9047241 0.41004676 0.64158976
-0.21413882 0.23750083 0.35323724 -0.16159777 0.6538319 0.22186048 -0.39655796 -0.6786129
0.13604836 -0.02819645 0.38107747 0.7006072 0.09051794 -0.30712086 0.028767096 -0.29308996
0.04604741 -0.042701572 -0.16285133 0.08430685 -0.3779162 -0.04403032 0.20902178 -0.07428847
0.04105858 -0.20148706 -0.1488347 -0.13963531 0.62061614 0.19631065 0.28035176 0.36450633
0.42709404 0.52421826 0.59816426 0.30059576 0.3702942 0.1137235 -0.19076416 0.53246033
-0.020155655 0.12506606 -0.09246357 0.21183752 -0.05877146 -0.25812668 -0.03977017 0.037567955
0.042830806 0.3822403 -0.08043385 0.6765068 0.04353831 -0.21018034 -0.32871333 0.4704434
0.5238979 -0.29158837 -0.14215678 0.2843492 -0.020293882 -0.6157155 0.20539768 0.595502
-0.1796728 0.25437772 0.33666438 -0.029348934 0.5067282 0.31030145 0.049624547 0.008964325

fc2.bias f4 [32]
00000000: 17a2 9abe ee2c 743c 48d0 903d 39c1 843e
00000010: 68f5 80bd 459f d53d 55f2 383e 8343 a9be
00000020: 35f9 5a3d 369d 133e 70a4 7ebe 9e7b c4be
00000030: 0682 b4be d068 9abe bf0c a2be cc6e 56be
00000040: c951 8f3d 605c 27bd 6885 aebe e297 1c3e
00000050: 2ea2 a63e 1cf9 23be a8a5 7ebe 96e6 773d
00000060: 449d c13d c473 a5be 92f5 fcbe fca4 56be
00000070: 1be1 e83d 3f1d d4be d7a1 b63e 53be 403d
-0.3020179 0.01490329 0.070709765 0.25928667 -0.062968075 0.10430769 0.18061192 -0.3305932
0.05346032 0.1441544 -0.24867415 -0.38375562 -0.3525545 -0.3015809 -0.3165035 -0.20940703
0.06998021 -0.04085958 -0.34086156 0.15292314 0.32545608 -0.16012996 -0.2486788 0.06052264
0.09453824 -0.32314885 -0.49406105 -0.20961374 0.113710605 -0.41428563 0.3567035 0.047056507

fca.weight f4 [32, 1]
00000000: 0a8b a8bf 195a d0bf 7ce6 15bf cd6f 803f
00000010: b32a a8bf 9af2 883a d4a3 fe3f d6a4 28bf
00000020: 6791 143f b800 383e e438 1d3e 7450 da3d
00000030: 40c0 c5be 77a8 383f bdfd 793f 563c 9cbf
00000040: b201 e0bf 2cfe bc3e 3243 f33e f08f 78bd
00000050: 96a2 e8bd 9170 d7bd ccf0 d13f d75e 7c3f
00000060: 0839 53be 80a6 1bbf 517a a5be 1fa9 6abd
00000070: d27d 263e c21b bfbb b61d 1140 a2f2 3040
-1.3167431 -1.6277496 -0.58554816 1.0034119 -1.3138031 0.0010448277 1.9893746 -0.6587652
0.58034366 0.17969024 0.15353733 0.106598765 -0.38623238 0.72132057 0.976528 -1.2205913
-1.7500517 0.36912668 0.47512203 -0.060684144 -0.11359136 -0.10519517 1.640161 0.98582214
-0.20627224 -0.60800934 -0.32319883 -0.057290193 0.16258934 -0.0058321664 2.2674384 2.7648091

fca.bias f4 [32]
00000000: fb57 193f 1c04 0f3e 015c 1a3e 4be6 963e
00000010: d046 413f 204d 9abe 39a2 263e 77c6 8bbd
00000020: 9be6 363e f037 04bd d24b 9cbe 4ab1 4dbe
00000030: d1bb bf3e 95d6 65bf c1a3 27be 32ab 98be
00000040: 780c 8abe 2ca8 7e3e 0647 5fbe c409 423e
00000050: 2128 3f3e daf5 db3e a929 e6be 018b bcbe
00000060: d3b5 de3e fd1e a93e 0147 dc3e a6ed 51be
00000070: 10b7 9a3e 15cd 9dbb 542a fabd 326a 08bf
0.5989987 0.13966411 0.15074159 0.29472575 0.75498676 -0.30136967 0.1627282 -0.068249635
0.17861407 -0.03227991 -0.30526596 -0.20087162 0.3744798 -0.8978055 -0.16371061 -0.29818112
-0.26962638 0.2486884 -0.21804437 0.18949038 0.18667652 0.42961007 -0.4495366 -0.36824802
0.43498096 0.33031455 0.43022922 -0.20500812 0.3021779 -0.0048157074 -0.12215105 -0.5328704

fc3.weight f4 [16, 64]
00000000: 7801 523e 0c41 73bf 8cc7 07bf e3d9 b0bd
00000010: 4884 4cbd 417e 293f 93f7 7abf d34b d33d
00000020: 1764 b6be 0fce b53e 28ee 4d3f e46c 163e
00000030: 6084 1e3e ffdd ddbd df4e 323f 159a 493f
00000040: 5586 96be ac11 20be 6069 0abe 905b 973c
00000050: d666 8cbd 243d ba3d 4da0 143e 54b3 993e
00000060: 4cdd 0ebf 71cf bc3e c189 3e3f 35dc 0abd
00000070: 2ea6 fb3e 033b 373f f66d d43e 7689 16bf
00000080: 8b16 4e3e 6c47 023f 6188 973e 4226 4cbe
00000090: 145d 073e 6253 123e 47b2 37bd e5f2 2c3e
000000a0: 11f6 21be 32bc a1bd 24ac 2cbe 5ac2 20be
000000b0: ab18 c43e 27d0 76be f4b8 66be 8244 373f
000000c0: 41b0 96bd 5dd2 bfbe f81e afbe a81a 903e
000000d0: 2a6c a13e 11ff 1bbe 1040 92bd d1d7 8dbd
000000e0: 3d3c 0a3e a0af 473e 9298 b73d d4e4 483e
000000f0: e51f abbe fc47 8fbd be12 c6be 012d 363e
00000100: b59c 31bc 5446 e63e 96b4 cfbe 5e21 253d
00000110: 139b d03b 0195 b9be 6c52 b63d 2b56 93be
00000120: 1c36 383f 1eb6 dc3d 0559 6ebe c872 02be
00000130: 003f 62bf 0f22 e7bd 67c2 d8be 6e8e bfbe
00000140: af1a 3b3e 12f0 4e3d d656 923d d206 733c
00000150: 59a1 893b 6f24 df3d de60 12bf ef35 f7bd
00000160: 209a 8c3e f7e9 54bd c3ef f9be dd44 b4be
00000170: 2daf cc3e 99de a3be 9d70 6ebe 6f98 8e3e
00000180: a8cf 27be 4e07 34be 8f36 8ebe 18f2 4f3e
00000190: 894b bebe 04b3 4ebf 1e5b d53e 37b0 67be
000001a0: 77ee 043e c843 cc3d cf52 0e3e f79b acbd
000001b0: 9b68 803d c3a5 b73e cb6c 803e 8c7d 46be
000001c0: 232f 0abf 36f1 0b3e fa7b 39bd b131 28be
000001d0: 8c92 22be 2b19 ca3e 46ce 5b3d ec7e 36bd
000001e0: 48c7 a53e 85e7 dbbe aa52 c9be 9d41 71be
000001f0: c829 973e 2955 713d a7e7 7c3e 8cbb b33c
00000200: 9442 f1be 35f7 403e 50d2 d6be d06a 5bbe
00000210: 4ea5 053f 7b46 0bbf b65d d8bd dff5 033e
00000220: 1803 13bf f0e5 363f 87a2 823d 79d2 28be
00000230: 1ec1 43be 449e 433e c505 dd3d d124 103e
00000240: 68de 92bf 25c7 17bd f979 e5bf f938 05be
00000250: bdcf 733e 2481 b2be 7511 3e3f f986 323f
00000260: 3fe9 87bb 7a8e 46bf 0ad4 32bf 8a27 533f
00000270: 11de 10be 1691 943c e237 913f e463 a3bf
00000280: e0d6 3c3e dcba 61be fde4 c83d dcee 663d
00000290: 6217 633d 8a9a c7bd f5e4 33bd f01b 3d3c
000002a0: 28e7 9f3d 6b8a 53be a4f7 debe 1d23 a03e
000002b0: f108 8f3e 7aca afbd 22b3 bc3d 93c5 71be
000002c0: b8d0 95be 1a71 b6be 8db8 e0bc 5a52 f0bd
000002d0: 3355 88ba ca9d a33e d602 0fbe 20d8 3a3e
000002e0: a330 81bd e3ca 643c 0573 e23d 4754 063e
000002f0: 8d30 2d3d 6cdb 13bd e207 e9bd a1ab dfbb
00000300: f538 8c3d b6fe 493e 0fc1 4fbf 7d36 243e
00000310: 292c b23d b0f9 55be e117 9b3e 22e6 57be
00000320: 1b44 053f 1d55 be3e 82d0 09bb 811c fc3c
00000330: 1078 4fbe 26d3 423e 94ce 73bd fd4f 843d
00000340: 16cf 44bd e35f 27be 167a a53d 74f7 193e
00000350: ae1c a23e f85b 853e dca1 af3d 66e6 bb3e
00000360: 375d f3bc c6d7 aebe fdfe 0ebf c7b5 3c3e
00000370: 6322 47be cd8a 8f3e 55a1 76bd 62dc a83e
00000380: 3e3d 03be a50c 183e aed3 c63d 16e5 cbbe
00000390: b9ee 013d 88d5 383e 4fa0 8c3d 7bd1 023f
000003a0: 6837 bbbd 1ada 61be c57d c3be 4985 1e3d
000003b0: 231d 963e f566 a6bd 2c25 56be 7d1b bb3e
000003c0: 50c6 523e 5f96 46be b228 98be 7633 a43c
000003d0: 0516 14be 9178 a73e d03a 59be 6f75 51be
000003e0: e971 333e d4b5 48bc f426 e23e e372 9c3e
000003f0: 3065 18bf aa9c 0bbd 1678 2fbe 3350 343d
0.20508373 -0.9502113 -0.5303886 -0.086353086 -0.04993084 0.66208273 -0.9803402 0.10317197
-0.35623237 0.35508773 0.8044152 0.14689976 0.15480185 -0.10833358 0.696516 0.78750736
-0.29399362 -0.15631741 -0.1351676 0.018476278 -0.06855552 0.09093693 0.14514275 0.3001963
-0.5580642 0.36877015 0.74428946 -0.033901412 0.49150223 0.7157442 0.41490144 -0.588035
0.20125787 0.5089023 0.29596236 -0.19936469 0.132191 0.1428962 -0.044847753 0.16889532
-0.15816523 -0.078972235 -0.16862541 -0.15699139 0.3830007 -0.24102841 -0.22531492 0.7158891
-0.073578365 -0.37465182 -0.34203315 0.28145337 0.31527835 -0.15234019 -0.07141125 -0.06925929
0.13499542 0.1950059 0.08964647 0.19618541 -0.3342277 -0.06996152 -0.38686174 0.17790605
-0.0108405845 0.4497553 -0.40567464 0.040315025 0.0063661425 -0.36246493 0.089024395 -0.28776678
0.71957564 0.107769236 -0.23276146 -0.12739098 -0.8837738 -0.11285793 -0.42335817 -0.37413353
0.18271898 0.050521918 0.07145469 0.014833169 0.0042001423 0.10895621 -0.5717906 -0.12070834
0.27461338 -0.05198094 -0.48815736 -0.3520879 0.399774 -0.32005766 -0.23285146 0.27850673
-0.16387808 -0.17580912 -0.27776 0.20307195 -0.37167004 -0.80741906 0.4167108 -0.22625814
0.12981592 0.09973866 0.13898776 -0.084281854 0.06269952 0.35868654 0.25083002 -0.1938383
-0.53978175 0.13666233 -0.04528425 -0.16425206 -0.15876216 0.39472327 0.053663515 -0.044554636
0.32378602 -0.42950073 -0.3932088 -0.23560186 0.29524064 0.058919106 0.24697743 0.021940015
-0.47121108 0.18844302 -0.4195733 -0.21427464 0.5220536 -0.5440442 -0.10564749 0.12886761
-0.57426596 0.71444607 0.06378656 -0.16486539 -0.19116637 0.19103342 0.10792116 0.14076544
-1.1474123 -0.037055153 -1.7927848 -0.13010015 0.23809715 -0.3486415 0.7424539 0.697372
-0.004147678 -0.7756115 -0.69854796 0.82482207 -0.14147212 0.018135589 1.1345179 -1.2764859
0.18441343 -0.22043937 0.09809301 0.056380138 0.05544222 -0.09746273 -0.043919522 0.011542305
0.078077614 -0.20658271 -0.4354831 0.3127679 0.2793651 -0.08583541 0.09213854 -0.23610525
-0.29260802 -0.35633165 -0.02743175 -0.11734457 -0.0010401368 0.3195632 -0.13965926 0.18246508
-0.06308105 0.013964388 0.110570945 0.13118087 0.04228263 -0.03609793 -0.11378457 -0.0068258797
0.06846801 0.19726071 -0.8115396 0.1603641 0.08699829 -0.2089603 0.30291656 -0.21083882
0.52057046 0.3717431 -0.0021028821 0.03077531 -0.20260644 0.19025859 -0.05952318 0.06460569
-0.048049055 -0.16345172 0.08079927 0.15035802 0.31662506 0.2604673 0.08575794 0.36699218
-0.029707534 -0.34148997 -0.5585783 0.18428718 -0.19446711 0.28035584 -0.060212452 0.3298064
-0.12816331 0.14848574 0.097083434 -0.39823216 0.031721804 0.18050206 0.06866514 0.5110089
-0.09141427 -0.22055855 -0.38181892 0.03870133 0.29319105 -0.08125106 -0.20912617 0.3654441
0.20583463 -0.193933 -0.29718548 0.02004407 -0.14461525 0.32709172 -0.21213841 -0.20454954
0.17523922 -0.012250382 0.44170344 0.30556402 -0.595294 -0.034084953 -0.17135653 0.044021796

fc3.bias f4 [16]
00000000: 2ce9 63bd 5ac4 393f 21fb b0bc 7df8 9ebc
00000010: 8013 a63e 61f9 b33e 3843 0fbf b0c5 a63e
00000020: 0747 c3be 2388 a03e e1f4 ca3e 974b 543e
00000030: 6742 6dbd 5ab0 c3bd e3b1 cebe bc10 2fbe
-0.055642292 0.72565234 -0.021604123 -0.019405598 0.32436752 0.35151199 -0.5596194 0.325727
-0.38140127 0.31353864 0.39639953 0.2073196 -0.057924654 -0.09555121 -0.40370092 -0.17096227

fc_out.weight f4 [1, 16]
00000000: a98e 45bf 580f d9be 5620 b23f 66fe 51be
00000010: c904 c0be ebb4 14bf b9c8 2b3f 260f 1ebf
00000020: 17c6 013f cfc8 a5be b796 09bf 491c 1bbf
00000030: 7506 323f edd9 063f d7d1 923e 2820 493f
-0.7717081 -0.4239452 1.3916118 -0.20507202 -0.3750365 -0.5808856 0.67103153 -0.61741865
0.50692886 -0.32379767 -0.537456 -0.60590035 0.695411 0.5267628 0.2867572 0.7856469

exp_avg f4 [64, 3]
00000000: 9e7d 87bd 12d8 f5bb 35d0 75bd d614 953d
00000010: 151f b4bd 21bc 603e 6640 ebbb 8076 b9bc
00000020: 4b54 24be fd07 99be 0747 cd3e b7f7 aebf
00000030: d0da 2e3d d98b 41bc 4822 11be deb3 723b
00000040: 5bb5 583c 9fdd 7cbd 1d70 a3bd ada4 fbbc
00000050: 0bdc 01be a46f fbba 131c bd39 4808 22bd
00000060: ae39 b53b b5bd d5bd 7732 453f b9ce 21bc
00000070: fe62 483c 4ac9 6fbd a4af f4bc 60b4 303e
00000080: 5d02 06bf 4402 57be 03d8 5b3e faf5 4fbf
00000090: c12e 15bc 1bad d7bd 25af 473f 8d41 1ebe
000000a0: 6c8b 413c 7c90 72be c5ae 473c 3ef0 c0bc
000000b0: 2124 243e 0086 1dbd 13c5 fe3c 2ba9 59be
000000c0: ba49 cabb d376 c13d bdad 06bf f034 843d
000000d0: e4ca 07bc 8388 ebbd 9a5b 9abc 348c 14bd
000000e0: 0171 eb3d 2e2c 5bbc 522f 543d cc71 9bbe
000000f0: 5b73 f63c 7de4 0c3c c0f8 92bd 1d92 3abd
00000100: 9686 dabd ef49 a53f 3d0c 183e 1ae2 fcbd
00000110: c326 33bd ef2a 5abe 516f 38bd f246 ec3e
00000120: 0f35 143b dd29 f23c b423 683c 0ccc 173d
00000130: 4c37 963d 409d a33e 7afd 4f3e 4fab 24bd
00000140: f07a 243f 23ba 69ba 71a4 09bb b719 f6bb
00000150: 327c 9cbd 0904 363e d70b 80bf 59e9 0f3e
00000160: ce72 4f3e 559b 7fbf ad11 02bd 5c62 df3c
00000170: b94d abbd e7d5 3d3d d6ad 27bc 4c79 99bd
00000180: abdd 9bbb 877c 4b3c fba7 a8bd e7a7 db3d
00000190: 9fc4 553e 8f66 89bf 7d5b 193c 32cb 803b
000001a0: 6d15 21bd b2b5 d93d 20e3 fcbd fe38 abbe
000001b0: ed32 803d 6665 62bb 2071 b6bd 98bc c23d
000001c0: c467 47be 4b53 113f bb47 c7bb 5305 d73c
000001d0: 53b7 cabd e087 13bc d4b7 61be a891 973f
000001e0: 4b07 463b d738 413d 7d88 86be 460a 18bc
000001f0: de84 19be fecb 3d3f 4ff8 023e a2ea 8dbb
00000200: c58e 40be e5f2 b9bf f6dc 6d3f db9d 55c0
00000210: 4077 f5bc 1f89 643e 3987 a5bf bf0f 383e
00000220: fbaa d8bc 530f aebe ac10 ad3a 7aa0 cb3c
00000230: 2afa 07be 38a8 e63d ffb1 683e 5127 98bf
00000240: dc0f 9a3c 6e3b 98bd 9607 fc3e bbf4 6fbd
00000250: 9242 ec3b f7c8 83be 4f81 393d 9726 43bc
00000260: ad81 84bd c3b9 70bd bd76 c53d 88b2 e23d
00000270: 69ba c3bc 36bb 2c3c 1bbf 8ebd 3bd9 cc3e
00000280: 0914 02bf 3a28 dd3f e75f 443e b9f6 d93e
00000290: 63ef 11c0 eda8 15bf a677 fa3d 61cd 953e
000002a0: 907f 6bbd 6806 1ebd f29d 353c e8da 2b3b
000002b0: fca4 573c 37a1 b33e 671d 4d3c 4720 ef3d
000002c0: 569a 97be c43f 513e bc7b 2d3c 0ec7 a7be
000002d0: ce98 32bf fab7 cb3d 87b0 0e3f fa9d a2bd
000002e0: 136d 0f3e 039a c8be 8244 3c3e 163a 5ebe
000002f0: d683 2b3f 3b08 a63d 02cd 28bb 63b3 d1bd
-0.066157565 -0.007502564 -0.060013015 0.07279365 -0.08794991 0.21946765 -0.0071793078 -0.022639513
-0.1604778 -0.29888907 0.40093252 -1.3669347 0.042689145 -0.011813127 -0.14173234 0.0037033479
0.013226832 -0.06173479 -0.07980368 -0.030718172 -0.12681596 -0.0019183052 0.00036069806 -0.03955868
0.0055305576 -0.10436574 0.7703013 -0.009875947 0.012230633 -0.058541574 -0.029868908 0.17256308
-0.52347356 -0.20996958 0.2146912 -0.81234705 -0.009105385 -0.10531064 0.78001624 -0.15454693
0.011813026 -0.23687929 0.012187664 -0.023552056 0.16029407 -0.03845787 0.031099832 -0.21255939
-0.0061733397 0.09446492 -0.52608854 0.064554095 -0.008288119 -0.11500647 -0.018842507 -0.03626652
0.11496163 -0.0133772325 0.05180294 -0.30360258 0.030084303 0.008599398 -0.071763515 -0.0455495
-0.106702015 1.2913188 0.14848419 -0.12347813 -0.043738138 -0.2130544 -0.045028035 0.46147877
0.0022614633 0.029560978 0.014168669 0.03705983 0.07334766 0.3195591 0.20311537 -0.040202435
0.6425009 -0.0008915981 -0.0021002556 -0.0075103897 -0.07640876 0.17774977 -1.0003613 0.14053859
0.20258638 -0.9984639 -0.03175514 0.027268581 -0.08364434 0.04634657 -0.010234317 -0.07493839
-0.0047566495 0.012419826 -0.08235165 0.10725384 0.20875786 -1.0734423 0.009360191 0.003930473
-0.039327074 0.10630359 -0.12348008 -0.3344192 0.06259713 -0.0034545301 -0.08908296 0.09508628
-0.19473177 0.5676772 -0.006081549 0.026247656 -0.098982476 -0.009004563 -0.22042781 1.1841326
0.003021675 0.047173347 -0.26276007 -0.009279793 -0.14992091 0.7413939 0.12790035 -0.004330949
-0.18804462 -1.452725 0.92915285 -3.3377597 -0.02996409 0.22317933 -1.2931892 0.17974757
-0.026448717 -0.33996066 0.0013203821 0.024856795 -0.13279024 0.11262554 0.2272415 -1.1886998
0.01880639 -0.0743321 0.49224538 -0.058583003 0.0072100842 -0.25739262 0.045289334 -0.011911056
-0.06470046 -0.058770906 0.09641788 0.110692084 -0.023892598 0.010542681 -0.06970044 0.40009484
-0.5081182 1.7277901 0.19177209 0.42571047 -2.280236 -0.58460885 0.122298524 0.29258254
-0.0574947 -0.03858033 0.01108502 0.0026223008 0.013161894 0.35083935 0.012519217 0.11676078
-0.29609936 0.20434481 0.010588583 -0.32769054 -0.6976441 0.099472 0.5573811 -0.07940288
0.14006452 -0.39180002 0.18385509 -0.21701846 0.6699804 0.081070386 -0.002575696 -0.102392934

exp_avg_sq f4 [64, 3]
00000000: ef45 703e bb70 943c 743d 423f 77cd 233f
00000010: f2a5 753d 69c9 9c3f bb5f 253d eded 933d
00000020: 8ddf 053f dbe2 bc41 048e c23f 96e1 c641
00000030: 70f4 543f c2fb 9e3d b0e5 1d40 ec2e b33b
00000040: 8953 b23b aba2 8e3d 3caf d93e 5e52 053e
00000050: c56a 473f 4c74 563d 815d 063d 86ce 803f
00000060: 82a9 043d f25d 823d a532 fe3f 6b73 223b
00000070: 0297 ae3b c30c dd3d 9651 9640 6449 c33e
00000080: 057b d540 71e3 8940 c7a5 8e3e 4cec 9140
00000090: d1f5 613d d51a 3b3d cef4 e83f bb43 8e3f
000000a0: b766 953e 1089 6a3f 9e4f 8b3c e733 063c
000000b0: 9fe7 1a3e 8c47 d63d a1a7 903d 8981 0b40
000000c0: ee29 823d 1ec5 9a3d 5511 f33f 301e a93f
000000d0: ffff 973d f1f6 0f40 7830 783d cbb0 043c
000000e0: 006e e03e 7e74 353c f1d6 983c 1e60 d83e
000000f0: 8ec0 b93e 5f06 5b3e 6c9c e440 5927 193f
00000100: e907 923e 0009 8b41 85cc 713f 8188 2b3e
00000110: eda0 5840 55d8 0841 4390 173f 3671 6341
00000120: 3f61 8e3e 57c7 d23d 0227 9440 66ea 273f
00000130: c902 8c3e 7d2d 2741 752b 8b3f ad4c 443f
00000140: e442 ca41 ecd0 253b 74cd 813b d429 ae3d
00000150: cff6 7a3e 48b0 533f 7f8b b241 175d 803f
00000160: c06c 443f bfbf da41 e91b ea3c 549b 2d3d
00000170: 1685 7e3f afb1 b33e 7a83 153d 0e24 8c3f
00000180: 863d 2a3d c752 7e3c f49d 253f 2a3e bc3e
00000190: 2cdd 033f 3114 6f41 861d ec3d 3d7d b53d
000001a0: 67b5 ca40 e5b5 2340 9211 953e ad53 a040
000001b0: 7dc2 293f a4f3 113d 7553 3f3f fb56 b33f
000001c0: 1f85 bc3d aec6 5940 8da6 af3c c7bb 623d
000001d0: 86b9 d43f 6a11 d43c b584 f43d 2b51 7140
000001e0: 95cf 813c 35d4 9b3c 7261 d73e 558c 493e
000001f0: 39e8 183e 8135 7940 53bc 5940 9d14 7d3e
00000200: 78aa 9340 5ec3 5c42 c5f4 5540 041f 5342
00000210: 9be8 043e 8e7c 9a3e d00f 1241 561f 7640
00000220: b4ff 603e 6fe6 9340 7ffe 473d 5735 3f3d
00000230: 8a3e 2840 ef87 ba3e 1b1a 2c3f 4ce7 a041
00000240: 4a2c c03c a104 9e3c 2663 e43e 817a 633e
00000250: 4e98 953d c0c2 c83e 4302 453f 6060 493d
00000260: ded5 7b3f e800 ac40 6006 333f 3c89 5941
00000270: ba42 da3c 3fd6 f33b 070d 3c3f d163 fd41
00000280: ac4b d93f 53dd e941 f796 b940 7366 693f
00000290: 5617 bb41 01f5 1742 8af7 f93f d193 3a42
000002a0: a979 d73d 535d 083d fd10 db3f 3bc4 1a40
000002b0: 3626 be3e c2df 5541 4c79 073f 6760 903e
000002c0: cde4 5241 61b1 ff40 1be4 c83e 8f68 7a40
000002d0: 8365 5f42 442f 0f40 892e 3742 b76d 6540
000002e0: 7019 953e ea85 c140 6522 b140 2633 bf3e
000002f0: 5c1c d840 bfba 993f 992c 683d 92f6 3e3f
0.23464178 0.01812016 0.7587502 0.6398539 0.05997271 1.2248966 0.0403745 0.07223115
0.52294236 23.61077 1.519959 24.86015 0.8318548 0.07762863 2.467144 0.00546824
0.005442087 0.0696462 0.42516506 0.13019702 0.7789729 0.052357003 0.032804016 1.0063026
0.032388218 0.06365575 1.9859205 0.0024788033 0.00532806 0.1079345 4.697459 0.3814193
6.671267 4.309014 0.27860853 4.560095 0.05516607 0.045679886 1.8199708 1.111442
0.29179928 0.9161539 0.017005738 0.008191085 0.15127419 0.10462865 0.07063223 2.1797812
0.06355654 0.07557128 1.8989664 1.3212337 0.07421874 2.249447 0.0605931 0.008098791
0.43833923 0.011075137 0.01865718 0.42260832 0.3627972 0.21389149 7.1440945 0.59825665
0.2852166 17.379395 0.944527 0.16751291 3.3848221 8.552815 0.592045 14.215139
0.27808568 0.10291927 4.6297617 0.6559204 0.27345875 10.448606 1.0872637 0.766795
25.282661 0.002530153 0.0039612595 0.08504072 0.24508213 0.8269086 22.318113 1.0028409
0.7672844 27.343626 0.028577762 0.04238446 0.99421823 0.350965 0.03650234 1.0948503
0.04156258 0.015522665 0.6469414 0.36766177 0.51509356 14.94243 0.11529069 0.08861778
6.334644 2.557977 0.29114968 5.0102143 0.6631239 0.035632744 0.7473672 1.4010919
0.09205078 3.4027514 0.021441722 0.05535486 1.6619117 0.02588721 0.11939374 3.770579
0.015846053 0.019022087 0.42066532 0.19682439 0.14932336 3.8938906 3.4021194 0.24714895
4.614559 55.19079 3.3430645 52.78029 0.12979357 0.30173153 9.12886 3.8456626
0.21972543 4.621879 0.04882669 0.04668173 2.628817 0.36431834 0.67227334 20.112938
0.023458619 0.019289317 0.44606894 0.222147 0.073044404 0.39211082 0.76956576 0.049164176
0.9837321 5.3751106 0.699316 13.5960045 0.026643146 0.0074413116 0.7345738 31.673738
1.6976218 29.233068 5.7996783 0.9117195 23.386395 37.98926 1.9528668 46.644352
0.10521252 0.033292126 1.711456 2.418227 0.37138528 13.367128 0.5291946 0.2819855
13.18086 7.9904027 0.3923653 3.9126318 55.849133 2.2372599 45.795444 3.5848215
0.2912097 6.047597 5.5354486 0.3734371 6.753462 1.2010115 0.056683157 0.74594986

exp_avg f4 [64]
00000000: 6cfa 13bd d13f dcbb c2a7 8dbc bd7f c43c
00000010: 6cfa 613d 63fd dd3b 9efa 0d3d cc32 003d
00000020: 1ff0 fabd 7b9c 493c c3de 27bc 993f 30bc
00000030: 31d2 25be 53ea 00bd 105e d9bc 1446 0fbd
00000040: 367a 263d b327 843d c119 2dbd e1ea 233d
00000050: eb55 5e3d 6809 f2bd d976 bf3d 8834 52be
00000060: 5889 35bd 4f83 a5bd 1741 883d 204e fcb9
00000070: 0a08 343e ddeb 923e 666a 33bd 6685 e53c
00000080: eb04 8e3b 2665 883e 583a 223c dec3 743d
00000090: 7c26 683d b529 da3c 05a4 cebc 9dbf 6ebe
000000a0: b314 2c3d 4985 5fbd 94c9 e13d ce21 6dbf
000000b0: efd7 2a3e 313f f33d 429a 88bc 275d cb3e
000000c0: b75a e4bd 1029 0a3d 5f0e 633d 11d4 13be
000000d0: 1daf d1bc 4aa0 443e ba32 1c3f 5928 05bf
000000e0: 069c 58bc 0362 febd 2833 9f3d 9d0c 3e3e
000000f0: dd93 39bf 0358 1c3d 1d4b 603d fe7a 9b3d
-0.036127493 -0.0067214747 -0.017291907 0.023986692 0.05517046 0.006774591 0.034662835 0.031298444
-0.12252831 0.012305374 -0.010245982 -0.01075735 -0.16193463 -0.03147347 -0.02653411 -0.03497894
0.040643893 0.064528845 -0.04226089 0.04001892 0.054281157 -0.118182 0.0934884 -0.20527852
-0.044320434 -0.08081686 0.0665304 -0.00048123393 0.17581192 0.28695574 -0.04380264 0.02801771
0.0043340824 0.2663967 0.009901606 0.059757106 0.056677327 0.026631216 -0.025224695 -0.23315282
0.042011928 -0.05457047 0.11024776 -0.92629707 0.16683935 0.11877287 -0.016675118 0.39719507
-0.11150115 0.033730567 0.055433627 -0.14436366 -0.025596196 0.1920177 0.610149 -0.5201469
-0.013220793 -0.12421038 0.07773429 0.18559499 -0.72491246 0.038169872 0.054759134 0.07591818

exp_avg_sq f4 [64]
00000000: b5b8 853e 5dbd 333f 9ddf fd3d 588e c941
00000010: 254d 683f a48b 3a3c 7b1a 113f 0362 bc3d
00000020: b3d3 ca3d b9f1 f53b c707 a640 a2f1 9240
00000030: a330 d63d 6958 b63f 14fd db3c a40d 5a3e
00000040: 003d 2c3e 633d b63f a784 933d 4216 083d
00000050: c62f 343f 604a 893f 8efb 923f 5f1a 1041
00000060: 7588 d53e dafe 8d3f bc44 1940 0eb5 c63b
00000070: 915c 9a3f 1610 0840 f438 8b3d 6f88 c23e
00000080: 8e85 8a3d c187 803f cd0e 753e 9aed 3d40
00000090: f64b 313f 7c2b c23f 34d7 b53d aeee 1b3e
000000a0: a4d8 1f3d 9015 cf3e eb23 6540 02dc 6a42
000000b0: 65d1 ea3e 8b97 8040 f5a8 ef3d 0b70 903f
000000c0: 6075 333d a23a 973e 741e 4f3f 60b5 be40
000000d0: 147c 193d 5d00 0742 3779 df40 ceae 1e42
000000e0: 5fdf 1e3e 2237 3c40 701d 803f 790c 0841
000000f0: 54ce 6842 c188 7640 3517 c040 73e6 a03f
0.26117483 0.7021082 0.123961665 25.194504 0.90742713 0.011385832 0.5668103 0.09198382
0.0990366 0.007505622 5.1884494 4.591996 0.104584955 1.4245731 0.026854075 0.21294266
0.16820145 1.4237484 0.07203036 0.03322435 0.70385396 1.0725822 1.1483018 9.006438
0.4170567 1.10934 2.3948202 0.006064064 1.2059499 2.1259818 0.06797972 0.37994716
0.06763755 1.0041429 0.23931427 2.967627 0.6925653 1.516952 0.08878937 0.15227768
0.039024964 0.40446138 3.5803173 58.71485 0.4586288 4.018499 0.11702148 1.1284193
0.04381311 0.2953692 0.8090584 5.9596405 0.037471846 33.750355 6.9835467 39.670708
0.15514897 2.940865 1.0008984 8.503045 58.201492 3.8520968 6.002833 1.2570328

exp_avg f4 [32, 64]
00000000: 3f74 033e ee15 d83b 360e 6839 fc7d 783b
00000010: a396 a0ba c0a9 053e 490a 353b 930f c53b
00000020: 678b 863c b81c f73d 6552 5dbc fdec c43b
00000030: ddf2 c33c 9443 e13a 816c d33c 64c7 2abc
00000040: 2587 cc3d 66a4 b638 a1fe e63d 572a 2f3e
00000050: f744 36bc a7fb 8d3d e5cc 6f3d 1489 eeba
00000060: b1c8 42bc 4214 eb3d 4749 8dba 0492 d2bb
00000070: 3111 0fbc 42c0 723d 8514 84ba 488c f539
00000080: 1139 b3bc 181f 833d cd38 cbbc 50b0 613d
00000090: 1b38 62bb 9e67 c33c 73ad 5fbc 37e1 b43c
000000a0: 21a5 133e 99f1 c43d 9b80 6abc 9668 373c
000000b0: 7cd0 ad3c 07b6 62bb 87e5 babc e6bd 023d
000000c0: 7ba7 cb3c 5656 b13b 791b 00bb 3e0f c0bc
000000d0: ba7d ebba ff11 a23d 26c4 253d cfe5 ffba
000000e0: 9b01 483e 5339 803b 3f3c e73a b6c8 72bc
000000f0: 98f4 20b9 fed8 8d3b c82e d13c 0df9 50bb
00000100: dad1 bebd 8cfa b9bc 36a9 5fbd 577d 08bd
00000110: 82d3 c7bb 5052 07bd d437 3ebc adc8 0abc
00000120: 332f b83b 6c00 03bd 01dd 52bd 9742 56bc
00000130: f9cb 913b a467 17bc 2ccf 20bc bb7a 05bc
00000140: 0261 febc 7466 83bb 3aa5 8cbd 1181 59bd
00000150: 8b91 3b3b 76d5 44bb e9a8 19bd bc86 9ebb
00000160: 502b 2f3b 6c70 e6bc f9ef 7db9 b3c3 03bb
00000170: ffc7 0e3b 93f8 80bc df86 96bb 8206 26bc
00000180: 7c8d 11bc 4da8 9dbc 99f4 293b 9f81 5abd
00000190: 6607 fabb 4228 09bd 8dfe 80ba d9b1 7cbb
000001a0: 1160 59bd 92ef 14bd 08e1 84bc 3ba9 82bc
000001b0: 14a9 8e3a 2917 11bc ad35 71bb a726 efbb
000001c0: 02ce 0cbb 96f4 18bc 37a0 86bc a422 f3bc
000001d0: 13b2 62bb 1631 88bd 2b5a 7bbc 6885 3fbc
000001e0: 07b3 8bbd ccd0 efbb 3f3b 573b e747 0bbc
000001f0: 8fde 57bc 9b57 39bc dd9b 28bd e84f e5bb
00000200: d518 153d 00c3 ccbc 2f5a 4abd 0a9a 36bd
00000210: 706d 143c dc1d 923d 9f10 dbbb 7f11 f53c
00000220: 8b3a 16bb e2ff 803d ef09 7fbd 4a4e 1e3b
00000230: e280 15bc 016b 96bb 97ab 103c 4f2f 823c
00000240: 2001 783d e3d6 12bc 3716 673d 86e6 ca3d
00000250: 9dfa 91bc 52d3 023d ff82 e53c 1102 aeb9
00000260: bf1d abbc 8e74 7c3d 1f8b a8bb 4a04 b9bb
00000270: a69d 81bc 6c56 803c e461 733c ad93 f13c
00000280: 3273 313c ba4c 623c e6de 6ebc ff87 7d3b
00000290: 1a97 c8ba b7f6 d9ba c81b d1bb 0a7f c93b
000002a0: 1ece a23d b5e1 8e3d d1b8 0dbd ee14 813b
000002b0: 6f69 81b8 ebe9 4bbc a22d c6bb 8ad1 65bc
000002c0: 62e1 803b 51c7 fbbb 0775 3a3c 3dba 88bd
000002d0: 2151 1e3a 5734 b73c 3fbb da3c fdc2 9fbb
000002e0: 80db 033e 3120 69bc 3d17 1ebc edb4 15bd
000002f0: e085 8aba 9f14 9bbc 9665 12bc d5de cdb9
00000300: aa59 bd3d c3b6 b8bc eb7a 11bd 73e2 4abd
00000310: df1a f83c 53dc 003e 63b2 8abc f01c 3f3d
00000320: 491f e5ba 9f5d e83d 49bf 6abd a576 4ebb
00000330: d042 48bc 4b31 49bc 0c80 763c c283 303d
00000340: 1a6e cd3d 8edd 48bc 6461 e83d 2760 2e3e
00000350: 9e84 96bb c4be 863d 8cd3 573d 3619 4d3c
00000360: a456 343b c7f6 cc3d 31f3 123a 5563 0dbb
00000370: b1ad 87bb d12a d33c ecc3 163d fad8 763d
00000380: ec85 683d 9073 bc3c 748d dd3b 8bb9 d03c
00000390: ad48 713c 0b6d 853c e3e3 3a3c 090a 4c3c
000003a0: b097 0c3e 7a86 d83d 2e47 4abd dd03 243c
000003b0: d5fd 293c 24e1 68bc 82de 6a3c 7d11 cebc
000003c0: a312 1c3c 3be9 87bc ed8c a03c a5e8 97bd
000003d0: 556e 883a 6050 7f3d 474f 0d3d 882f 77bc
000003e0: 8fab 513e 7bc4 1fbc 7d18 e73b de32 2fbd
000003f0: 93bf 3ebc 0744 c9bc 18b5 443c 7925 3d3c
0.12837313 0.006594411 0.00022130538 0.003791689 -0.0012251924 0.13053036 0.0027624539 0.0060138195
0.016423894 0.120660245 -0.013508414 0.0060096965 0.023919517 0.0017186278 0.025808575 -0.010423515
0.09986714 8.709058e-05 0.11279035 0.17105995 -0.011124841 0.069327645 0.058545012 -0.0018198811
-0.011888669 0.11478473 -0.0010779285 -0.006426098 -0.008732126 0.059265383 -0.0010076916 0.0004683456
-0.021877797 0.06402415 -0.024807358 0.055099785 -0.0034518305 0.02385312 -0.013652193 0.022080047
0.1441846 0.096163936 -0.0143128885 0.011194369 0.021217577 -0.003459336 -0.022814525 0.031919383
0.024860134 0.0054119034 -0.0019547625 -0.023444768 -0.0017966547 0.07913589 0.040470265 -0.0019523444
0.19531862 0.0039130836 0.0017641856 -0.014818361 -0.00015349907 0.004328846 0.025535002 -0.0031886727
-0.0931737 -0.022702478 -0.05460473 -0.03332266 -0.0060982117 -0.033037484 -0.01160999 -0.008470696
0.005620861 -0.031982824 -0.051480297 -0.0130774 0.0044493643 -0.009241018 -0.009815019 -0.008146937
-0.031052116 -0.004010016 -0.06867452 -0.053101603 0.0028620686 -0.003003446 -0.0375146 -0.004837839
0.0026728697 -0.028129779 -0.00024217357 -0.002010566 0.0021786687 -0.01574353 -0.0045937146 -0.0101333875
-0.00888383 -0.019245291 0.0025933145 -0.053346273 -0.0076302765 -0.03348566 -0.0009841487 -0.0038558154
-0.05307013 -0.036361285 -0.016220585 -0.015949836 0.001088413 -0.0088556195 -0.0036805675 -0.007298309
-0.0021485095 -0.009335658 -0.016433818 -0.029679604 -0.0034591004 -0.066499874 -0.015341322 -0.011689521
-0.06821256 -0.0073185917 0.003284171 -0.00850103 -0.013175621 -0.011312391 -0.041164268 -0.006998051
0.036400635 -0.024995327 -0.049402412 -0.044580497 0.009059295 0.071346015 -0.006685331 0.02991557
-0.0022923078 0.06298806 -0.062265333 0.002415555 -0.009124966 -0.0045903926 0.008829973 0.0158917
0.060547948 -0.008962366 0.05641767 0.0990725 -0.017819697 0.031939812 0.028016565 -0.00033189406
-0.020888207 0.061634593 -0.0051435377 -0.0056462632 -0.015822243 0.01566621 0.014854882 0.029489363
0.010830687 0.013812238 -0.01457951 0.0038685796 -0.0015303821 -0.0016629313 -0.0063814856 0.0061491774
0.0794947 0.06976644 -0.034600083 0.0039392626 -6.170838e-05 -0.012445907 -0.0060479203 -0.014027009
0.0039331177 -0.0076836725 0.011380441 -0.06676147 0.0006039311 0.022363825 0.026700614 -0.0048755393
0.12876701 -0.014228866 -0.009649095 -0.036549497 -0.0010568462 -0.018930731 -0.008935353 -0.0003926667
0.09245618 -0.022548085 -0.035517614 -0.049532365 0.03028625 0.12584047 -0.016930765 0.046658456
-0.0017480637 0.11345982 -0.05731133 -0.0031503823 -0.012222961 -0.012279819 0.015045177 0.043094404
0.10030766 -0.012259854 0.11346701 0.17028867 -0.004593446 0.065793544 0.05269198 0.012518218
0.0027517462 0.100080065 0.00056056964 -0.00215741 -0.0041405787 0.025777252 0.03680794 0.06026552
0.056768343 0.023004323 0.0067612473 0.025479099 0.0147268 0.016287347 0.0114068715 0.012453564
0.13729739 0.10572524 -0.04938429 0.010010687 0.01037546 -0.014213834 0.014335277 -0.025154823
0.009525928 -0.016590705 0.019598449 -0.0741742 0.0010408858 0.06233251 0.034499433 -0.015087016
0.204756 -0.009751434 0.00705248 -0.04277312 -0.011642355 -0.02456857 0.012006067 0.011544579

exp_avg_sq f4 [32, 64]
00000000: 1a89 ad3d 895c f93c 530b 963e 9335 243d
00000010: be90 2f3e 6388 503d 2fe7 de39 78db cb3d
00000020: 0866 903b 60a6 2f3d 3334 343e 42e2 da3d
00000030: 4c19 383c 7de4 5d39 a922 493b 2bb2 473e
00000040: fe24 e53c 5050 173c a336 6a3d 7c7c ab3d
00000050: 9e05 603e 80d9 503d 47ea 1b3d 344f fe3d
00000060: 26a9 b83e b7cf 3a3d 7935 923d f7a3 0d3d
00000070: 49c4 823e 6dc0 943c 3232 423e 4a72 b23e
00000080: 4b87 453f b4de d43c 6858 e23d 582e 1a3e
00000090: 07af 083e 7f75 b93c dc11 e33d d213 093b
000000a0: 67eb 753d f67a e03c b2d0 303e b264 463a
000000b0: fab9 0d3e c526 4a3d 6c9a ac3d f5db ca3c
000000c0: 03d4 473b 9957 ff39 444e 5d3e bed1 403e
000000d0: d647 233b 7b74 123e ee89 553d 43ed 1c3d
000000e0: fa75 d53d 4afe b83d 925b 3e3e dc7b b63d
000000f0: 292b e03c 4fb5 463c f2de 8e3d c4b7 9a3d
00000100: 862f 513d 1761 033c 53dc d83c c91b a53c
00000110: 51ab b43d eace 963c 6b9a 4b3b c81c 803d
00000120: 507a b83a 9d64 933c 736b e33c 4a0f b03c
00000130: 047b 8c3b b5e4 db3a 3124 273b e3da d43d
00000140: aa47 113c 3277 8d3a c98a b43c 964e ef3c
00000150: e15a 503d d7b4 e73b 8dff bc3b 9e89 3d3d
00000160: b358 c73d c1ec 323c 0b19 983c 6283 1a3c
00000170: 843d 603d b5ab ed3b 58c8 a03d d68b 3b3e
00000180: ac41 9e3e 4b93 423c 6240 eb3c 3e0f 853c
00000190: 77d0 813d f94f a23b d56d 123d c553 d83a
000001a0: 1d0d e83c 4ce8 033c 6055 ab3c bd51 e039
000001b0: 9b26 a83c c357 353c 33e9 0a3d 7434 6f3c
000001c0: 519d 183b 60b0 2d3b add7 9f3d 8d6b 033d
000001d0: d649 643a 0f36 a83c 9c38 093c 9f37 c03b
000001e0: 61eb 043d 665b ff3c 9d52 283d 909b e33b
000001f0: ff4e 6d3b 564d a63b c83b 1d3c 5302 1b3d
00000200: 48e9 563e b658 063e 8f4a a33f 427a 393e
00000210: 8148 1a3e b06e 643d 3e54 df3b a034 a23d
00000220: de13 f73b e914 6c3d eab7 453f c6fa aa3d
00000230: d6ae bf3c a697 6a3b e225 143c 5825 d93d
00000240: 55e3 c23c b86e 1b3d 576e dc3d 396e ac3d
00000250: 738c 6f3d 9a7d c63c 2ce5 fe3d 7c25 c43d
00000260: 0ca0 0b3e 29cf fd3c 38a7 c53c 3122 ec3b
00000270: 9705 4c3d e3fd 043d c0d3 ba3d 9fb6 5e3e
00000280: a189 8d3e 4fe4 583d 0e9c 643c c1e2 193f
00000290: d5bf 393e 7577 ae3d 3c98 183d c915 d73b
000002a0: a9f8 b53d dc29 933c 9bfe 163f fc79 aa3a
000002b0: 8298 8d3c 7030 303e a272 713c a6f9 873d
000002c0: dc21 203c 860a e73b 14be 1f3e 7fa2 4f3f
000002d0: ab9e c939 1629 053f 8a73 3d3c 5db0 ab3d
000002e0: edb2 c03d 605e ab3d 2f7b 6e3d 8186 c73e
000002f0: 84e5 ae3d 09cb 2b3d 0827 933e 5dec fb3d
00000300: 00d1 9c3e 1955 013e 3626 9c3f af66 323e
00000310: 3334 743e 5003 1f3e b685 953b 0bb9 033e
00000320: 81cf 973c d967 143e 1f55 3b3f be39 163e
00000330: 7033 373d f0e8 173b 33fe 863c 2e00 4b3e
00000340: 463e 973d 08d3 163d 945d 303e 530b 723e
00000350: 7fd2 463e e081 c43d 1907 083e 9c1e 243e
00000360: f169 ae3e 2b81 e53d 48c2 8d3d e82c eb3c
00000370: c853 5c3e 18a4 833d ba75 473e 9cdb d43e
00000380: 0a29 333f 193c c83d 47da 9a3d aa8c 173f
00000390: 88a4 733e db00 b23d 7529 c23d fe92 4f3c
000003a0: 999a 503e c68b 803d 13ff 163f 240f ea3a
000003b0: 5742 043e 05b3 313e dd0a 6e3d a6c5 d73d
000003c0: 3ad5 9a3c 4a0f c03b f46d 8e3e 8cb7 453f
000003d0: 6dae 073b 8e03 0a3f 58b0 6e3d 63f9 c23d
000003e0: 570b 883e 82fb 053e db24 383e b74d be3e
000003f0: d75e b43d 48c9 343d 0baf 8f3e 78f2 1c3e
0.08473416 0.030439632 0.29305515 0.040090155 0.17145059 0.05091132 0.00042515385 0.0995397
0.0044066943 0.042883277 0.17598037 0.106876865 0.0112365 0.00021161321 0.0030690825 0.1950156
0.02797174 0.009235457 0.057181012 0.08373353 0.21877143 0.050988674 0.03806522 0.124174505
0.3606655 0.04560825 0.07139105 0.034580197 0.2554038 0.018158162 0.1896446 0.3485282
0.77159566 0.0259851 0.110520184 0.15056741 0.13348018 0.022639034 0.11087391 0.0020916355
0.06003895 0.027402382 0.17267111 0.00075681054 0.13840476 0.04935338 0.08427891 0.024763087
0.003049136 0.00048702655 0.21611887 0.1883001 0.0024914644 0.14302246 0.052133493 0.038312208
0.10422893 0.09032877 0.18589619 0.08910343 0.02736433 0.012128188 0.06976117 0.07554582
0.051070713 0.0080187535 0.026472246 0.02015485 0.088217385 0.018409211 0.0031067382 0.062554896
0.0014074538 0.017992312 0.027761197 0.021491665 0.0042871255 0.0016776534 0.002550375 0.10393312
0.008867184 0.0010792969 0.022038834 0.029212277 0.05086792 0.0070711183 0.0057677687 0.04627382
0.09733715 0.010920704 0.018566629 0.009430738 0.054746166 0.007253135 0.078507125 0.18315062
0.3090948 0.011875938 0.028717224 0.01624262 0.0633859 0.004953381 0.035749275 0.0016504457
0.028326565 0.008050989 0.020914733 0.0004278551 0.020526221 0.011068287 0.033913802 0.014599908
0.0023287127 0.0026502833 0.07804809 0.03208499 0.0008708512 0.02053359 0.008375313 0.0058660056
0.032451037 0.031171512 0.04109441 0.0069460347 0.0036210415 0.005075137 0.0095967725 0.037844013
0.20987427 0.13119778 1.2757128 0.18113044 0.1506672 0.055769622 0.0068154624 0.07920194
0.00754021 0.05763713 0.77233756 0.083486125 0.023398798 0.0035795956 0.009042235 0.10602826
0.023790041 0.037947387 0.10763233 0.08419461 0.058483552 0.024229813 0.12446055 0.09577462
0.13635272 0.03098257 0.024127588 0.0072062244 0.04981002 0.032468688 0.09122419 0.21749352
0.27644065 0.052952107 0.013953222 0.60111624 0.18139584 0.08518878 0.037254557 0.0065638763
0.08885319 0.017964296 0.5898225 0.0013006325 0.017284635 0.17205977 0.014736803 0.066394135
0.009773698 0.007050815 0.15599853 0.81107324 0.00038455924 0.5201582 0.011563191 0.08383248
0.094091274 0.0836761 0.058222946 0.38969806 0.085398704 0.041941676 0.28740716 0.12300942
0.30628204 0.12630118 1.2199161 0.17421983 0.23848037 0.15528607 0.0045630587 0.12863557
0.018531563 0.1449274 0.7317676 0.14670464 0.04472679 0.0023179613 0.016478634 0.19824287
0.073849246 0.03682235 0.17223197 0.23637132 0.19416235 0.09595084 0.13283958 0.16027302
0.34065202 0.112062775 0.06921822 0.028707936 0.21516335 0.06427783 0.19478503 0.415738
0.69984496 0.09777088 0.07561164 0.5919901 0.23793232 0.086915694 0.094805636 0.012669323
0.20371474 0.0627666 0.5898296 0.0017857295 0.12915932 0.17353447 0.05811583 0.10535745
0.018900502 0.0058611976 0.27818263 0.77233195 0.002070333 0.53911674 0.058273643 0.09520223
0.26571152 0.13084224 0.17982809 0.37168667 0.08807152 0.04413727 0.28063235 0.1532687

exp_avg f4 [32]
00000000: 640a f13c 7b26 bdbc bb87 afbb d361 3e3b
00000010: bd93 ad3b 15fd ed3b 5acd 36bc 6a76 d3ba
00000020: cfff 973c 4519 1e3b a0db 993c 66d5 463b
00000030: 11f9 423c 9458 2339 2f77 86bc 5faf ca3a
00000040: c698 e2bb c07d 0ebc 88da b03c 2011 a1bb
00000050: 5a03 31bc 86a3 8dbb 77d0 7eba ab77 8cbc
00000060: 336b 25bc 5477 c6bb e402 9f3c e1b4 c7ba
00000070: cba4 18ba f485 3f38 7fe7 04bc 271a 993c
0.0294239 -0.023089638 -0.0053567565 0.0029050007 0.005297153 0.0072628357 -0.011157358 -0.0016133313
0.018554596 0.0024123949 0.018781483 0.0030339598 0.011900202 0.0001557789 -0.016414253 0.0015463642
-0.0069151847 -0.008696973 0.021588579 -0.0049153715 -0.010804022 -0.004322472 -0.0009720395 -0.017146906
-0.010096359 -0.0060567055 0.019410558 -0.0015236401 -0.0005822896 4.5662702e-05 -0.008111834 0.018689228

exp_avg_sq f4 [32]
00000000: 8114 583d 45a3 043c 4bda 223e bf7a 2d3e
00000010: 48e5 d03d a3d0 433e 999c 923d f651 103e
00000020: bfb3 633d 575d 413e 9ce0 b73d ce15 d73c
00000030: f7be af3e 1ede 1b3e 9597 2b3e bd30 1c3d
00000040: b41d bb3e cb95 0f3d feb7 1e3f 5e7c 6d3c
00000050: 83b8 253d cec2 913d 0cc7 9e3e 8b36 8b3e
00000060: f838 2c3c 3ce8 9f3d 265c ea3d 375e e43e
00000070: 9768 fb3d 3436 f83d 4c8a 9e3e 3dc9 583f
0.05275393 0.008095567 0.15903585 0.16941355 0.10199982 0.19122557 0.07158775 0.14093766
0.05559134 0.18883263 0.08978388 0.026255514 0.34325382 0.1522145 0.16757043 0.038132418
0.365461 0.035054963 0.619995 0.0144949835 0.040459167 0.07117234 0.31011236 0.2719005
0.010511629 0.07807967 0.11443357 0.4460313 0.12275808 0.121197134 0.30964887 0.84682065

exp_avg f4 [32, 1]
00000000: a4ea a63c df79 a23b 5286 02bc 7149 13bb
00000010: adde 9c3c e9f3 7abc c71f d7b8 b45f 373b
00000020: f754 1cbb 5c4a 4ebb 8c06 f4bc dd6e 8b3c
00000030: 44b7 aa3c 52cb 5fbb 742d 5eba 61eb 6fbc
00000040: bdd5 30bd 5e36 eebc fc1d 91bc bb91 0a3c
00000050: c6a2 b638 4e90 e83c 7cf2 20bc a23f e5ba
00000060: 929a 8fba 125e f33b 964b 83ba aefd 8a3c
00000070: 04ff 1abc 9b6f d13a d082 86bc 10d6 b2bb
0.020375557 0.004958376 -0.007966595 -0.0022474194 0.019149149 -0.015316942 -0.00010257918 0.0027980627
-0.0023854354 -0.0031477427 -0.029788278 0.017020637 0.020839341 -0.0034148288 -0.0008475401 -0.014643521
-0.043172587 -0.029078659 -0.017714493 0.008457596 8.708755e-05 0.028389122 -0.009823438 -0.0017490278
-0.00109561 0.0074269855 -0.0010017033 0.016966667 -0.0094602145 0.0015978696 -0.016419798 -0.005457647

exp_avg_sq f4 [32, 1]
00000000: 95e1 0b3c 2261 8b3b 8c84 713b 006b 5a3d
00000010: 3b6b 403c aca5 1d3e ab69 d43c 1262 493c
00000020: 9877 973c 6318 953b 42d5 4f3c 03f8 ca3c
00000030: 157d 3a3d 4840 a33b 9818 e73a d1ef 593c
00000040: 2df8 833c 6261 003e 413a 553b 818c c13c
00000050: afeb c83a 6b06 a53e facb 073c 248b 533c
00000060: 5c41 c23d 2b21 b43b 6972 163c b69f c03c
00000070: 97a1 a23d 78bd 8939 84eb 413b acff 183c
0.00853767 0.0042535225 0.0036852686 0.0533247 0.011744316 0.1539523 0.025929293 0.012291448
0.018489644 0.0045500263 0.012685122 0.024776464 0.045529444 0.004982028 0.0017631231 0.013301806
0.01610955 0.12537149 0.0032535943 0.023626568 0.0015329028 0.3223146 0.008288378 0.012911592
0.094851226 0.005497118 0.009182551 0.023513656 0.07940977 0.00026271841 0.002958984 0.009338301

exp_avg f4 [32]
00000000: e06c 2cbc b425 f039 a6f0 13bb 618c 05bb
00000010: 008f febb f5f0 673c 1cae 63bb ec18 983b
00000020: 1c40 86bb db47 163b 99ac eb3b 0a81 17bc
00000030: de94 3bbc 5ea0 6fbb 0033 20bb 79dd 853c
00000040: 8322 29bb deba 82bb 2f49 20bb 9d6d 073c
00000050: d52d 133c e322 58bc 0e13 423c ff0a 1bbb
00000060: 547b d23b 94ec 62ba fa1f a4bb 82a3 f3bb
00000070: 4f46 a1bc f60c 92bb 5f48 84ba 3f1d 5b3c
-0.010524005 0.00045804458 -0.0022573858 -0.0020377862 -0.007768512 0.01415657 -0.0034741228 0.004641643
-0.004096998 0.0022931013 0.007192206 -0.009247074 -0.011449067 -0.0036564092 -0.002444446 0.016340958
-0.0025807924 -0.0039895615 -0.0024457683 0.00826588 0.008983095 -0.013191911 0.011845363 -0.0023657677
0.0064233933 -0.00086564687 -0.0050086947 -0.007435263 -0.019686846 -0.0044571115 -0.0010092369 0.013373672
