2_수학으로 풀어보는 강화학습 원리와 알고리즘/rackhun/2_A3C_pendulum/data_base/saved_model/A3C_ACTOR.pth (torch_old, 13125 bytes, 8 tensors)

fc1.weight f4 [64, 3]
-0.7193319 0.5454291 -0.3673167 0.45839596 0.29140538 0.5810546 -0.15697014 0.001334064
0.015199195 0.018774038 -0.029294107 -0.37520558 0.40800145 -0.006646377 -0.39211166 0.41071993
0.26702657 0.02208593 0.5844257 0.6123753 0.30110896 -0.039780796 -0.6408416 -0.345108
-0.07269596 0.630625 -0.13567631 -0.356601 0.32199618 -0.34674403 0.13185315 0.17412008
0.31744015 -0.3810753 -0.31922704 0.39995778 0.1699979 0.7031675 0.28141633 -0.47567162
-0.11979259 -0.15751417 -0.66669863 0.4485257 -0.21881361 0.7045784 0.061344832 0.02173861
-0.25083816 0.1001531 0.02758217 -0.71147484 0.29105788 0.22556463 0.55607545 0.47941646
-0.15652144 0.43715793 0.36578605 -0.4806196 -0.6725245 -0.428455 0.29451293 0.086579025
0.32803026 0.5145352 0.6190164 -0.6053795 -0.5651583 -0.17995138 -0.5210963 0.049416445
-0.56805253 0.5810286 0.55322546 0.79110336 0.2642432 -0.045091975 0.3918699 0.5055476
-0.4846836 -0.69307745 -0.3199941 0.0066830274 -0.086540006 -0.089513965 -0.39436924 -0.3119601
-0.55315566 0.1453874 0.12184713 0.38588813 0.4194936 0.71154785 -0.11177619 -0.17351304
0.6145982 0.47465864 0.19491492 -0.65666485 -0.43593574 -0.068757236 -0.41299155 -0.111831844
0.45778883 0.27408698 -0.03729198 0.41628215 0.0058210725 0.28138858 -0.3704674 -0.0070541454
0.61871547 0.42331588 -0.18170087 -0.23337802 0.5013866 0.28966027 0.46591693 0.07345852
0.6521623 -0.2387623 -0.25088206 -0.0062401863 -0.29434994 0.5152119 0.6032127 -0.14865208
0.51113534 0.38785255 0.06633264 0.0003439188 0.6231918 -0.12005335 0.011825154 0.6645543
0.5097458 0.27399835 0.15782458 -0.33124354 0.5017304 -0.19694775 0.60329217 0.29104567
0.37957972 0.46204236 0.10071113 -0.14969887 0.48062184 -0.12945306 -0.4461115 -0.54892707
0.15636231 -0.4342803 0.41831312 0.15389536 -0.6419095 0.05624735 0.5442279 -0.24610075
0.44076225 -0.26648393 -0.16969398 -0.5053515 0.43305838 0.5013943 0.12319069 -0.15041547
-0.038083103 -0.4268378 0.49797735 0.14066009 0.36067146 0.49182236 0.15541829 -0.5301486
-0.07221121 -0.37131006 0.53155243 -0.15667042 0.40380117 -0.64875674 -0.33416006 0.72861123
0.52186394 0.29977068 0.5159818 0.14490938 0.27983904 -0.2916856 0.2177898 0.4534143
00000000: 2326 38bf 3ea1 0b3f ef10 bcbe e0b2 ea3e
00000010: 1633 953e ffbf 143f c8bc 20be c3db ae3a
00000020: 0b06 793c 03cc 993c 32fa efbc f21a c0be
00000030: 91e5 d03e dac9 d9bb dcc2 c8be e249 d23e
00000040: b5b7 883e 8ded b43c ec9c 153f a1c4 1c3f
00000050: f42a 9a3e 30f1 22bd 320e 24bf ffb1 b0be
00000060: 9fe1 94bd a470 213f bbee 0abe 6894 b6be
00000070: afdc a43e 6f88 b1be 8304 073e 894c 323e
00000080: 8487 a23e 4d1c c3be ba71 a3be 44c7 cc3e
00000090: ee13 2e3e c902 343f cd15 903e 3b8b f3be
000000a0: d155 f5bd 654b 21be c3ac 2abf 29a5 e53e
000000b0: ad10 60be 405f 343f b844 7b3d 2b15 b23c
000000c0: dc6d 80be 121d cd3d 01f4 e13c 3723 36bf
000000d0: 8a05 953e 6afa 663e f65a 0e3f 1376 f53e
000000e0: 2847 20be 2ad3 df3e 4f48 bb3e c613 f6be
000000f0: 912a 2cbf 745e dbbe 66ca 963e 5850 b13d
00000100: 95f3 a73e 94b8 033f dc77 1e3f 27fa 1abf
00000110: 37ae 10bf 2d45 38be 9166 05bf e668 4a3d
00000120: e46b 11bf 4abe 143f 2fa0 0d3f c085 4a3f
00000130: e24a 873e 5db2 38bd 2ca3 c83e 916b 013f
00000140: 7328 f8be 866d 31bf 44d6 a3be 4cfd da3b
00000150: e33b b1bd 1953 b7bd c4ea c9be 3cb9 9fbe
00000160: 9c9b 0dbf 6fe0 143e fd8a f93d 2193 c53e
00000170: ddc7 d63e 0028 363f eaea e4bd 67ad 31be
00000180: 4f56 1d3f 7506 f33e c797 473e 301b 28bf
00000190: f832 dfbe 98d0 8cbd a173 d3be 1808 e5bd
000001a0: 4c63 ea3e 2155 8c3e 7abf 18bd ef22 d53e
000001b0: b2be be3b 2a12 903e e7ad bdbe 7626 e7bb
000001c0: 2364 1e3f dcbc d83e cb0f 3abe a6fa 6ebe
000001d0: df5a 003f 5a4e 943e aa8c ee3e 6c71 963d
000001e0: 1cf4 263f 1b7e 74be 9d73 80be 7a7a ccbb
000001f0: 09b5 96be ede4 033f 266c 1a3f 4038 18be
00000200: c4d9 023f 9c94 c63e 68d9 873d 0050 b439
00000210: 7f89 1f3f 88de f5bd 4abe 413c 3b20 2a3f
00000220: b37e 023f 8349 8c3e c49c 213e c198 a9be
00000230: 6771 003f acac 49be 5b71 1a3f f003 953e
00000240: 4658 c23e d190 ec3e a341 ce3d a94a 19be
00000250: 1114 f63e 588f 04be ba68 e4be 7c86 0cbf
00000260: 711d 203e fd59 debe 232d d63e bf96 1d3e
00000270: 2e54 24bf 9f63 663d 8552 0b3f d601 7cbe
00000280: 97ab e13e 9570 88be 42c4 2dbe b75e 01bf
00000290: d4b9 dd3e 605b 003f 674b fc3d 8306 1abe
000002a0: 07fd 1bbd 7c8a dabe e3f6 fe3e 3309 103e
000002b0: eea9 b83e 24d0 fb3e f925 1f3e d2b7 07bf
000002c0: 79e3 93bd 5a1c bebe d213 083f 366e 20be
000002d0: 07bf ce3e ec14 26bf 0717 abbe 4486 3a3f
000002e0: e098 053f 8b7b 993e 6217 043f 2063 143e
000002f0: 1047 8f3e d157 95be 4a04 5f3e eb25 e83e

fc1.bias f4 [64]
0.27690497 0.5783809 -0.27914253 0.57673675 -0.4841973 0.18203017 -0.17614976 0.3587704
0.32563284 -0.2393423 -0.4811358 -0.2831852 0.12011722 -0.04319719 -0.021265492 0.24862358
0.34351462 -0.17822744 -0.42354524 0.4869307 0.20890254 0.010359551 0.41257522 0.37971184
0.21174905 0.5990951 0.026033303 0.47991228 0.050419085 0.46969292 0.45687357 -0.26284596
0.12366549 0.54521877 0.04795361 0.5930645 -0.026390573 -0.044483792 0.12746195 -0.14676239
-0.08682532 0.35619107 0.31524748 -0.5388072 0.2618439 -0.06322501 0.4151798 0.579933
-0.12863494 0.27712977 0.48584747 -0.116440676 0.2731784 0.5616337 0.5917264 0.3639946
-0.28587672 0.17736413 0.13417959 0.11184511 -0.0732896 -0.40229183 -0.041865397 0.0193663
00000000: 7dc6 8d3e c510 143f c5eb 8ebe 05a5 133f
00000010: b5e8 f7be 1e66 3a3e 9a60 34be c1b0 b73e
00000020: 59b9 a63e 2616 75be 6e57 f6be a7fd 90be
00000030: 0400 f63d 89ef 30bd f834 aebc 2e97 7e3e
00000040: 26e1 af3e 4181 36be ecda d8be fb4e f93e
00000050: 8cea 553e 1bbb 293c 0f3d d33e 9769 c23e
00000060: bed4 583e 4c5e 193f cb43 d53c 10b7 f53e
00000070: 3e84 4e3d 977b f03e 55eb e93e bf93 86be
00000080: 5544 fd3d 7593 0b3f 016b 443d 13d3 173f
00000090: 0b31 d8bc a334 36bd 6385 023e e148 16be
000000a0: 79d1 b1bd ad5e b63e 1e68 a13e 45ef 09bf
000000b0: 6710 863e 1d7c 81bd 7292 d43e 7d76 143f
000000c0: e1b8 03be f4e3 8d3e 00c1 f83e 7378 eebd
000000d0: 0ade 8b3e 3ac7 0f3f 627b 173f 805d ba3e
000000e0: 6f5e 92be f19e 353e 6066 093e 0d0f e53d
000000f0: dc18 96bd 32f9 cdbe 0d7b 2bbd 13a6 9e3c

fc2.weight f4 [32, 64]
-0.032683942 0.14396957 -0.04554153 0.09238148 -0.01282614 -0.062786974 0.051016826 0.16923468
-0.033320468 -0.092724144 -0.11152632 0.13572073 -0.0817526 -0.09066225 -0.16237421 0.08795895
0.089541346 0.14081833 0.13748288 -0.026429381 0.06169292 -0.08690462 0.010861641 0.2230429
-0.03961829 0.16275035 -0.01635581 0.17920355 0.14324631 0.21355622 0.0072184913 0.06140847
0.028595347 -0.08869225 -0.0008803809 -0.061804097 0.103631824 0.0016442981 0.0492754 -0.24603863
0.22991636 0.04409324 -0.034221217 0.075456366 -0.020832004 -0.038158417 -0.015444507 0.042418163
-0.21356975 -0.15083683 0.083545275 0.07380299 0.08014804 0.016606461 0.05662845 -0.036152076
0.069902346 0.15334076 0.13734546 0.048431627 0.07236044 0.022294808 -0.11088095 0.08195244
-0.025541717 -0.054979622 0.0022278875 -0.12630151 -0.04508629 -0.042682856 -0.01411137 -0.052584674
-0.059038986 0.09909057 0.05130051 0.041197613 -0.061349615 -0.05917004 -0.042531326 0.0697122
-0.10260308 0.025435299 -0.061324187 -0.022065975 0.06994519 0.0467159 0.018188214 -0.104237035
-0.0657765 0.028086672 0.074402854 0.02818272 0.021202601 -0.013898047 0.083038524 0.06102659
-0.11723685 0.033025872 -0.10040121 0.05117342 0.09425161 -0.050117686 -0.120627105 0.112904236
-0.09822486 0.108466744 0.05818829 -0.12092246 0.08816083 -0.09045169 -0.057027206 0.010878861
-0.0043877214 0.010495818 0.06827374 0.0024296641 0.06292501 -0.059630033 -0.11168794 0.062180765
-0.07763055 -0.007952377 -0.113635376 0.076883644 0.04813676 -0.112109646 -0.07785639 -0.09903899
-0.021783845 0.008190862 -0.0085649965 0.030709993 0.10638105 -0.16293573 0.044836733 -0.0012749665
0.027813671 0.1349954 -0.1006943 -0.009028381 0.040731706 0.054845612 0.03709176 -0.028630404
-0.030706344 0.09993493 0.06276326 0.10530219 0.11864021 -0.065014236 0.010192025 -0.066859946
0.011735994 -0.09387436 0.14982909 0.17641127 0.07676289 0.06213681 -0.10539745 -0.12131694
-0.15374988 0.17029715 0.0714609 -0.051458195 -0.009358544 0.10900111 -0.02154085 -0.12996082
-0.11118356 0.06699308 -0.1439163 0.023033172 -0.20636317 0.0006893087 0.0067662094 -0.009389505
-0.16350539 0.024823818 0.057551764 0.14662899 0.09067215 -0.04813521 -0.1221758 -0.032313034
-0.0014313593 0.076106414 0.013360302 0.17843857 -0.028877113 -0.1173012 -0.153985 -0.009939137
-0.034479827 -0.06527977 -0.060588807 0.01771456 -0.041758716 -0.06605919 -0.119778916 -0.061261192
-0.12409815 -0.100228 0.012605682 -0.104129046 0.07805295 0.12467821 -0.10983768 0.056536958
0.043528184 -0.04667993 0.107544035 -0.07753733 -0.10421659 -0.029243246 -0.08196589 -0.027255744
0.012885705 -0.107415125 0.035851985 -0.0064409375 -0.097235724 0.03202553 -0.04131025 0.097128555
0.09570089 0.09048535 -0.08844766 0.05359842 0.060588747 0.057314828 -0.10330589 -0.03780791
-0.069640905 -0.058052436 -0.09131327 -0.10690537 0.000843063 0.03566669 0.088727996 -0.091566175
0.039765954 -0.10144016 -0.014025539 -0.10382971 -0.08319266 0.025294542 0.12324463 0.063413575
0.093856335 -0.05678825 -0.04587415 -0.05281286 -0.08211526 0.045333043 0.009874508 0.09934421
00000000: 99df 05bd c26c 133e c189 3abd 8032 bd3d
00000010: bb24 52bc 7596 80bd 05f7 503d db4b 2d3e
00000020: 0b7b 08bd 28e6 bdbd e967 e4bd 60fa 0a3e
00000030: e86d a7bd 21ad b9bd 6d45 26be d223 b43d
00000040: 7461 b73d ae32 103e 50c8 0c3e 6e82 d8bc
00000050: b7b1 7c3d 0dfb b1bd 06f5 313c 5c65 643e
00000060: ca46 22bd 07a8 263e 9ffc 85bc 2381 373e
00000070: 29af 123e 7bae 5a3e 1889 ec3b 7387 7b3d
00000080: ca40 ea3c 48a4 b5bd 5dc9 66ba 4b26 7dbd
00000090: ec3c d43d 7d85 d73a 00d5 493d 8df1 7bbe
000000a0: 326f 6b3e 1d9b 343d 8c2b 0cbd de88 9a3d
000000b0: e1a7 aabc 004c 1cbd f50a 7dbc abbe 2d3d
000000c0: 07b2 5abe f874 1abe c919 ab3d 0626 973d
000000d0: a824 a43d 460a 883c 3cf3 673d 3314 14bd
000000e0: f628 8f3d 5c05 1d3e 4aa4 0c3e 3e60 463d
000000f0: b631 943d 9aa3 b63c 8d15 e3bd aed6 a73d
00000100: dd3c d1bc 5032 61bd c001 123b 2f55 01be
00000110: 67ac 38bd 38d4 2ebd 6033 67bc 0763 57bd
00000120: ddd2 71bd ffef ca3d 7c20 523d d4be 283d
00000130: bc49 7bbd 495c 72bd 5435 2ebd 45c5 8e3d
00000140: 9021 d2bd b05d d03c 122f 7bbd b4c3 b4bc
00000150: 6c3f 8f3d 2c59 3f3d 73ff 943c 3a7a d5bd
00000160: d4b5 86bd 0516 e63c 8660 983d 73df e63c
00000170: 14b1 ad3c a2b4 63bc 1a10 aa3d 05f7 793d
00000180: e019 f0bd 2346 073d 269f cdbd 389b 513d
00000190: fd06 c13d 3448 4dbd 580b f7bd 563a e73d
000001a0: 1e2a c9bd d023 de3d d856 6e3d 32a6 f7bd
000001b0: aa8d b43d bc3e b9bd 5c95 69bd 403d 323c
000001c0: e0c6 8fbb a7f6 2b3c 1ad3 8b3d 003b 1f3b
000001d0: d4de 803d 9f3e 74bd a6bc e4bd 42b1 7e3d
000001e0: c4fc 9ebd b04a 02bc aab9 e8bd 2c75 9d3d
000001f0: 0d2b 453d be99 e5bd 2c73 9fbd f4d4 cabd
00000200: 0974 b2bc f732 063c 3354 0cbc 8693 fb3c
00000210: 4fde d93d a0d8 26be b9a6 373d c71c a7ba
00000220: 7fd9 e33c 3c3c 0a3e d038 cebd c6eb 13bc
00000230: 4ad6 263d cba5 603d 88ed 173d 4f8a eabc
00000240: df8b fbbc afaa cc3d 068a 803d ada8 d73d
00000250: a3f9 f23d 2f26 85bd 74fc 263c deed 88bd
00000260: 5448 403c 3341 c0bd cc6c 193e 28a5 343e
00000270: dd35 9d3d 2b83 7e3d 9eda d7bd 0475 f8bd
00000280: 9c70 1dbe 6062 2e3e 185a 923d d4c5 52bd
00000290: 9454 19bc f93b df3d 7076 b0bc 7314 05be
000002a0: 35b4 e3bd ab33 893d cb5e 13be 10b0 bc3c
000002b0: de50 53be b9b2 343a 14b7 dd3b 70d6 19bc
000002c0: f56d 27be 525b cb3c 66bb 6b3d e925 163e
000002d0: 52b2 b93d 6d29 45bd 4e37 fabd ac5a 04bd
000002e0: 739c bbba aedd 9b3d 2be5 5a3c 9ab8 363e
000002f0: b28f ecbc 9d3b f0bd 3eae 1dbe c3d7 22bc
00000300: b83a 0dbd 66b1 85bd f82b 78bd 201e 913c
00000310: 300b 2bbd 0a4a 87bd a64e f5bd 04ed 7abd
00000320: 2c27 febd 5644 cdbd 1088 4e3c 9c41 d5bd
00000330: 3ada 9f3d 4a57 ff3d 94f2 e0bd 4c93 673d
00000340: 9c4a 323d 7433 3fbd 0c40 dc3d e4cb 9ebd
00000350: 826f d5bd 888f efbc bcdd a7bd 7047 dfbc
00000360: 901e 533c 76fc dbbd 88d9 123d 800e d3bb
00000370: 8623 c7bd 342d 033d f034 29bd 56eb c63d
00000380: d4fe c33d 6250 b93d 0c24 b5bd 048a 5b3d
00000390: e82b 783d f4c2 6a3d 0a92 d3bd 78dc 1abd
000003a0: e49f 8ebd 64c8 6dbd 7402 bbbd 34f1 dabd
000003b0: 0001 5d3a 3c17 123d 06b7 b53d 0c87 bbbd
000003c0: a0e1 223d dcbf cfbd 60cb 65bc aca4 d4bd
000003d0: ea60 aabd 8036 cf3c ae67 fc3d fade 813d
000003e0: c037 c03d cc9a 68bd 88e6 3bbd 4c52 58bd
000003f0: 0c2c a8bd 24af 393d b0c8 213c fa74 cb3d

fc2.bias f4 [32]
0.20242845 -0.064837515 0.012606861 -0.082843155 0.11759511 -0.058874667 -0.010709223 0.08728935
0.08582738 0.10323894 0.012686729 0.07267478 -0.1418512 -0.033479013 0.15525377 -0.0048437193
0.09172573 0.0045265043 0.063273266 0.035675146 0.03278207 -0.08780638 0.101155914 0.008816152
-0.09451318 -0.055084195 0.067520976 0.041565847 -0.037564985 0.020123925 0.057749696 0.042566612
00000000: 6749 4f3e 88c9 84bd 028d 4e3c aca9 a9bd
00000010: b4d5 f03d 9026 71bd bd75 2fbc c2c4 b23d
00000020: 44c6 af3d f06e d33d 00dc 4f3c 84d6 943d
00000030: 7141 11be 4a21 09bd d8fa 1e3e 10b8 9ebb
00000040: b3da bb3d 1253 943b 6a95 813d 1a20 123d
00000050: 7e46 063d d5d3 b3bd d52a cf3d 9f71 103c
00000060: 2090 c1bd f79f 61bd 7048 8a3d f340 2a3d
00000070: bedd 19bd eeda a43c f28a 6c3d 545a 2e3d

fc3.weight f4 [16, 32]
0.12877283 -0.16417646 -0.072523735 -0.022412688 0.2105429 0.14385892 0.08993638 -0.03571846
0.07989821 0.15902424 -0.12989235 0.115890644 0.22491135 0.19963981 0.09358662 0.026225053
-0.06592022 0.049130324 -0.09407429 -0.05559684 -0.1447442 -0.0047320724 0.12145906 0.18673965
0.058340617 0.21851613 -0.05183744 0.09947573 -0.14373367 -0.121800415 0.08676968 0.22539195
-0.04346763 -0.043533757 -0.0266883 0.1564277 0.119194135 -0.09240566 -0.13005023 -0.056627024
0.16409157 -0.08377959 -0.1743963 0.04775022 0.13659509 0.10456195 -0.07128034 -0.06859962
0.034400802 -0.1622595 -0.15869133 -0.08740125 0.055908967 7.149577e-05 0.024704328 -0.06897559
-0.04848396 0.04760761 -0.08628572 0.03483994 -0.15864398 -0.016063312 0.015746737 0.069329605
0.042388845 -0.11526824 0.024797091 0.10893567 0.097337775 -0.009151766 -0.19654371 0.15338026
0.18263376 0.1412362 -0.05088125 0.12296547 -0.20330238 -0.22357477 -0.10782121 0.07314427
-0.08297158 0.2323218 0.01827342 0.1088498 -0.029405477 -0.092447646 0.276495 -0.10379776
-0.1325849 -0.07819896 0.0702626 0.15934819 0.16025499 0.07739012 -0.13874438 0.09142872
0.06853451 -0.02886802 -0.0945216 -0.08052244 0.25612286 0.26917863 0.28772566 -0.011691035
0.0650363 0.10082801 0.078768924 0.11191442 0.19343886 0.13141279 0.17834997 -0.13355573
0.16981477 0.028732415 0.27765343 0.14683045 -0.13265961 0.022830801 -0.068529546 0.23504026
-0.0042789374 0.058500152 -0.043658268 -0.08616242 -0.037441548 -0.277159 0.2916701 0.210174
0.036982086 -0.12364647 -0.03290997 -0.030655116 0.087828346 -0.0643343 -0.075635515 -0.06449095
0.007753772 0.009569686 -0.0032687336 0.007702211 -0.07038379 -0.004512202 0.111676656 0.0469513
0.17395969 0.07918686 -0.027226953 -0.03483165 0.16644461 -0.03072849 0.02724008 -0.13709632
-0.13401729 0.06553853 0.0100069335 -0.12268324 0.1568453 -0.071398534 0.04899321 -0.117789865
0.16659665 0.11658721 0.044280186 -0.111165345 -0.049871042 -0.07945088 0.039617777 0.14463918
0.18667834 -0.12361933 0.14182083 -0.033019785 -0.115605496 0.07783421 0.0070817773 0.21547066
0.07380039 0.3127075 -0.23097537 0.20188932 0.028479254 0.07164644 0.25291616 -0.09684825
0.09415833 -0.16712405 0.057747383 0.23637877 -0.1096895 0.27244648 0.024972225 -0.029037531
0.2597969 0.015693612 -0.060057577 0.005977705 -0.058072437 0.051071126 -0.1933963 0.19515441
0.12752524 -0.040575985 -0.0025647432 0.0692303 -0.14685757 -0.15121959 0.02618744 0.13994952
0.07679056 0.21878123 -0.086300954 0.047110125 -0.07886327 -0.16276039 0.22386985 -0.15047978
-0.1107813 -0.088402905 0.24335216 0.03625016 0.12988651 0.28414 -0.1388201 0.01662914
-0.07331297 -0.08953943 -0.038024217 0.17161037 0.023571104 -0.04017635 -0.064039715 -0.014249772
0.028931256 0.041594993 -0.044606492 -0.16859728 0.045504853 -0.1778692 -0.05969581 0.059170738
0.10619931 -0.0957825 0.06213203 -0.037721273 -0.05485174 0.16617705 -0.15548864 0.14566647
-0.16036315 -0.09643549 0.010578059 0.16941561 0.056587964 0.12225617 0.15884025 0.12585422
00000000: 06dd 033e e01d 28be 5387 94bd d09a b7bc
00000010: 8f98 573e c14f 133e 9130 b83d 854d 12bd
00000020: aca1 a33d 40d7 223e 8002 05be 1358 ed3d
00000030: 294f 663e 616e 4c3e 58aa bf3d ecd5 d63c
00000040: 2e01 87bd e13c 493d 05aa c0bd 83b9 63bd
00000050: d337 14be 800f 9bbb 87bf f83d ae38 3f3e
00000060: 92f6 6e3d b1c2 5f3e 7f53 54bd eeb9 cb3d
00000070: eb2e 13be 7f72 f9bd 4db4 b13d 26cd 663e
00000080: 1d0b 32bd 7450 32bd 6ca1 dabc 952e 203e
00000090: 0e1c f43d 2e3f bdbd e32b 05be bdf1 67bd
000000a0: 9f07 283e a294 abbd f294 32be bc95 433d
000000b0: 95df 0b3e 9324 d63d 6dfb 91bd f57d 8cbd
000000c0: dbe7 0c3d 5b27 26be fb7f 22be 6dff b2bd
000000d0: cd00 653d 00f0 9538 bb60 ca3c 1343 8dbd
000000e0: 1e97 46bd 3200 433d 91b6 b0bd 53b4 0e3d
000000f0: 9173 22be 3597 83bc 4dff 803c aefc 8d3d
00000100: ed9f 2d3d c111 ecbd 4523 cb3c aa19 df3d
00000110: 0759 c73d 4af1 15bc c142 49be b70f 1d3e
00000120: 5804 3b3e 39a0 103e dc68 50bd 52d5 fb3d
00000130: 802e 50be c9f0 64be 5ed1 dcbd aacc 953d
00000140: 01ed a9bd c4e5 6d3e 24b2 953c a5ec de3d
00000150: c1e3 f0bc 3155 bdbd c190 8d3e ec93 d4bd
00000160: 56c4 07be c726 a0bd d7e5 8f3d 2c2c 233e
00000170: e219 243e b67e 9e3d 0213 0ebe fb3e bb3d
00000180: d25b 8c3d a07c ecbc 8a94 c1bd f3e8 a4bd
00000190: 8922 833e c8d1 893e c750 933e c18b 3fbc
000001a0: c031 853d ea7e ce3d 9a51 a13d 6333 e53d
000001b0: d614 463e 1391 063e 60a1 363e d5c2 08be
000001c0: ece3 2d3e 3e60 eb3c 9728 8e3e b95a 163e
000001d0: ecd7 07be a907 bb3c 3859 8cbd 65ae 703e
000001e0: 5436 8cbb db9d 6f3d 03d3 32bd ec75 b0bd
000001f0: 4f5c 19bd c9e7 8dbe c955 953e da37 573e
00000200: 877a 173d 5c3a fdbd 9bcc 06bd 7020 fbbc
00000210: 59df b33d b4c1 83bd cbe6 9abd d513 84bd
00000220: 5b13 fe3b 2cca 1c3c 4038 56bb d462 fc3b
00000230: 6025 90bd 18db 93bb bbb6 e43d 0250 403d
00000240: 7d22 323e b82c a23d 0f0b dfbc a2ab 0ebd
00000250: 7570 2a3e 50ba fbbc 9726 df3c fa62 0cbe
00000260: d43b 09be 1139 863d 1ff4 233c 5a41 fbbd
00000270: 0e9c 203e 6539 92bd 1bad 483d d03b f1bd
00000280: 5098 2a3e 46c5 ee3d 245f 353d a8aa e3bd
00000290: 9445 4cbd 25b7 a2bd 4046 223d 4b1c 143e
000002a0: 9b28 3f3e 222c fdbd 7b39 113e c13f 07bd
000002b0: 93c2 ecbd 8b67 9f3d 410e e83b 57a4 5c3e
000002c0: a924 973d 331b a03e cf84 6cbe 13bc 4e3e
000002d0: 534d e93c 5ebb 923d 3a7e 813e 6058 c6bd
000002e0: 15d6 c03d 9122 2bbe 8588 6c3d 470d 723e
000002f0: e3a4 e0bd 1b7e 8b3e 8d92 cc3c 1ee0 edbc
00000300: 1904 853e e48f 803c effe 75bd a0e0 c33b
00000310: 5ddd 6dbd f52f 513d ae09 46be 8fd6 473e
00000320: fa95 023e 0133 26bd 4015 28bb 9ec8 8d3d
00000330: d561 16be 4fd9 1abe 0b87 d63c ed4e 0f3e
00000340: 5e44 9d3d 3008 603e 8ebe b0bd 8cf6 403d
00000350: 1183 a1bd a9aa 26be 233e 653e 5f17 1abe
00000360: 4ee1 e2bd 950c b5bd 4f31 793e 0c7b 143d
00000370: f800 053e cc7a 913e db26 0ebe d639 883c
00000380: 1c25 96bd 7360 b7bd 48bf 1bbd a1ba 2f3e
00000390: 3018 c13c f58f 24bd 4127 83bd e077 69bc
000003a0: 3e01 ed3c 835f 2a3d 4cb5 36bd c4a4 2cbe
000003b0: 4c63 3a3d 5823 36be 9883 74bd 045d 723d
000003c0: 067f d93d 9e29 c4bd 287e 7e3d 9f81 1abd
000003d0: 38ac 60bd 512a 2a3e 6a38 1fbe 9729 153e
000003e0: 3d36 24be f87f c5bd 984f 2d3c 497b 2d3e
000003f0: c8c8 673d 7161 fa3d 05a7 223e eedf 003e

fc3.bias f4 [16]
-0.082636535 -0.071310155 -0.001657827 -0.026955416 -0.18197215 -0.0066971346 0.14400943 -0.16574736
0.041893408 0.028709793 -0.1342122 0.18962848 0.12106738 0.075944945 0.18400702 -0.08004382
00000000: 583d a9bd 0f0b 92bd 714b d9ba 9bd1 dcbc
00000010: e856 3abe a373 dbbb 3577 133e adb9 29be
00000020: 6c98 2b3d cd30 eb3c ec6e 09be f82d 423e
00000030: 2df2 f73d 0689 9b3d 566c 3c3e 04ee a3bd

fc_mu.weight f4 [1, 16]
-0.21759482 -0.2432018 0.24644792 -0.22176011 -0.17809391 0.25819275 0.34232754 -0.07851221
-0.42663622 0.35157356 -0.03649083 0.23744209 0.21079011 -0.2568873 0.39362052 -0.17774108
00000000: 2dd1 5ebe e509 79be d85c 7c3e 1515 63be
00000010: 405e 36be d731 843e 8e45 af3e 02cb a0bd
00000020: 1070 dabe 7301 b43e 6977 15bd 0524 733e
00000030: 5dd9 573e bb86 83be a188 c93e c201 36be

fc_std.weight f4 [1, 16]
-0.23131976 0.21753062 0.124264725 -0.11214891 -0.03672597 -0.080205 -0.108116396 -0.19136582
0.19130781 -0.15554099 0.09291103 0.042164784 -0.2271668 -0.23721498 -0.015710352 0.04063981
00000000: 16df 6cbe 59c0 5e3e 817e fe3d 54ae e5bd
00000010: f96d 16bd 8542 a4bd 216c ddbd 67f5 43be
00000020: 32e6 433e 2346 1fbe 2348 be3d fbb4 2c3d
00000030: 6a9e 68be 7ce8 72be ffb2 80bc ee75 263d
