2_수학으로 풀어보는 강화학습 원리와 알고리즘/rackhun/4_DDPG_pendulum/saved_model/DDPG_ACTOR.pth (torch_old, 37836 bytes, 21 tensors)

fc1.weight f4 [64, 3]
00000000: 9592 ee3d 16fa ef3d 9358 233e 6481 a43e
00000010: 7d6e 4a3f af08 393f 676c 003f 1510 bbbe
00000020: 32e1 373f 529b 763f 2236 1fbf 8b89 8dbf
00000030: b42c 9fbd 31fa 733f a02a 3cbf 80ed 363e
00000040: 99ff 37be 52ed 833f 5d83 3dbd c436 903f
00000050: 9065 213f 3c6c b33e abc7 083f 8543 25bf
00000060: d035 263f f511 413d 551b b23e 4b7a 6ebf
00000070: aba7 22bf 39d9 8e3f a774 e93d 5482 e8be
00000080: 0084 073e 84a2 a53e 3ff5 6d3f 70bd 323e
00000090: ab7c 833f e87d 4f3f db0a 8e3e 6ef2 6a3f
000000a0: e42c 35bf 9781 a13d 41d8 5cbf 86e9 e93f
000000b0: 56e1 45be 8534 3ebf 62d3 133e 226e a4bf
000000c0: e6c3 bd3f 2927 093f b1b8 0bbc f7e2 013f
000000d0: 6c27 b13e 29c3 b3bf bd76 f9be 3a83 633f
000000e0: 9270 923e 7505 133e 2dc4 81bf f19e cb3e
000000f0: 5c14 9cbf 0098 62bf 1d6f 12be 41fd 8f3f
00000100: ae52 0cbf 62b7 c0be 26f7 6d3d f48c b3bd
00000110: b227 213d 7572 87be 8bce 533f 1ea1 56be
00000120: 685a c43f a90e 0bbf 7050 c6be f8ca 6bbd
00000130: 7a6b 9ebe df8e 953f 2ce7 9cbe 1e64 72bd
00000140: a23d 3f3f d3d8 083e 0f07 e33f de31 c33f
00000150: 2b97 90bf 9e00 a0be d7d5 823f 00c3 97be
00000160: 524b e53e 42b3 04bd db8d 19bf 7995 55be
00000170: 4223 febe 3e6f acbe 556b 823e 4b85 8f3e
00000180: bcbe bebf 88de bdbe b10c 02c0 dbe7 41bf
00000190: bd4d 8dbf 197e bbbe 47a8 9c3f eb24 c7bd
000001a0: c9ee 8abd 0b77 493e a87b da3d 03a1 58be
000001b0: 5b86 83bf 4a70 db3e 477d c73e 041d 7aba
000001c0: c3c4 203f 8e0d 79be 35e0 7c3f 7dd0 13bf
000001d0: 8038 a93f 4f91 b03e bdf6 5bbe a53b 34bf
000001e0: 1f86 c0bf 3b37 db3d 6f04 a1bf 271c 4dbf
000001f0: e155 3a3f 4a13 4c3e 3729 6dbe e180 5a3c
00000200: f9b7 003e 857e 2e3f f251 3c3e 386f 273f
00000210: 3798 dcbf 864b ae3e db35 48bc 82a0 a2bd
00000220: 8af8 893d 6f82 b9be d128 47be 60c1 813e
00000230: 3774 4abf 767a 2d3f 0e8f 0a3f 6313 dd3e
00000240: 6e32 67bf a8c8 443f 6c9a d43e 36a2 503f
00000250: c396 183f 8be7 893f f912 8e3f e231 313e
00000260: f909 89be 309f 0dbf d676 033e 6182 91bf
00000270: fe20 aa3f 0e0a 1b3f 4496 8c3f 01d8 a9be
00000280: 71ef b53f b848 393f f720 853e 1f50 21c0
00000290: 0d41 e2be b0bc 7cbe 847f 9cbe 199f abbf
000002a0: fa70 9ebf 956b 78bf 5102 043e 75a4 83bf
000002b0: 057d 80bf 5989 2dbe ea31 993e 0c55 d2bf
000002c0: 2387 9c3f 0311 f73d 37d9 983f 1d98 55bf
000002d0: 3ad7 9cbe 71ed 18be 2a60 8cbc c360 47be
000002e0: efca 4cbf 5c85 3cbf 5e89 933f 4aeb f03f
000002f0: 28d2 16bf 5227 82bf e4d6 fb3c f8e8 84be
0.11649052 0.11717622 0.15951757 0.32129967 0.7907484 0.72278875 0.5016541 -0.36535707
0.71827996 0.9633075 -0.62191975 -1.10576 -0.07772198 0.95303637 -0.7350254 0.17864037
-0.17968597 1.03068 -0.046267856 1.1266713 0.630456 0.35043514 0.5342967 -0.6455615
0.6492586 0.047136266 0.34786478 -0.93155354 -0.6353709 1.1160041 0.11399203 -0.45411932
0.13233948 0.32350552 0.9295234 0.17455077 1.0272421 0.8105149 0.27742657 0.9177617
-0.7077162 0.078860454 -0.8626748 1.8274391 -0.1932424 -0.7429889 0.14436105 -1.284611
1.4825408 0.5357538 -0.008527921 0.50736946 0.3460039 -1.4043933 -0.48723403 0.8887211
0.2860151 0.1435755 -1.0137993 0.397697 -1.2193713 -0.88513184 -0.14300199 1.1249162
-0.5481366 -0.3763991 0.058097027 -0.08767119 0.039344497 -0.2645451 0.82737035 -0.20959899
1.534009 -0.54319245 -0.38733244 -0.057566613 -0.30941373 1.1684226 -0.3064512 -0.05917751
0.7470342 0.13363962 1.7736529 1.5249593 -1.1296133 -0.3125047 1.0221509 -0.2964096
0.44784027 -0.032397516 -0.5998208 -0.208578 -0.49636275 -0.3367862 0.25472513 0.28031382
-1.4901958 -0.3708384 -2.0320246 -0.7574441 -1.1039349 -0.36619642 1.2238854 -0.097238384
-0.06783826 0.19674318 0.10668117 -0.21155171 -1.0275377 0.42859107 0.38962767 -0.0009541067
0.62800235 -0.24321577 0.9877961 -0.5774 1.3220367 0.34485862 -0.21480842 -0.7040351
-1.504093 0.10703894 -1.2579478 -0.8012108 0.7278729 0.19929233 -0.23160253 0.013336391
0.1257018 0.68161803 0.18390635 0.6540408 -1.7233952 0.34041995 -0.012219871 -0.07940771
0.06736858 -0.36232325 -0.19449164 0.25342846 -0.7908358 0.67764986 0.54124534 0.43178853
-0.90311325 0.7686868 0.41524065 0.81497514 0.59605044 1.0773786 1.109954 0.17304185
-0.2676542 -0.55321026 0.12838301 -1.1367913 1.3291318 0.6056222 1.0983357 -0.3317261
1.4213697 0.72376585 0.26001713 -2.5205152 -0.44190255 -0.24681354 -0.30566037 -1.3407928
-1.2378228 -0.9703916 0.12891509 -1.0284563 -1.0038153 -0.16946925 0.29920894 -1.6432204
1.222874 0.120637916 1.1941289 -0.8343523 -0.30632955 -0.14934327 -0.017135698 -0.19470505
-0.7999715 -0.7364099 1.1526296 1.8821805 -0.58914423 -1.016825 0.030742116 -0.2595899

fc1.bias f4 [64]
00000000: b668 8bbc 8a65 68bc 9f73 95bd 14aa 87bd
00000010: 0834 fd3d e004 a23d 98e6 83bd f808 323d
00000020: d1ff 633d 212f ad3d 1d78 54ba 6002 ca3d
00000030: b0f7 f53c c568 473d e05d 62bd 87e5 ae3d
00000040: 9b94 e2bb d859 893d 7595 5a3d 905a a0bd
00000050: e302 9e3d cef2 31bd c2da 2dbd ba94 ef3d
00000060: e543 a1bd be99 c23d 9267 743d b867 d83d
00000070: 80f8 b83d 6a9b 2bbd ede7 dc3d dd70 133c
00000080: 6661 5dbd f72e fc3d 1ddf 7fbb 7c8d b9bd
00000090: b44d 8f3b 817b b73d 3413 863c 744a 01bc
000000a0: dfa9 3d3d 49a2 083d fa1b 213d 9c46 4abc
000000b0: 4fc5 d03d cdaf 623b a63f 333d b370 a0bc
000000c0: ced3 833d 2a76 26bc aaed 023c 948f 0d3e
000000d0: 2257 003c 3025 2bbd ea6d 3c3e 1a15 c73d
000000e0: 2c5a 85bd 32c9 043e 2c92 ad3c 52c3 3a3d
000000f0: cb44 b63d 174a 333b 4aa8 1b3e b321 3c3d
-0.017017704 -0.014184365 -0.072974436 -0.06624237 0.1236344 0.07911086 -0.06440467 0.043465585
0.055663887 0.08456255 -0.00081050565 0.09863734 0.030025333 0.0486839 -0.055265307 0.085398726
-0.006914688 0.067065895 0.05336519 -0.078297734 0.07715394 -0.043444447 -0.04244495 0.11698289
-0.07874278 0.0950198 0.059669085 0.10566658 0.090317726 -0.04189626 0.10786424 0.008999077
-0.054047965 0.12313645 -0.0039042898 -0.09060189 0.0043732766 0.089591034 0.016366579 -0.007891286
0.04630458 0.033357892 0.03933332 -0.012345936 0.10193884 0.0034589649 0.04376187 -0.01958499
0.06436883 -0.010160008 0.007991234 0.13824302 0.007833274 -0.04178351 0.18401304 0.09720822
-0.065113395 0.12967375 0.021187864 0.04559643 0.0889984 0.0027357393 0.15200916 0.045930576

fc2.weight f4 [32, 64]
00000000: 5384 9e3e 3373 1e3e 82c2 bc3e b62a 953e
00000010: 01d2 d93e 775c 0bbe 921f 573e b0c5 bfbd
00000020: 0849 c13d b4fd d8bd 070b 843e f159 3b3e
00000030: 2eb0 0cbe 50bf 3cbe 7846 65be 4d1c 63be
00000040: 2f61 8d3e 9bd7 e23e 08e5 5bbe abe4 603e
00000050: ca81 71be 8139 3e3e 92f7 6b3e 8574 5bbd
00000060: 157c 2abe 6e1c b53d 2af7 5bbc 1885 74be
00000070: 94a9 3d3d 82e3 163e a91a c33e 9635 51be
00000080: fd0a ad3b 65be f8bd d918 9d3d b751 e3bd
00000090: b5fc 39be 6b6c 2f38 6f77 9b3d 0114 80bd
000000a0: 2f87 973a 81ea 83bd e9c0 d03b 3569 e4bb
000000b0: 9e63 383e d761 0dbe 7779 14bd 4040 12be
000000c0: 027b 7a3e bebb 903e b41c 5ebd b3ab f53d
000000d0: efc0 16bc 8a3d 86be f50d aebd 0dcc 1c3c
000000e0: 4926 513d 18a6 b53d f393 383c 40f8 4cbc
000000f0: cc34 853e a7dd 0d3e 68da fa3e e4b8 513d
00000100: f490 0e3e 4980 c9bd 22c2 1d3e d9f3 163e
00000110: 98eb 6e3d 377e 15be f65d 22be f12c f03c
00000120: bf3f b2bd e701 763d dbdf 033e 308e 6f3e
00000130: e489 b03d f741 183e bccd d83e 2e99 67bd
00000140: fab8 d93e d409 8cbe f8ae 0dbd 6aa8 0dbd
00000150: 6e56 ffbd 0b18 353d 49e6 793d 99bc ec3e
00000160: b4f7 293e 2885 debd 7011 0abe ccfb a93d
00000170: b3ad eabd d4d0 a53d 66e1 05be ddb5 1f3e
00000180: a7d5 73be fdf7 cbbe b97d cb3d d21f 7d3e
00000190: 099a f4bd d633 d03c b01e 48bc de9e 77bc
000001a0: ac73 88be f13f f4bd 2dea 4e3e 90cc b1bd
000001b0: 8bf2 4a3c a9f5 c9bd 32d0 383e 1667 133e
000001c0: 8904 853d 94ad 8a3e 7685 69bd 5cab c33c
000001d0: 7479 943e 777a ddbd 755f 81be cf3d a63e
000001e0: 60ac b43d 3dd6 5c3e e43c a6bd 8778 b0bd
000001f0: b72d 01be bdf1 fbbd 72c9 df3d 9d98 253e
00000200: dfe1 9fbd f4ce 283e cd20 8d3b 3c76 29bd
00000210: fc76 c5be 987d d73d 888e 193e 298b b83e
00000220: c605 4ebe 42b0 06be 4d56 b4be 9821 993e
00000230: ed45 ad3e a806 6dbd 8167 753e dfad b63d
00000240: f5cc 563e 3ade 53bd c068 f93d 3ff3 573d
00000250: c627 603e cd6b b9bd 0000 963e ffdc 7a3e
00000260: 4cf1 933d cafb 263e 8376 0a3e 6b00 3cbe
00000270: fbdd d8be 0acc 3e3e b0ee ce3e 3015 1bbe
00000280: 3f68 29bd 562d 3c3e 600a 22be 14a6 7abe
00000290: 615f 4dbe 5d16 fe3d dffd 3abe edfe 98bd
000002a0: bf7f b9be bfe4 513e ee80 06be ab94 59bd
000002b0: 7ef6 2b3e efcc 783d 02d8 b13c 6669 243e
000002c0: b35a 863c cbb5 e6bd 6223 8b3d ecb8 ab3d
000002d0: 8ef4 ff3a f515 bc3e 3cf0 77be 4d67 883d
000002e0: 8693 393e ae71 323e 2af4 773e a6cf 0c3e
000002f0: 7a87 f6bd f14d 5d3e 6791 b43d b7ef 243e
00000300: d0b3 ef3c d5c2 4fbe bbf1 88bd aa34 083e
00000310: 9dad 61bd 1ea2 efbe 69f8 7dbe c6cb e2be
00000320: d754 58be d3a7 a53d e2e1 99bd f227 373c
00000330: 804c 70be 6d7d 833e a3eb 073e 47f9 b7bd
00000340: de7a 9d3d 05b7 f7bd 776d 36be ba9c 41bd
00000350: 078a 4bbe a5b1 06be db8c f83d 6a14 be3d
00000360: c056 563e 05d4 dabd bb35 c5be 55e8 fe3b
00000370: c37e b4bd 8dc6 1e3e 7d79 103d b0ed 2fbe
00000380: dee3 be3e 8ba6 33bd ecbe 363d cb45 85bd
00000390: ab5b 71be 1236 6bbe ed7f 1c3e e7d7 c7bd
000003a0: 506f c2bd ab8f 013e 8731 debd 27d4 7f3e
000003b0: 37d9 0bbf 6402 cbbc 2c83 4a3e b303 11be
000003c0: d299 9ebd b738 933c afdd e0bd 7904 f03d
000003d0: c6fc 163d b8ed 83be a339 093e fc66 9abc
000003e0: ef90 733c 0991 923e 1c8f 6abd b15d 00bd
000003f0: 238b b0bd 45e6 bbbc 1242 923e 7b77 d0bd
0.3096033 0.15473633 0.36867148 0.29134148 0.42543033 -0.13609491 0.21008137 -0.09363878
0.09437758 -0.10595265 0.25789663 0.18296029 -0.13739082 -0.18432355 -0.22390163 -0.22178765
0.27613208 0.4430512 -0.21474087 0.2196223 -0.23584667 0.18576623 0.2304366 -0.05357792
-0.16648896 0.08843313 -0.013425628 -0.23878896 0.0463043 0.14735225 0.38106278 -0.20430598
0.005280851 -0.1214569 0.07670755 -0.1109957 -0.18162806 4.1824223e-05 0.075911395 -0.062538154
0.0011560674 -0.064412124 0.006370653 -0.0069705495 0.18006751 -0.13806854 -0.03624865 -0.14282322
0.24460986 0.28268236 -0.054226592 0.1199564 -0.009201272 -0.26218826 -0.08498756 0.009570134
0.051061902 0.088695705 0.011265743 -0.012510359 0.26016843 0.13854085 0.48994756 0.051201716
0.13922483 -0.098389216 0.15406087 0.14741458 0.05833015 -0.14598928 -0.15856156 0.029318305
-0.08703565 0.060060408 0.12878363 0.23394084 0.086200505 0.14868914 0.42344463 -0.056542568
0.42523938 -0.27351248 -0.03459069 -0.03458444 -0.12467657 0.044212382 0.061010633 0.4623764
0.16598397 -0.10865241 -0.13483214 0.082999796 -0.11458912 0.080964714 -0.13074264 0.15596719
-0.2381197 -0.39837638 0.09936089 0.2471917 -0.119434424 0.025415342 -0.012214348 -0.0151135605
-0.2665075 -0.11926258 0.20206518 -0.08681595 0.012386928 -0.09861309 0.1804817 0.14394793
0.06495006 0.27085555 -0.057012044 0.023885421 0.2899891 -0.10814374 -0.2526814 0.3246903
0.088219404 0.215661 -0.08117083 -0.08616739 -0.12615095 -0.12301967 0.109270945 0.16171499
-0.07806753 0.16485196 0.0043068887 -0.041372523 -0.3856734 0.10522002 0.14995778 0.3604367
-0.2011939 -0.13153175 -0.35222092 0.29908442 0.33842412 -0.057867676 0.23965265 0.08919882
0.20976622 -0.051725604 0.121781826 0.052722212 0.21890172 -0.090537645 0.29296875 0.24498366
0.07223758 0.16306987 0.13521771 -0.18359534 -0.42356858 0.18632522 0.4041648 -0.15144801
-0.041359182 0.1837667 -0.1582427 -0.24477416 -0.20055915 0.12406609 -0.18260907 -0.07470498
-0.36230275 0.20497416 -0.1313512 -0.053120296 0.16793248 0.060742315 0.021709446 0.16055831
0.01640067 -0.11265143 0.06793858 0.083848804 0.0019527839 0.36735502 -0.24212736 0.06660328
0.18122682 0.17426178 0.24214235 0.13751087 -0.12037559 0.21611764 0.08816796 0.16107069
0.029260546 -0.20289166 -0.066867314 0.1330134 -0.05509721 -0.46803373 -0.24801792 -0.44296092
-0.21126114 0.080886506 -0.07513787 0.011178957 -0.23466682 0.2568163 0.13273482 -0.08983093
0.07689451 -0.12095455 -0.17815195 -0.047268607 -0.19876872 -0.13153704 0.12136241 0.092812374
0.2093153 -0.10684971 -0.38517556 0.007779161 -0.088132404 0.15505429 0.03527211 -0.17180514
0.37283224 -0.04386 0.04461567 -0.065074526 -0.23570125 -0.22969845 0.15283175 -0.09757977
-0.094938874 0.12652461 -0.1084929 0.24983273 -0.5462832 -0.024781413 0.197766 -0.14161567
-0.07744183 0.01797138 -0.10979783 0.11719603 0.036862157 -0.25767303 0.13400893 -0.018847935
0.014866098 0.28626278 -0.057265386 -0.03133935 -0.08620288 -0.02293695 0.28566033 -0.10179039

fc2.bias f4 [32]
00000000: b149 8a3c 85b9 e33d 6f58 013e 5212 7abc
00000010: 24b6 2e3c 4c9b f63a df07 5ebd 8c4f bbbc
00000020: b161 d33c 3953 46bc 3bec ddbc 34c1 e0bc
00000030: 3e86 863d 5929 053e ab3b 8bbc 744c f3bc
00000040: b3e2 843a f8e9 c03d 73a1 713c 6eeb 0d3d
00000050: aea8 cc3d 35c1 33bb 5afd 303d 2161 cb3c
00000060: 01c8 afbc 24ed 9a3d 8916 f63d c88e 1c3d
00000070: e77e a53d c8a6 533d 981c 273d 6763 31bd
0.016880842 0.111193694 0.12631391 -0.015263157 0.010663543 0.0018814593 -0.054206725 -0.02286508
0.025803419 -0.012104803 -0.027090183 -0.027435876 0.065685734 0.13004054 -0.016996225 -0.029699542
0.0010138362 0.09419626 0.014747965 0.03464835 0.099931106 -0.0027428393 0.043210365 0.024826588
-0.021457674 0.07564762 0.12016017 0.038222104 0.08080845 0.051672727 0.040798753 -0.043307688

fc3.weight f4 [16, 32]
00000000: 0a0f 82be d77a ad3e 7892 a33d 280f febd
00000010: 6052 433e 69e3 99bd c47b ab3e e575 443d
00000020: 8938 893e 31ba bb3d bbe5 463d b755 8cbd
00000030: 864b b9be 9e73 083e 52b7 963e 3935 60be
00000040: f330 d03d 1e06 e8bc 6fd9 b5bd 32ab 66be
00000050: e712 7fbd f42e f43d c9df 7bbd c60b b43e
00000060: 48be a43c d8b5 7ebd b0fe 6dbe 58f5 963d
00000070: 2c57 c8be 08bf 23bc 8ff8 1cbe 6eb9 10be
00000080: d769 6e3c ec95 f9be 82cf 703e 880d 0fbe
00000090: 59b0 bdbd 13da 3b3c 2a5e 7d3e d869 6e3e
000000a0: d95a 27be 9ee8 86be 0694 533e 547d 89be
000000b0: e8bc 77be 8815 4c3d 0765 cbbe 46e4 103c
000000c0: 7753 363d 6ae2 ba3d b4e7 abbd b9d8 563e
000000d0: 1319 b23e 7b8b 273e 2e8e b83d 015a e63e
000000e0: bacc 533e 1109 66be f325 26be efa4 b43e
000000f0: a507 d6be 81db fcbe f7a5 023f 7313 3b3e
00000100: 6057 12be 578f 5e3e 3928 14be a441 22be
00000110: dc0e a2bc 1123 d63c 52b7 823c c7c8 4a3d
00000120: d429 b3be 4b54 0cbe 8d90 473e 4ee8 48be
00000130: 16e1 99bd cf69 9a3e 5c5b 75be c027 fb3d
00000140: ae8d a3be e732 38be 68bc 5dbd ccc6 3cbe
00000150: 9ce6 ffbd 9536 0f3a a221 c4be 8cc8 21be
00000160: f528 e4be f101 393e b4e6 29be 4d39 edbd
00000170: 6b7b 283e 3dcc 3fbe 890d 813e c6e5 3ebd
00000180: b5a0 79be 755d b13e f765 2ebe 6d73 a43e
00000190: 691f ed3e 4404 21bf 6779 c9bd e829 32be
000001a0: 2a00 863e 1822 9c3d da95 12be d559 4f3d
000001b0: 36d1 883d e5a1 a4bc f634 58be df2f 073e
000001c0: 62cf 7a3e 30a0 25bf d672 8fbd 59b0 1cbe
000001d0: de15 e13d a4a8 8bbe e4d3 ac3e 8cbc 19bd
000001e0: 3cb6 9bbe bd40 9ebd 6057 21bd cdc5 e23d
000001f0: 7f89 09be 08b0 cbbc d8fb b43e ea7b 20be
00000200: 2383 febe 5b54 a83d c22a 9ebe 7323 c5be
00000210: 5904 0b3e f687 a2be 5df9 dabd 8920 ccbe
00000220: 5a16 cfbe a3f9 583e ae06 fabd cf5d 1cbe
00000230: 0e0e efbe 641f ffbd bd5b e4be 485d 67be
00000240: defe f93d 6c1f 8dbd bbf9 823d 5287 09bb
00000250: 960a fa3d e8e7 92be 9c00 983e 8863 9dbd
00000260: b539 eb3c 408b 0a3e 8366 b2be ee34 1b3e
00000270: 8c67 0e3e e3ef 9fbe f528 e4bd 2aa0 fb39
00000280: 2ae8 253f d39b 9f3e 5527 8a3d a498 e1be
00000290: 46e2 49be 911c 353f e0d1 f13c 1fdc bc3d
000002a0: 3f96 5d3e 7552 f6bc eefd 903e 2e21 aa3e
000002b0: 93e8 67be 1068 0d3d c0e7 623d 58f0 71be
000002c0: 83ab 7d3d b9c0 bebd 67bb 37bd 5f0e 1cbe
000002d0: 4e76 193d 212b 273e a0b1 7bbe f3df c4bc
000002e0: 6665 77be c9d3 2cbf 53d6 b03d 16ba 6dbe
000002f0: 8988 98be 57ac febd 8d57 5c3e 49bc 843e
00000300: a603 40be 0241 39be ffe3 e7be 6258 033e
00000310: 4d07 3dbd 0b7b 003d 789c 9b3d e24d a5be
00000320: b899 b73d 72f2 b7be bbdf 97be 88bd 863e
00000330: 3f2c 8fbe d6ce 1b3f e705 3d3e c049 e7bc
00000340: ba66 c2be a2ad 8ebe 4eab ad3e dbd3 74bc
00000350: 5a8f a6bd 83f0 4ebe 501a 80be 9fcd 9dbe
00000360: 4db8 9abc ebaa 8e3e 1c22 9fbe a196 c7be
00000370: 43ca 0b3e 1686 e23e b175 c6bd 2c6f edbe
00000380: f92f ebbd bfde 03be d45d 6a3e 5dea a63d
00000390: e311 903e 4415 e1bd 3f35 033d c21a b4bd
000003a0: 6036 e0bd 4001 88ba 2da3 bebd 5144 083c
000003b0: 9257 02be b137 68be f2cf e03d 82e3 323b
000003c0: 6312 0cbe 5e91 c1be ebcc 823d d707 c33d
000003d0: 4281 56be f2e0 26bf 9d10 bc3e 8ed3 a83d
000003e0: cdbf cbbd c093 07bc 375b 0fbe 2e55 a23e
000003f0: 3d2a ccbe 1201 043f a0e1 193f de41 29be
-0.254021 0.33882782 0.07986921 -0.124052346 0.19074392 -0.07514078 0.33492863 0.047963995
0.26800945 0.091663726 0.04855893 -0.06852286 -0.36190432 0.13325354 0.29436737 -0.21895303
0.10165586 -0.02832323 -0.08879363 -0.22526243 -0.062273886 0.11923018 -0.061492715 0.35165232
0.020110264 -0.06218514 -0.23241687 0.07371014 -0.39129007 -0.009994276 -0.15329193 -0.14133236
0.014551601 -0.48747194 0.23516658 -0.13970006 -0.09262151 0.011465567 0.24742952 0.23282564
-0.1634325 -0.26349348 0.20661935 -0.2685343 -0.24193156 0.04982522 -0.39725515 0.008843487
0.044513192 0.09125216 -0.08393803 0.2098111 0.34784755 0.16361801 0.090114936 0.44990543
0.20683566 -0.22464396 -0.16225414 0.35282084 -0.41802707 -0.49386218 0.5103449 0.18269138
-0.14291143 0.21734367 -0.14468469 -0.15845352 -0.019782476 0.026139768 0.015956555 0.049507882
-0.3499285 -0.1370403 0.19488735 -0.19619867 -0.07513635 0.3015885 -0.23960632 0.12263441
-0.3194403 -0.17988168 -0.054134756 -0.1843521 -0.12495157 0.00054631504 -0.3830691 -0.15799159
-0.44562498 0.18067147 -0.16591913 -0.11583195 0.1645333 -0.18730254 0.2520564 -0.046605848
-0.24377711 0.34641615 -0.17031084 0.32119313 0.46313027 -0.62897134 -0.09837609 -0.17398798
0.26172 0.0762369 -0.14314976 0.05062278 0.06680529 -0.020096729 -0.21113953 0.13201855
0.24493173 -0.6469755 -0.07004325 -0.15301646 0.10990499 -0.272771 0.3375541 -0.037533328
-0.3041247 -0.077271916 -0.039389968 0.11072884 -0.13431357 -0.024864212 0.35348392 -0.1567227
-0.49709424 0.082192145 -0.30891997 -0.38503608 0.13575877 -0.31744355 -0.106920935 -0.39868572
-0.4044674 0.21188979 -0.12208305 -0.1527016 -0.4669041 -0.12457159 -0.4460124 -0.22594178
0.12206815 -0.06890759 0.063952886 -0.0020985198 0.1220905 -0.28692555 0.29687965 -0.07685
0.02871404 0.13529682 -0.34843835 0.1515691 0.13906687 -0.31237707 -0.111406244 0.00047993782
0.6480738 0.31173572 0.06745783 -0.44061768 -0.19715223 0.70746714 0.029519022 0.09221672
0.21639346 -0.030068615 0.28318733 0.3322844 -0.22647314 0.03452307 0.055396795 -0.2362684
0.061931144 -0.09314103 -0.044856455 -0.15239857 0.03746634 0.16325046 -0.24579477 -0.024032569
-0.24159774 -0.6751066 0.08634629 -0.23215517 -0.29791668 -0.12435215 0.21517773 0.259249
-0.18751392 -0.18091205 -0.45291135 0.12826684 -0.04614954 0.031367343 0.075982034 -0.32285982
0.089648664 -0.3592716 -0.2966288 0.26316476 -0.27963445 0.6086248 0.18459283 -0.028233409
-0.37969 -0.27866846 0.33919758 -0.014943088 -0.08132811 -0.20208935 -0.25020075 -0.3082094
-0.01888671 0.27864775 -0.3108071 -0.38982108 0.13651375 0.44242924 -0.096904166 -0.4637388
-0.114837594 -0.1287794 0.22887355 0.0815017 0.28138646 -0.10990384 0.0320332 -0.08794166
-0.10947871 -0.0010376349 -0.09308467 0.008317069 -0.12728718 -0.22677495 0.109771624 0.002729625
-0.13678889 -0.3780622 0.06386741 0.0952298 -0.20947745 -0.6518699 0.36731425 0.08243476
-0.099486925 -0.008274972 -0.1399964 0.31705612 -0.39875975 0.51564133 0.601099 -0.16529033

fc3.bias f4 [16]
00000000: 3f27 a739 ec49 a03b 0000 0000 0822 3f3d
00000010: 9f6b 9b3c 7f29 28bc 6277 8fbc 37d6 243d
00000020: f4d6 c93c 94d8 bfbb 5bf3 91bc 8f14 7d3d
00000030: 5922 dc3d 0cc5 a33d 0358 9c3d 4a40 ff3c
0.00031881963 0.0048916247 0.0 0.046663314 0.018972216 -0.0102638 -0.01751298 0.040243354
0.02463863 -0.0058546755 -0.017816236 0.061787184 0.10748739 0.07996568 0.076339744 0.031158585

fc_out.weight f4 [1, 16]
00000000: c891 92be 20fe 7f3d 1f4b 5d3e d9bc 233f
00000010: d466 053f 9647 85be ede9 ee3d 8bef 703e
00000020: 08cf 063e b32a 993e 3afc 893e e65d 05bf
00000030: a29f f93d 1ee9 2c3e c524 973e 41a8 0dbe
-0.28626847 0.06249821 0.21610688 0.63960034 0.5211003 -0.26031178 0.116657116 0.23528878
0.13164914 0.2991539 0.26950246 -0.520964 0.12188651 0.16885802 0.2952024 -0.13833715

exp_avg f4 [64, 3]
00000000: 4920 3bbd d4dc c43b a29b a3bc f3a7 04bd
00000010: 69b5 293b 0cb3 4d3b b3be cbbc 43de 2c3b
00000020: 9dcf fcbb e744 dc3b e5b7 9a3a 5d5c 2bbc
00000030: cb4b 53bc 4ba8 29ba c014 123a 97fb 5d3d
00000040: 0622 9ebc 4cff 533d ca8e 40bc 4c71 dd3b
00000050: 3dd9 b1bc 8c3e 81bd b94a 2a3c e731 363b
00000060: 58b6 a1bc 8ee5 0e3b 2c29 cbba eaf3 d73b
00000070: 41e1 39bb a946 c63c 4e5a 513d f7a8 8ebc
00000080: 07a6 ca3c d7be 01be 632a f33c 420c 1cbd
00000090: dd28 4ebe 9a37 1a3d 2df4 84bd c615 733a
000000a0: dc47 993b 5ad9 83bc 84c2 c239 0346 b439
000000b0: 18af f03a e64a 95b9 6cde 2b3a a97f 753b
000000c0: 39ee e6bc 6d55 dc3b 8b61 d3bc 1fff 33bd
000000d0: 1609 d53b 82e0 ec3b da37 e23a e577 523b
000000e0: 12aa 4b3c 646d 123c de03 35bb e824 0d3c
000000f0: dc3c 7b3a dfc0 b03a 0460 183c 3767 933d
00000100: 3d9c b6bc 9a60 bb3c 50b5 cb3c 800f 05bc
00000110: f1eb b83c 5026 c8ba 38e2 e13a 9ab3 163c
00000120: 93e0 603d daa4 22bc 504a 1abc c97d 243b
00000130: c341 a339 879c 183c 39fb 4d3c 7133 fdbb
00000140: 6cbe ec3c f487 e43b fb56 f1ba 62fb 433c
00000150: 2509 5bbb 9523 893b 763b 15bc 3257 c139
00000160: 548b c23a 1af0 6a3b deb0 9339 b4f2 833a
00000170: 7163 7d3b 526c 4a3a 2b6c 623a c44e 99bb
00000180: a135 7eb8 44c3 063a f0e2 a93a eca5 3f3a
00000190: 12fa b13a 5b0c c03b a547 ec3d 5934 15bd
000001a0: 1dc8 913d 8405 0f3c 8ec6 20bb 703f d6bb
000001b0: a9eb 913a 8fb0 e63b 3d06 43bc ac43 d7bc
000001c0: 690c d339 0cdd 2f3c 0830 033d 578b 07bc
000001d0: 04cb 513b 4180 b03d 1e93 34bc faf2 59bc
000001e0: e6d4 c5b9 a618 5b39 f07e f6b9 c059 f73a
000001f0: dd35 d83b 736b 5c3b 07e5 d1bb c235 443b
00000200: 09f5 69bc fd78 49bd 0d85 1d3c 9042 b3bc
00000210: 9c95 4c3a 4ded 3b3a 3508 b33b 8e09 5dbb
00000220: 9ef7 2f3a 097b a33b a325 d73b 3e31 36ba
00000230: 620b d2bb 5482 e5bd 3a04 b13c 9efd 1fbd
00000240: 8231 d33a a16b cb3b 60d5 86bb 213f 2fbe
00000250: 45e6 1d3d 28e5 90bd ec3b 7c3d 90e6 87bc
00000260: d323 603c ec81 aabb 044c db39 4012 1e3b
00000270: e836 c2bd 7956 ae3c d577 3dbd f992 54bc
00000280: bfd7 d23b 4d62 a6bc 5294 603e 8735 57bd
00000290: ab5e 563d 7baf 8e3b c70c cc39 d6dd 6b3a
000002a0: 122c 1e3a ef9d 07ba 9b64 a53c c111 803a
000002b0: 3817 563b 5216 573c 4107 4e3d c6d3 8cbc
000002c0: 9b27 d83c 21de bfbc 8048 4f3a e105 253c
000002d0: 37e1 e1b7 21d5 e4b9 62d7 d73b 0d6d d93c
000002e0: 1f12 c0bb e65b 55bc f0cd 2cbd ee7c 423a
000002f0: b365 29bb e213 eb39 f97a 883a 3cce 953b
-0.045685086 0.00600777 -0.019971672 -0.03238673 0.0025895482 0.0031387238 -0.024871206 0.0026377595
-0.007715179 0.006722081 0.0011804072 -0.010459033 -0.012896488 -0.0006471916 0.000557255 0.054195013
-0.019303333 0.051757142 -0.011752794 0.006757891 -0.021710033 -0.06310758 0.010393792 0.002780074
-0.019740269 0.0021804306 -0.0015499941 0.006590356 -0.0028363022 0.024203615 0.051111512 -0.017414553
0.024737371 -0.12670456 0.029683298 -0.038097627 -0.20132776 0.037650682 -0.06491885 0.0009272959
0.0046777558 -0.016094852 0.0003714749 0.00034384438 0.0018362729 -0.00028475298 0.0006556276 0.0037460125
-0.028189765 0.0067240507 -0.025803348 -0.043944474 0.0065013273 0.007228912 0.0017259077 0.003211492
0.012430685 0.008937214 -0.0027620713 0.008614756 0.0009583959 0.0013485214 0.009300236 0.07197421
-0.022291297 0.022873212 0.02486673 -0.008121371 0.022573443 -0.0015270207 0.0017233556 0.009198094
0.05490167 -0.009926999 -0.009417132 0.0025099388 0.0003113878 0.009314663 0.012572103 -0.0077270796
0.028899394 0.0069742147 -0.0018412763 0.01196179 -0.0033422199 0.00418515 -0.009108415 0.00036876794
0.0014842548 0.0035848678 0.000281698 0.0010066838 0.0038664008 0.00077218295 0.0008637334 -0.004678579
-6.0608265e-05 0.0005140791 0.0012961309 0.0007310796 0.0013578555 0.005860848 0.115371026 -0.036426876
0.07118247 0.008729342 -0.002453241 -0.006538324 0.0011132854 0.0070400904 -0.011903343 -0.026277386
0.00040254302 0.010733854 0.032028228 -0.008272967 0.0032011876 0.086182125 -0.011021404 -0.013302559
-0.0003773339 0.0002089465 -0.00047015352 0.0018871352 0.006598218 0.003363338 -0.006405476 0.0029939269
-0.014279612 -0.04918765 0.009614241 -0.021882325 0.0007804276 0.00071688445 0.005463625 -0.003372762
0.0006712618 0.004989032 0.006565766 -0.00069500867 -0.0064100483 -0.11206499 0.02160846 -0.039060228
0.0016112777 0.0062078987 -0.0041147918 -0.17113926 0.03854968 -0.07074958 0.061580583 -0.016589433
0.013680416 -0.005203476 0.0004182757 0.0024119765 -0.09483129 0.021281468 -0.04625686 -0.012974494
0.0064344103 -0.020310545 0.2193158 -0.052541282 0.052336376 0.004354415 0.00038919432 0.00089975947
0.00060337887 -0.0005173375 0.020189574 0.0009770916 0.0032667648 0.01312788 0.050299887 -0.017190825
0.026386073 -0.023421349 0.00079072267 0.010072202 -2.6926964e-05 -0.00043646342 0.006586955 0.026541257
-0.005861535 -0.013022399 -0.042188585 0.00074191287 -0.002584797 0.00044837507 0.0010412625 0.004571704

exp_avg_sq f4 [64, 3]
00000000: 6d28 ec3c 1e4e 3b3b 24b5 7f3d 12ae 9d3c
00000010: 3ad4 313c a7a2 aa3e 0f38 7b3c 6236 323b
00000020: 1c80 a93d 99b2 7b3c 8e54 653b b82e 973d
00000030: f4a3 653b 5a64 3e39 6e64 2a3b 1257 093d
00000040: 6c13 803c 95b5 a93e 507b 323b f26f 9a3b
00000050: 2458 003e 6ebb a03d d2ce 113b 79bf f93b
00000060: a211 0a3c 0df9 fa39 8a35 093c c89b b53a
00000070: 9166 823a 0217 c53c b790 363d 93b3 943b
00000080: c739 633d 4839 4c3e 651f 8b3c 8b85 9b3e
00000090: a86b f33e 9f82 723d 1ff3 903f 8215 8e3b
000000a0: b21f 813a 0e5e 983c c58b d63a bbfb 023b
000000b0: 00eb 3c3d ef35 2839 ba5b 9439 4438 c63b
000000c0: c705 a73c 1236 083b dd0a d43c f769 063d
000000d0: 115a d43a 4fc4 883c 6dc3 eb39 10c5 773a
000000e0: 7748 b73c 9991 aa3b e6b7 6e3a 15c8 b83c
000000f0: feef cc39 48a8 ea3a aecc 803d 6855 8a3d
00000100: 67e4 023c ac53 ff3d 2492 193c 3394 c33a
00000110: 54eb 253d 8ad0 d83b e724 913b 4643 d33d
00000120: d98a 543d ef91 b43b a5b7 ca3d 69ae b53b
00000130: cfd5 1f3b c6b7 583d a52d 4a3b 0b79 823b
00000140: 4159 dd3d a3fa 863c 6203 6a3b 82f0 b43d
00000150: f228 d839 b1f6 913a 5636 343d 0050 d839
00000160: 4826 033a c4aa 233c b278 5439 89a1 9f39
00000170: bcf3 9a3b c9b7 343a 90a4 1a3b aaf7 8b3d
00000180: 4894 1f3b 751f a03a f037 c93c 790c e438
00000190: 5b40 df39 2513 063c 5a74 363e 894d b53c
000001a0: 8959 953e e50c b83b d2cf ee39 ea89 f93b
000001b0: bb7a cf3b 6274 b93c b743 213f 795a 613d
000001c0: bb2c b53b 3a7b e83d e572 7d3c 6056 553a
000001d0: 3550 123c f8a6 3e3e 6a51 9f3b 6a0b b23c
000001e0: 74d7 8139 a0a9 7f39 e0df 1e3b a2c5 a039
000001f0: 700f ec3a b2ed 0f3d 353a 513a c971 ba3a
00000200: 3e6f cf3c b9ce e63c 5c75 e33a 08c2 e63c
00000210: f3a9 6f39 5ae8 173a 7a60 dd3c 4602 423b
00000220: de68 cb39 4ef3 173c 98fe b63b 92cc a939
00000230: c76a f93b 95eb 1e3e 517d 823c ff06 a13e
00000240: 2739 353b de4d f03b 1945 453e 6fe7 b13e
00000250: 08cd 543d 1dbf 6f3f 22c5 6c3d 92ca 953b
00000260: 799d 983d bcc8 5d3b 79fc 6339 75c5 663b
00000270: f426 d63d 6abe 3c3c 0240 363e 427b e63b
00000280: dcb1 783c fd5a c63e 7121 233f f835 ac3d
00000290: 38db b63f a6c4 053b 96c9 ec39 9b7f 383c
000002a0: 36f2 3f3b 8f1b 1e3c 6450 663e fbb3 2e3a
000002b0: c820 133b d4f0 0e3d e90a fc3c cdc2 ad3b
000002c0: 457e 9d3d 1dc9 b53d ac3e 253b c39b 0e3d
000002d0: 1e74 0f39 90a5 963a 32b8 043d c8c1 853c
000002e0: eb3e 953b e644 bb3d 91d1 023d f752 a73a
000002f0: 51dd 763c 0b14 5d3a d5e6 c63a cb8b fe3c
0.02882787 0.0028580497 0.06242861 0.019248042 0.010853821 0.3332722 0.01533319 0.002719306
0.08276388 0.015362405 0.0034993025 0.07381958 0.003504035 0.00018157196 0.0025999802 0.033530302
0.015634261 0.3314635 0.0027234145 0.004713052 0.12533623 0.078482494 0.0022248519 0.0076217023
0.008427056 0.00047869273 0.008374581 0.001385563 0.000994878 0.024058823 0.044571605 0.0045380085
0.055475023 0.19943726 0.016982744 0.30375323 0.47543073 0.0592066 1.1324195 0.00433606
0.0009851365 0.018599536 0.0016368559 0.0019986469 0.04612255 0.0001604182 0.000282971 0.006049188
0.020388497 0.0020784182 0.025884086 0.0328159 0.0016201158 0.01669517 0.00044968296 0.0009451667
0.022373421 0.005205345 0.00091063825 0.022556344 0.0003908872 0.0017902935 0.062890396 0.06754571
0.007989026 0.12467131 0.009373222 0.0014921486 0.04050763 0.0066166567 0.004429448 0.10315566
0.051890228 0.0055105607 0.09898309 0.005544473 0.0024388914 0.052909635 0.003084996 0.0039817146
0.108080395 0.016476935 0.0035707583 0.08834936 0.00041229237 0.0011136142 0.04399713 0.00041258335
0.0005002958 0.009989444 0.00020262858 0.00030447196 0.0047287624 0.0006893841 0.0023596622 0.068343475
0.0024349857 0.0012216406 0.024562806 0.000108742104 0.00042581823 0.008183275 0.17817822 0.022131698
0.29169872 0.0056167715 0.00045549736 0.0076153176 0.0063317693 0.022638503 0.6299395 0.055017922
0.005529014 0.113516286 0.0154692875 0.0008138176 0.008930256 0.18618381 0.0048620002 0.021733958
0.00024765322 0.00024381885 0.0024242327 0.00030664826 0.0018009972 0.035138793 0.0007981391 0.0014224584
0.0253216 0.028174745 0.0017353701 0.028168693 0.00022856127 0.0005794816 0.027023543 0.0029603406
0.0003879731 0.009274317 0.005584549 0.0003238661 0.007611606 0.15519555 0.015928896 0.3145065
0.0027652474 0.0073335012 0.1926464 0.34746882 0.051953346 0.9365099 0.057805188 0.0045712674
0.074519105 0.003384157 0.0002174246 0.0035212908 0.104566485 0.011520008 0.17797855 0.0070337364
0.015179124 0.38741294 0.637229 0.08408731 1.428565 0.00204114 0.0004516362 0.011260892
0.0029288656 0.009650125 0.22491604 0.00066643924 0.002244996 0.03489764 0.030766921 0.005302763
0.076900996 0.0887625 0.0025214357 0.034816515 0.000136808 0.0011493433 0.032402225 0.016327754
0.0045546195 0.09144001 0.03193814 0.0012765814 0.015067414 0.00084334676 0.0015174994 0.031072518

exp_avg f4 [64]
00000000: 0b60 48bd 04cd fbbc bb62 d6bc fefe 1f3c
00000010: 3420 46bc 7d08 743d b296 50bc 0b5a 83bd
00000020: 7226 afbc 2eb6 2a3c 6e29 5a3d ee46 09be
00000030: b666 59be 1b0f 79b9 a76d 3339 b20d beba
00000040: b30e 08bd fd6c 35bd b7a7 513b a075 1a3c
00000050: af39 e9ba ab6b a83d ae43 dd3c 1c73 84bb
00000060: da7d 773d 52ef 153b 402e 7e3c 52cf ff3b
00000070: 1882 97bb 7aa1 c73a bd08 36ba 51ba c1ba
00000080: d75c 07b9 d770 c4ba ed57 013e 17f6 333c
00000090: aa7a 34bb 03ef f1bc 99f3 063d 34dd b43d
000000a0: 7486 073a 8a7c cc3a 56fa 07bc 3abb 58bd
000000b0: 1ed0 beba 9f5c 95bb e6c6 fd3b da11 f2bd
000000c0: 1877 8aba 0481 38be f76d 8e3d 6455 96bb
000000d0: 04ba d0bd 2958 5fbc f275 6c3e f8bb 593b
000000e0: 7748 8d3a 81cf 21bb 6666 543d db1c cfbc
000000f0: 0575 553a ef27 f23c 49cb 2dbd 40c2 73ba
-0.04891972 -0.030737408 -0.026170125 0.009765385 -0.012092639 0.059578408 -0.012731241 -0.06413659
-0.021380637 0.010419412 0.053262167 -0.13405964 -0.21230587 -0.00023752118 0.00017111619 -0.0014499931
-0.033217143 -0.044293392 0.0031990835 0.009427458 -0.001779368 0.08223661 0.027009811 -0.0040420424
0.060422756 0.0022878242 0.015513957 0.007806697 -0.0046236627 0.0015230619 -0.0006944051 -0.0014780258
-0.00012909189 -0.0014987242 0.12631197 0.010983965 -0.0027538934 -0.029532915 0.032947157 0.08831254
0.00051698764 0.001560108 -0.008299431 -0.05291293 -0.0014557873 -0.0045581604 0.007744658 -0.11819811
-0.0010564057 -0.18017966 0.06954568 -0.004587816 -0.1019173 -0.013631859 0.23091868 0.003322361
0.0010779042 -0.0024690332 0.051855467 -0.025282314 0.00081427424 0.029560057 -0.042430196 -0.000929866

exp_avg_sq f4 [64]
00000000: 06c9 013d 2198 f63c e6e2 933c ef83 9a3c
00000010: 388a 713b c860 493d 99ad f33b e149 a53d
00000020: 85e9 113c 2201 1c3b 1a27 493d 0d9d 5d3e
00000030: 09de 083f 675d ae3b 9741 6e3b b276 e839
00000040: 7f0c b83c c70c 0d3d 49d3 b63a 9a68 c83b
00000050: 29f2 0e3b f8b1 9a3d a104 323c c1fa 343c
00000060: 101d 6b3d a8cc 023c dc8f e73b 1d3b a43c
00000070: e500 c83a 384e 6f3a ffee 043a 99d2 473b
00000080: 10a4 6f3b be21 0c3a 0f1e 4d3e f0f9 c63b
00000090: 0753 ed3c 2f00 783d 2a64 853c 81a1 433e
000000a0: 29d6 003a 5920 0a3b 7087 113b 0006 f53c
000000b0: ecd2 533a 516f 5b3b 779b c13b 4a3b 2f3e
000000c0: 4a75 253c 1881 cc3e 807e 7f3d 7b08 6c3b
000000d0: dabe ed3d b3f7 b53c 52a8 383f e65d 233b
000000e0: 2418 4e3c d9cd 3e3b d3bd 133d 11f3 ba3d
000000f0: 1d94 a83a 7211 ab3c 2c0c 083d 66b8 1a3b
0.03168585 0.030101838 0.01805253 0.018861739 0.0036856066 0.049164563 0.007436466 0.08070732
0.008905773 0.0023804386 0.049109556 0.21641941 0.534638 0.005321193 0.0036355013 0.00044338923
0.022466896 0.034436014 0.0013948466 0.006115985 0.002181182 0.07553476 0.010865361 0.0110461125
0.057400763 0.007983364 0.00706671 0.020047719 0.0015259056 0.0009128782 0.00050710136 0.0030490516
0.0036566295 0.0005345604 0.20030998 0.0060722753 0.028970255 0.06054705 0.016283114 0.19104578
0.0004914725 0.002107641 0.0022205971 0.029910088 0.0008080441 0.0033483098 0.0059084254 0.1711246
0.010098765 0.3994224 0.0623765 0.0036015797 0.11608668 0.022212839 0.72131836 0.0024927794
0.012578998 0.0029114394 0.036069702 0.091283925 0.0012861524 0.020882342 0.033214733 0.0023608445

exp_avg f4 [32, 64]
00000000: 1fbf 3ebc 2f9b 1bbd e5be 87bd 0e4b a0bd
00000010: aeee bdbb ff91 7dbd 53ef 66bc 581b e7bc
00000020: a75c 93bd 6258 13bd 4b8d b1bc 4676 ddbc
00000030: 1c14 b3bd 749e c9bd 35fc dfba ce78 feba
00000040: 6138 efbd 9628 48bd 3d88 58bb a00c 15bd
00000050: 6b71 903a 0371 bbbd 08d7 82bb 9d06 2dba
00000060: 8d20 fbbd 1981 56bd 8d82 d5bc 6522 64bd
00000070: fe8f dbbc 674d b8b9 2b26 16ba 88c6 7cbb
00000080: 250c 29bb 4768 73ba 8625 d5bd 2b18 02bc
00000090: b5ab dc38 f4c8 77bb 84cf 0ebe 3296 01bd
000000a0: 28d1 91ba 0c57 0ebb 6ce5 ffba ef9c 9bbd
000000b0: 41dc 563a a473 bbba d89f 4fbb f356 7ebd
000000c0: 89f8 e7ba 38aa c2bd 8ee5 a8bd 67a9 3fbb
000000d0: 2f09 11be e1bd 38bc 4e12 9fbd 0f4d e2bb
000000e0: 981e 823b 05d2 8c3a 1364 c7bd a807 18bc
000000f0: 9419 0d3a 304f 79bb 1cde a7bd c634 8b38
00000100: 3523 e3bb 8696 bbbc c937 22bd 33f0 36bd
00000110: b9c9 87bb 5d59 1bbd 38c4 14bc 397a 87bc
00000120: 0e91 2dbd a5cb b8bc 2fbe 53bc 1566 82bc
00000130: 6868 52bd ef74 6cbd a2ab d7ba d818 2fba
00000140: 0c6c 8bbd 8bc1 e9bc 67b7 18bb 5d81 b7bc
00000150: 9317 903a 3fdf 57bd 4faa 1ebb 859d 5cba
00000160: b227 91bd 1f07 07bd 770a 87bc 63c0 0ebd
00000170: ac80 88bc 8d13 c1b9 2ee6 c638 d50f 1dbb
00000180: 06c2 9339 0200 c837 98a1 78bd 4126 98bb
00000190: 6848 d138 b201 2ebb b33a a9bd 81f4 94bc
000001a0: f439 8a39 832d e0ba 2c80 9eba 5827 38bd
000001b0: 3a03 4939 35d5 65ba 7af0 05bb b825 16bd
000001c0: 12d6 9fba 7c27 67bd f81d 42bd 32ab ceba
000001d0: 4271 abbd 3c85 edbb 88fa 37bd 9901 84bb
000001e0: a1e8 433b 386f 9d3a aaff 73bd b09a cdbb
000001f0: b9ba d439 b6db daba 3207 45bd dd9b 0139
00000200: c867 a3bb 7a7c 2dbc 15d3 febc d091 aebd
00000210: b690 03bc 6b1b 8bbc 022c 2ab8 58f2 f4bc
00000220: c340 4abd eb74 b338 f95d 48bc 7f11 a7bc
00000230: f48a 8abd 4acd 9fbd c771 9539 3be1 04bc
00000240: 0be5 d2bd d6b1 5dbd 6625 f438 53f2 6cbc
00000250: 6ac4 39bb 4af5 b6bd bbec f2ba 6a2d 0eba
00000260: 976d eebd bd23 7bbb ee76 6f39 56ca 9bbb
00000270: 8c2b c138 1fc2 aa38 5295 6abb 55f3 3538
00000280: 17a8 51bc 8c4c 89bb ca58 babd 6c55 08bc
00000290: 78d6 4339 b7bb 83bb 7a25 93bd aa55 10bd
000002a0: 0323 01bc 5cb8 4439 f316 2538 50e3 30bd
000002b0: 6eec 37ba cf75 3dbb 4536 d0bb bc46 24bd
000002c0: 0d68 4039 f730 3ebd e584 a8bd 7b28 07bc
000002d0: 24c8 aebd 4824 3638 ff3c 8bbd 1210 4fbc
000002e0: a132 a0ba b8b3 4bbb 9b3e 13bd 245d 36bc
000002f0: 6cb8 1aba 6f1a 00bc 4476 a3bd 6f5f 08bb
00000300: 415f c23b 1cc4 563c 1eed 103d 96e7 c63d
00000310: 53b3 023c 9ed0 983c 2d90 2e38 9965 103d
00000320: 012b 6e3d 339e 54b7 0dc4 5d3c bb4b d13c
00000330: 0c51 a63d a3ad ba3d 1829 9337 cca8 9c3b
00000340: dae4 fb3d cd62 7c3d ac68 ca2e 136e 743c
00000350: a51e ca3a 623d d53d 48a6 033b ec00 053a
00000360: 34c3 0b3e 0924 3e3b 9d98 bab9 e6a1 bf3b
00000370: c9f8 a630 bda7 8636 8658 013b 0400 0000
00000380: 6a76 e63b 26ca 103b 0ec5 dc3d 8d5f 203c
00000390: a0ef 8c30 840c 983b ef0a a93d 7c3e 223d
000003a0: 4cf3 903b a31a bd35 7045 d22f 15b6 4f3d
000003b0: 3224 1e3a 42fa 103b 0a50 a23b 0961 443d
000003c0: 153e aa2f 5a3f 603d fd76 c83d 568a b63b
000003d0: d685 ce3d 9889 e42c 02b4 943d c51e 243c
000003e0: 55e5 2d3a ba81 d93a cee1 1c3d e0cc 423c
000003f0: f61e af39 576e b33b 8ec7 c93d fd06 a03a
-0.0116422465 -0.03798979 -0.06628207 -0.078268155 -0.005796275 -0.06190681 -0.014095145 -0.02821128
-0.071954064 -0.03597296 -0.021673819 -0.027033936 -0.0874407 -0.09844676 -0.0017088713 -0.0019414665
-0.11680675 -0.04886683 -0.0033040189 -0.036388993 0.0011020129 -0.09152415 -0.003992919 -0.0006600412
-0.12262068 -0.05236921 -0.026063228 -0.055696864 -0.02680206 -0.00035152884 -0.00057277334 -0.0038570482
-0.0025794592 -0.0009285253 -0.10407548 -0.007940332 0.000105224004 -0.0037808986 -0.13946348 -0.031637378
-0.0011124955 -0.0021719364 -0.0019523329 -0.07598292 0.00081962725 -0.0014301431 -0.0031680968 -0.06209464
-0.0017697971 -0.09505123 -0.08246909 -0.0029245259 -0.1416366 -0.011275739 -0.07767163 -0.0069061588
0.003970932 0.0010743743 -0.097358845 -0.009279169 0.00053825346 -0.0038041584 -0.08196661 6.637866e-05
-0.0069316872 -0.022898924 -0.039603982 -0.044662666 -0.0041439203 -0.03792702 -0.009079985 -0.016537772
-0.042374663 -0.022558043 -0.012923761 -0.015917817 -0.0513691 -0.057728704 -0.0016454349 -0.0006679422
-0.06807718 -0.028534671 -0.0023302676 -0.022400552 0.0010993354 -0.05270314 -0.0024210399 -0.0008415806
-0.070876494 -0.032965776 -0.016484482 -0.034851443 -0.016662918 -0.00036826395 9.48425e-05 -0.0023965735
0.00028182584 2.3841862e-05 -0.060700983 -0.004643232 9.979383e-05 -0.0026551303 -0.08263149 -0.018182995
0.0002636459 -0.0017103407 -0.0012092642 -0.044959396 0.00019170056 -0.0008767427 -0.0020437525 -0.036657065
-0.0012194535 -0.05643414 -0.04739186 -0.0015767573 -0.083712116 -0.007248549 -0.04491666 -0.004028511
0.0029893296 0.0012011295 -0.059569992 -0.0062745437 0.0004057491 -0.0016697559 -0.048102565 0.00012360462
-0.004986737 -0.01058876 -0.031106511 -0.08523905 -0.008030107 -0.016980847 -4.0572144e-05 -0.029900715
-0.049378168 8.557163e-05 -0.012229436 -0.020394085 -0.067647845 -0.07802828 0.00028504265 -0.00811034
-0.10297593 -0.054124676 0.00011641793 -0.0144620715 -0.0028345832 -0.08933504 -0.0018533686 -0.00054236373
-0.11641996 -0.0038320862 0.00022837121 -0.004754345 9.2110684e-05 8.1423896e-05 -0.0035794568 4.3380383e-05
-0.012796423 -0.0041900333 -0.090989664 -0.008321147 0.00018676545 -0.00402018 -0.071848825 -0.035237946
-0.007881883 0.00018760696 3.936044e-05 -0.043185532 -0.0007016127 -0.002890933 -0.0063541257 -0.04010652
0.00018349309 -0.046433415 -0.082284726 -0.008249397 -0.085342675 4.342597e-05 -0.067987435 -0.012638109
-0.001222212 -0.0031082463 -0.035948377 -0.011130605 -0.0005902115 -0.007818802 -0.07981542 -0.0020808836
0.0059317653 0.01310828 0.035382383 0.0971214 0.007977325 0.018654164 4.1619107e-05 0.03525314
0.05814648 -1.2673018e-05 0.013535512 0.025548806 0.08120927 0.0911515 1.7542901e-05 0.0047808643
0.12299509 0.06161766 9.20449e-11 0.014918822 0.001542051 0.104120985 0.0020088125 0.0005073685
0.13648683 0.0029013178 -0.0003559039 0.005848157 1.2148799e-09 4.0130385e-06 0.0019736602 6e-45
0.007033159 0.0022093146 0.10779773 0.009788406 1.0254446e-09 0.004640164 0.082540385 0.03961037
0.0044235345 1.408935e-06 3.8248116e-10 0.050710756 0.0006032615 0.0022121822 0.004953389 0.047944102
3.0966932e-10 0.054747917 0.0978832 0.00557069 0.10084121 6.4954257e-12 0.07260896 0.010017102
0.00066335994 0.0016594448 0.03830128 0.011889666 0.0003340167 0.0054758 0.09852515 0.0012209114

exp_avg_sq f4 [32, 64]
00000000: eaaa a13b b7bb 9b3d 34fb 223e f7d0 fa3d
00000010: 9928 193c b885 803e 14a1 053d 129d a53c
00000020: 8dbc b63d 2452 8e3e 4745 693c 3faa 3b3c
00000030: f8fd e63d 22de 183e dc4d 1a3b d357 563c
00000040: c0f2 673e 6069 803d 7924 863b c776 983d
00000050: 82a5 613a 5c1f 1b3e f50e 203a 2f35 b73a
00000060: e3b9 873e bbd6 9e3e 1352 e23d dc45 993e
00000070: 8c8f 533e 9928 e338 1d41 bc3a 3443 173c
00000080: f20e cc3c 4620 563a 14d7 333e 0cbc da3a
00000090: 5d07 7d3c f146 f83a c21f 193f 08a9 ae3c
000000a0: 85b2 1a3c 27dc 0d3b f943 343b 7a00 0e3e
000000b0: c213 a73a 9452 a73a 006b d33b 58a6 8b3d
000000c0: beca 653c 2c7a 8b3e 58f3 0b3e f992 393c
000000d0: c971 d73e 7327 1d3d 2055 a63d d43f 8c3c
000000e0: 8d75 423c 522e 693a 70a1 073f a59b 633c
000000f0: 8994 2039 8453 643b 747d 123e 6dc0 fa39
00000100: f8f2 083b 8419 0f3d d8f1 873d 0705 b93d
00000110: 60bc 2e3d 63a6 e93d ad7e 8a3c 6cbc 173d
00000120: 060b e03c 4fe1 073e 655a b83b 5223 7e3b
00000130: 00f1 ee3c a560 1e3d 475a e23b fe19 823d
00000140: 46bb 7f3d de20 063e 19ae 253b 52b8 053d
00000150: 59fe 2f39 1897 3f3d 4b13 8639 f124 c53b
00000160: 30c6 9f3d 13ec 133e 24a8 573d d82d 153e
00000170: 6be8 cc3d 8e32 4039 9efa bc3b 1745 9a3b
00000180: bd99 f03d dc06 4939 9896 3d3d 9191 503b
00000190: 8de7 073c e52e fd3b 0ef5 763e da6b ee3c
000001a0: b8b8 2e3d f210 b03a 9e57 b43a b122 553d
000001b0: 81ba b539 4d52 c53b 8617 fb3c 1378 b33c
000001c0: 46e0 fe3b c0fa e33d 6a6b 3b3d 9e7d 5d3d
000001d0: b41b 193e 006e a83c bc8c ac3c f628 963d
000001e0: d7ec c03b 635f 2039 c760 6f3e a405 753d
000001f0: d62c 7b38 d875 533c 934a de3d 91ee 113a
00000200: 0104 563a e0c1 ca3b fc18 d93c ffac 133e
00000210: 07d9 153d 0af3 783c 4b7f 9139 9f63 1e3d
00000220: a2ec 3b3d 5796 993a ed88 5e3b e0ce 0e3c
00000230: 751d a83d 62ac d43d 19ae bc3b 7fc2 7d3d
00000240: 99ca 3b3e b0e6 0a3e 881c 5738 d4b6 e13b
00000250: 978e a33a 8042 043e c713 bf38 83c7 a23b
00000260: 2390 633e eecc 093c 4581 713a db35 d33b
00000270: cdd0 3c3a fd95 1e39 c588 e43b 8869 1f38
00000280: d35c ff3d 6909 3a3b b79e 0f3e affa 563b
00000290: b0f4 6b38 424f d33b 6678 013e 0132 113d
000002a0: a822 3f3d e0cb 1a38 3f1e 0837 2200 2b3d
000002b0: ca85 3539 c1b3 b73b c6e6 e63c 93b8 033d
000002c0: 9c6e a938 bf09 663d b9f0 f03d a2d0 543d
000002d0: 2fd4 1c3e 2a35 a039 ade4 863d dda3 923d
000002e0: c751 9439 5edd c23a 4104 3f3d 31e0 503d
000002f0: 6e4f 7e38 bcc8 793c df30 243e ec9d a43a
00000300: 1c4b 983a d43e f93b 2cbc 183d 16ad 3d3e
00000310: 8d82 be3c 6923 893c 0040 3933 3bf4 133d
00000320: 9a92 963d 3419 5a36 d5fa a23b 0011 663c
00000330: 4c25 0a3e 80a8 2d3e fae1 4e3b 579e 0b3d
00000340: 5f80 993e 5e72 ef3d bca8 9d33 d504 0a3c
00000350: 2b62 c039 f737 543e 72a8 fb38 95de 463b
00000360: 2a28 b83e 1b12 b93b aec7 fe38 f9e0 583b
00000370: 8088 2435 aa9d 9838 bff8 583b 47c6 4930
00000380: 1bac 833d 368d 5c3a 3d98 6b3e 1e41 463b
00000390: 53e7 3c34 3b2c 8f3b c61a 3d3e 4dd5 123d
000003a0: 4272 bd3c 246d 3534 895d 0033 f8a1 823d
000003b0: 90f1 1638 cf1a 583b 7b79 883c e458 523d
000003c0: eb80 9533 2d8c a83d 160e 403e 207f ef3c
000003d0: 1058 743e e9b0 3532 93cf cc3d 7efd 2c3d
000003e0: 9cb4 bb38 b7ba e639 4976 6a3d 0743 0a3d
000003f0: 59f3 9437 762c 043c d907 5a3e 68da d639
0.0049337046 0.07604163 0.15916139 0.12246888 0.009348058 0.2510202 0.03262432 0.020216499
0.08922682 0.27797043 0.014237708 0.011454164 0.112789094 0.14928487 0.0023544943 0.013082462
0.22651196 0.06270099 0.0040937033 0.0744453 0.00086077314 0.15148681 0.00061057444 0.0013977642
0.26509008 0.310232 0.11050811 0.2993611 0.20660228 0.000108317654 0.0014362667 0.009232331
0.02490947 0.0008168261 0.17562515 0.0016688122 0.01544365 0.0018942041 0.59814084 0.021320835
0.009441976 0.0021646114 0.0027506335 0.1386737 0.0012746977 0.0012765699 0.0064519644 0.06818837
0.014025388 0.27241647 0.13667047 0.011326545 0.42079 0.0383677 0.08121705 0.01712028
0.011868847 0.0008895147 0.5298071 0.013892089 0.00015314123 0.0034839818 0.14305669 0.00047827084
0.0020896774 0.034936443 0.06637925 0.09034162 0.042660117 0.11408689 0.016906107 0.037044927
0.027349006 0.13269542 0.0056260102 0.0038778377 0.029167652 0.038666386 0.0069077346 0.06352614
0.062434457 0.13098475 0.0025280772 0.032646485 0.00016784052 0.046774954 0.00025572846 0.0060163666
0.07801473 0.14445524 0.052650586 0.14568269 0.10005268 0.0001832938 0.0057671806 0.004707943
0.11748073 0.00019171409 0.046286196 0.0031825046 0.008294952 0.0077265375 0.24116918 0.029104162
0.04265663 0.0013432784 0.0013759022 0.052035037 0.00034661966 0.006021774 0.030650865 0.021907842
0.0077782003 0.11131811 0.045756735 0.054074876 0.14951974 0.020560265 0.021063201 0.073320314
0.0058876085 0.00015294323 0.23376761 0.059819832 5.988482e-05 0.012906514 0.10854068 0.000556686
0.0008164049 0.0061876625 0.026501171 0.14421462 0.036583927 0.015194664 0.00027751396 0.038669225
0.045879968 0.0011717778 0.0033956126 0.008716315 0.082087435 0.10384442 0.0057580587 0.061953064
0.18339004 0.13564563 5.1286566e-05 0.00688825 0.0012478408 0.12915993 9.1112735e-05 0.0049676313
0.22222953 0.008410675 0.0009212683 0.006445629 0.00072027446 0.00015123929 0.006974312 3.8006838e-05
0.12468877 0.0028386957 0.14025389 0.0032803228 5.625625e-05 0.0064486573 0.12643585 0.035448078
0.04666391 3.6906335e-05 8.113274e-06 0.041748174 0.00017311345 0.005606145 0.028186213 0.032158446
8.0791506e-05 0.05616164 0.11764664 0.05195678 0.15315317 0.00030557188 0.06586585 0.07160161
0.0002828969 0.0014866998 0.046634916 0.050995056 6.0632294e-05 0.015245613 0.16034268 0.0012559271
0.0011619064 0.0076063666 0.03728883 0.18523058 0.02325561 0.016740518 4.3131877e-08 0.03612159
0.07352181 3.2499202e-06 0.004973749 0.014042139 0.1349079 0.16958809 0.0031567798 0.03408655
0.29980752 0.11691736 7.341575e-08 0.008424004 0.00036694235 0.20724474 0.00011999988 0.0030345072
0.35968143 0.0056479103 0.00012148857 0.0033093079 6.1293395e-07 7.277292e-05 0.0033107249 7.3405143e-10
0.06429311 0.0008413376 0.23007293 0.0030251215 1.759302e-07 0.0043692864 0.18467245 0.03584795
0.023125771 1.6896644e-07 2.9887392e-08 0.06378549 3.598776e-05 0.0032974964 0.016659489 0.051354304
6.961803e-08 0.082298614 0.18755373 0.029235423 0.23861718 1.0575811e-08 0.10000529 0.042233936
8.950496e-05 0.00044008132 0.05724171 0.03375533 1.7756292e-05 0.008067241 0.21292056 0.00040979986

exp_avg f4 [32]
00000000: 3b39 bbbd 5ba2 5bbd 89c0 9bbd 7d05 b63d
00000010: 24f8 dd3d aab3 773b fcc5 1fbc 083c b6bd
00000020: 09b3 79bd e875 4e3d 7a79 95bd 5e05 9f3c
00000030: 5364 c03c 1a37 c83c ab40 88bd 0400 0000
00000040: c35b b8bc 4208 36bd c411 c4bc 8891 803d
00000050: 6049 68ba a7ca 4abe 3434 f73a 08db 21bd
00000060: 2314 603b 0fef a33c 9f67 53bd ee93 7fba
00000070: adc2 cc3a 462a 833d bbb3 203e 5817 cc3c
-0.09141775 -0.05362163 -0.076050825 0.088877656 0.10838345 0.0037796297 -0.009751793 -0.08898169
-0.060961757 0.050405413 -0.072985604 0.019411739 0.023485338 0.024440337 -0.066529594 6e-45
-0.022504693 -0.04444147 -0.023934253 0.06277758 -0.00088610314 -0.19803868 0.0018860162 -0.039515525
0.003419169 0.020011453 -0.051612493 -0.0009749521 0.0015621983 0.064045474 0.15693562 0.024913475

exp_avg_sq f4 [32]
00000000: efba 033e 88b7 163d 4f88 c53d 4295 1f3e
00000010: 67d4 413e 821c 2d3d 15a7 343b f75d 0b3e
00000020: 5aab 233d debe 073d 2e33 9b3d 4ec3 823b
00000030: 7d77 943c 0b57 a83c 5230 823d be0c 382d
00000040: fce8 f33b 7276 a23d dd6b d73b 68d3 3f3d
00000050: a5a9 003c cf59 fb3e a7c6 263b b5ca cd3c
00000060: 6db2 103b 69ec 143c e415 4e3d ebe4 653a
00000070: 5a6a eb3a 31cb 5c3d d149 a13e 6149 6f3c
0.12864278 0.036796123 0.096451394 0.15584281 0.18928681 0.042263515 0.002756541 0.13610063
0.039958335 0.03314101 0.07578121 0.0039905673 0.018123383 0.020549318 0.063568726 1.0462018e-11
0.0074435454 0.07932748 0.0065741376 0.046832472 0.007852946 0.49091956 0.0025447996 0.025121072
0.0022079006 0.009089568 0.050313845 0.0008769768 0.0017960772 0.053904716 0.3150163 0.014604897
