pytorch-DS-051/rackhun/2_A3C_pendulum/data_base/saved_model/A3C_CRITIC.pth (torch_old, 12819 bytes, 7 tensors)

fc1.weight f4 [64, 3]
000000 a8 ca f1 bc 0d fa 73 3f e8 92 ab be a7 f7 03 3f
       -0.02951558 0.9530342 -0.33510518 0.5154976
000010 1b 3e 6b 3f 0a 60 10 3e fa a8 1b 3f 6b 50 78 3f
       0.9189164 0.14099136 0.6080471 0.9699771
000020 bf 88 50 3e 4a 8f 46 bf 15 4b 7b 3d d2 e3 34 bd
       0.20364664 -0.7756239 0.0613509 -0.04416258
000030 5e ef 3a 3d 43 06 f7 3e 77 b5 46 3c fd 81 18 3f
       0.045638435 0.48246965 0.0121282255 0.59573346
000040 99 85 0e bf c5 7c 98 3c 03 07 f3 be 72 2f 99 bc
       -0.55672604 0.018614182 -0.47466287 -0.018699382
000050 ae c9 8e 3c f4 de 69 3f 79 fb 52 3f b9 9a 95 3e
       0.017430153 0.91355824 0.82414967 0.29219607
000060 71 21 f3 3e 9b 7c d5 3e fb bb 65 3e ab e5 99 be
       0.4748645 0.4169663 0.2243499 -0.30058035
000070 02 76 85 3f e5 31 c5 3c fc a4 28 3f 09 06 0e 3f
       1.0426638 0.024071643 0.65876746 0.5547796
000080 1e 29 8d 3e ef 74 a2 3e 2b 4a b8 3f 81 d2 29 3e
       0.27570432 0.31729838 1.4397634 0.16584207
000090 17 9f 32 3f ba bd 01 3f 3a a5 93 3e 60 b0 ec 3e
       0.69774 0.50680125 0.28836995 0.46228313
0000a0 be 2f c0 bf fc 11 a8 be ee ce 99 be a1 3f 84 3e
       -1.501457 -0.3282622 -0.30040687 0.25829795
0000b0 ba 99 15 38 3b 5d 69 3e 3f 91 e8 3e ff 49 20 3d
       3.5667537e-05 0.22789471 0.45423314 0.03913307
0000c0 39 d1 08 3f d1 6b ad 3e d4 d2 95 3e c0 b9 09 3f
       0.5344425 0.3387132 0.29262412 0.53799057
0000d0 c7 5b ac 3f 55 c6 42 3e c9 29 2b be 6f fb 87 bf
       1.3465508 0.1902097 -0.16715159 -1.0623606
0000e0 3c 91 ce bd 7d 9a 28 3f 59 69 5d 3f 8a d2 41 3e
       -0.10086295 0.6586073 0.8648887 0.1892797
0000f0 48 4b b5 3d 81 9b 4e be 56 57 f0 bb 07 d5 1b 3e
       0.088522494 -0.20176508 -0.00733463 0.15217982
000100 fe 44 d7 3e 90 88 38 3e b8 cb 02 bd 03 55 8f 3d
       0.42044824 0.18020844 -0.031932563 0.069986366
000110 1f 4c 87 3e 83 44 5b 3f 42 b2 6a 3f 33 57 88 3e
       0.26425263 0.85651416 0.9167825 0.26629028
000120 3a f1 bd be 8d 89 f6 3c 5e df 8a bc c6 5a 9c be
       -0.37098104 0.030094886 -0.016952213 -0.30538005
000130 0b fc aa bc cd a0 80 ba 80 9e 11 3f 22 57 52 3f
       -0.020872137 -0.0009813547 0.56882477 0.82164204
000140 81 7a 38 3d d8 94 9c 3e 70 e3 87 be 8c d6 cd bc
       0.045038704 0.3058231 -0.2654071 -0.025126718
000150 03 4f 4a 3f 15 fe b4 3f 01 4b 76 3e 90 12 26 3f
       0.7902681 1.414004 0.24052049 0.64872074
000160 ac 6a 2f 3c 1a 3c 1b bf 02 12 89 3f 4a a1 dc 3c
       0.010706585 -0.6063858 1.070862 0.026932377
000170 17 23 9e be 0c d0 62 3f 24 21 94 bf 13 63 0a 3d
       -0.30886146 0.88598704 -1.1572614 0.03378589
000180 80 d9 b8 3e 17 a8 bb bc 7c 6b 93 3e ff 1b 38 be
       0.3610344 -0.0229073 0.28792942 -0.1797943
000190 41 07 be 3e 39 4b 5a bd 00 ef d5 3e 3b 32 c7 3e
       0.3711491 -0.053294394 0.41783905 0.3890551
0001a0 cb c4 b5 3b bc 17 d8 be a7 e4 a6 bf 18 82 94 be
       0.005547141 -0.42205608 -1.3038529 -0.29005504
0001b0 5d d4 7f 3f ce fb 27 3f 14 d3 c4 3e d1 0f 92 3e
       0.99933416 0.656186 0.3844229 0.28527692
0001c0 b5 75 c4 bd 0c b0 01 be 9e 89 c7 be 5a 55 4e bf
       -0.09592763 -0.12664813 -0.3897218 -0.80598986
0001d0 bf c8 dc bd 14 82 1e 3f 63 c1 2b 3f 59 74 d1 3d
       -0.10780477 0.61917233 0.6709196 0.1022727
0001e0 f6 42 07 3f 9d d2 22 3f b9 9f 00 3e 2d 81 0f 3f
       0.5283655 0.6360262 0.1256093 0.5605648
0001f0 4c d4 a5 bf 49 75 9f be f9 ce d5 3e 2d e2 2f 3f
       -1.2955413 -0.3114417 0.4175947 0.6870449
000200 74 c6 9e 3d 0f 69 90 be 83 17 cd 3e 3f 70 86 bd
       0.07752696 -0.28205153 0.40057 -0.06564378
000210 20 96 c5 be 56 d8 16 bf 3b 0a 40 bd 1b 20 01 3f
       -0.385911 -0.5892385 -0.046884757 0.50439614
000220 db b4 be 3e a3 87 87 3e 0f d0 0b 3f 8a 3b 31 3f
       0.37247357 0.2647067 0.5461435 0.69231474
000230 b7 b6 87 3c dd e4 1c be 86 a8 1e bf 42 26 ba 3c
       0.016566617 -0.1532168 -0.61975896 0.02272332
000240 45 2d 44 3f 0b ac 45 3f 73 0c 66 3e b7 a2 2c 3f
       0.76631576 0.7721564 0.22465687 0.67435783
000250 ec 37 c4 be 17 e8 86 be c5 a0 89 3e bd 87 d1 be
       -0.38323915 -0.26348945 0.2688047 -0.40923873
000260 8f 96 b4 3e f0 bc aa be 69 d5 41 bf 8c d4 11 be
       0.35271117 -0.33347273 -0.75716263 -0.14241236
000270 b1 51 03 3f e2 22 4a bf 16 a5 e6 bd e2 d7 1b bd
       0.51296526 -0.78959477 -0.112619564 -0.03804768
000280 13 d8 b0 3e 6b 8a 58 3d 53 34 09 3e f9 de 78 3c
       0.34539852 0.05286638 0.13398866 0.01518988
000290 dc e5 65 bc 05 50 a4 be e8 75 13 be 97 4f 81 3c
       -0.0140318535 -0.320923 -0.14400446 0.015785022
0002a0 b8 b3 9a 3d 97 f5 c8 bf f9 9c a2 be 88 07 83 3f
       0.0755381 -1.5699948 -0.31760386 1.0236673
0002b0 e2 96 79 bf ba 43 b0 be aa a3 e9 3e 25 f8 e6 be
       -0.97495854 -0.3442667 0.45632678 -0.45111194
0002c0 de 41 e4 bd e1 6c 09 3f 6b 75 21 bf 58 cb 75 3e
       -0.11145376 0.5368176 -0.6306979 0.2400335
0002d0 e6 05 ce bb d5 53 ad 3d 88 c3 8d 3e 79 f4 e6 be
       -0.0062873242 0.08463255 0.2768824 -0.45108393
0002e0 78 47 de 3f aa 8c db 3d eb e8 42 be 19 82 5b 3d
       1.736556 0.10720189 -0.19034164 0.053590868
0002f0 ae 38 07 3a 43 16 b9 3e 0a d3 b4 3e c2 0c 41 3e
       0.0005158287 0.36149797 0.3531726 0.18852523

fc1.bias f4 [64]
000000 c6 0a a2 3e 66 45 3b bf f4 04 57 bf 14 f8 3f 3c
       0.31648844 -0.7315277 -0.8399193 0.011716861
000010 c2 a0 2b bf de 25 4a 3e 40 e3 7e be b0 c7 6d 3e
       -0.6704217 0.19741008 -0.24891376 0.23220706
000020 08 b7 74 bf dc f9 e6 be ce a1 01 3f 9b 21 3d bf
       -0.95591784 -0.45112503 0.5063752 -0.738794
000030 af be 7b bf 42 43 4e bf d8 39 f0 be f1 2b b2 be
       -0.98337835 -0.8057138 -0.4691913 -0.3479915
000040 e3 86 a3 bf 64 d1 61 bf 5a 3f 24 bf d6 6a 5d bf
       -1.2775539 -0.8821013 -0.64159167 -0.86491144
000050 52 6a 89 be 52 ad 7d 3d 0f 13 2f 3d 2b d5 23 3f
       -0.26838928 0.06193287 0.042742785 0.63997144
000060 c1 f3 37 3e da d3 a9 be dd d1 4d 3d 75 ed 04 bf
       0.17964078 -0.33169442 0.05024897 -0.5192483
000070 80 02 8f bf 3b 53 de 3e f7 be 8a 3f 2f dc 39 3f
       -1.1172638 0.43422875 1.0839528 0.726016
000080 d8 63 2c 3f 69 58 23 be 3e 57 c2 3e 33 83 91 bd
       0.6733985 -0.15951695 0.37957186 -0.071051024
000090 1d fa 90 bf 3c c3 7e be 0f 64 7f be 43 89 4f bf
       -1.1326329 -0.24879164 -0.24940513 -0.8106882
0000a0 5e 4b 2e bf 4e 5f 52 bf 6d 00 19 bf 19 f1 5a be
       -0.6808375 -0.82176673 -0.59766275 -0.21381034
0000b0 04 42 28 bd d7 e4 90 bf fe 9b a8 be 78 25 53 bf
       -0.041078582 -1.1319836 -0.32931513 -0.8247905
0000c0 97 8d eb 3e b7 65 98 bf 5c 7a f7 3e 85 c3 35 bf
       0.46006462 -1.1906041 0.4833554 -0.71001464
0000d0 92 bd e8 3e 56 1b ee be 76 55 af be 21 ec 5f be
       0.4545713 -0.4650523 -0.3424489 -0.2186742
0000e0 e5 c6 12 bf 83 c8 9a bf 4c 42 a7 be dc 53 23 3f
       -0.5733474 -1.2092441 -0.32667768 0.63799834
0000f0 9a ee 3b 3d f2 c5 c5 be 31 54 a7 be 58 35 59 bf
       0.045881845 -0.38627583 -0.3268142 -0.8484702

fc2.weight f4 [32, 64]
000000 b0 1a 93 3e b9 e6 b2 be 2b 57 37 bf 06 92 f9 3d
       0.28731298 -0.34941652 -0.7161738 0.12186055
000010 05 5d 2a 3e 9d 15 ba 3d 80 5a 3d 3e 98 ac 77 3d
       0.16637047 0.09086154 0.18491554 0.060467333
000020 61 45 37 bf 1b 19 0c be ae 7d 3f 3e 85 a1 32 bf
       -0.7159024 -0.13681452 0.18700287 -0.6977771
000030 14 b9 6f bf b9 ad 87 bf c8 b4 b2 3c dd e1 98 bd
       -0.9364178 -1.0599891 0.021814719 -0.07464955
000040 9d a6 1e be 23 d3 87 bf 39 51 13 be e3 50 33 bf
       -0.15493245 -1.0611309 -0.14386453 -0.700453
000050 04 96 c1 3d ad 39 98 bd 1e 6d 2b 3e 58 0f d7 3d
       0.09452441 -0.07432876 0.16740844 0.105009735
000060 38 52 08 bc f7 4d 94 3d 50 e8 4f be a4 68 67 bb
       -0.008320384 0.07241433 -0.20303464 -0.0035310173
000070 1b b5 44 bf ae b7 5a 3e 7e 30 54 3e d9 44 43 3d
       -0.76838845 0.2135913 0.20721623 0.04767308
000080 3c 13 85 3d 9b c9 15 be 05 79 c8 bd d1 35 f9 be
       0.06497809 -0.14627688 -0.09788708 -0.4867387
000090 ec 15 da be 0c a1 45 bd e8 72 1e bf ac 1c 64 be
       -0.4259485 -0.04824929 -0.61894083 -0.22276562
0000a0 54 26 5a be 29 97 97 bf 24 36 90 be 3e e4 0f be
       -0.21303684 -1.1843005 -0.28166306 -0.14051911
0000b0 ad a2 94 be fc 25 54 be eb e8 01 be 62 05 29 be
       -0.29030362 -0.20717615 -0.12686507 -0.1650596
0000c0 f0 36 48 3d c4 10 ef be ec d5 f6 3d a4 c8 94 3d
       0.048880517 -0.4669248 0.12052521 0.07264832
0000d0 12 0b b8 3c 97 54 8c 3d dc 29 a7 3d a4 03 a2 3d
       0.022466216 0.06852072 0.08162281 0.07910851
0000e0 16 8c 63 bf 37 6a b4 bf d8 99 28 be 6c 0a 80 3d
       -0.8888563 -1.4094914 -0.16464937 0.06251988
0000f0 e6 0a 56 3d ac 8b 73 be e3 30 8f bd a3 e9 5f be
       0.052256487 -0.2378375 -0.06991746 -0.21866469
000100 1d 59 ac bd 3f 83 cb 3c 03 66 3a 3d 03 1c 96 3b
       -0.084154345 0.024842856 0.045507442 0.004580976
000110 1a a9 25 be b6 9b 69 bc e4 bd 1e be 15 43 17 be
       -0.16177788 -0.014258316 -0.15502125 -0.14771684
000120 56 d7 4d bd b6 1a a0 be 86 78 e5 3d c5 87 1c be
       -0.05025419 -0.3127038 0.11204629 -0.15286167
000130 c6 82 77 bd 5e c9 2c bb 3c 6d fc 3d de 48 55 3d
       -0.06042745 -0.0026365141 0.12325522 0.052071445
000140 11 44 dc bd 06 2a 89 bd 64 82 34 bc 11 9e 31 be
       -0.1075517 -0.066974685 -0.011017416 -0.17345454
000150 00 70 a7 3a b5 27 d2 bc d5 48 ef 3d b9 35 38 be
       0.0012774467 -0.0256537 0.116838135 -0.17989244
000160 87 f9 5d be 77 37 10 be a1 e9 8d be 26 17 4a 3d
       -0.21677218 -0.14083658 -0.27717307 0.049338482
000170 2e 10 df bd 63 21 2b 3d 69 d0 a9 bc 7a 62 c1 bc
       -0.10891758 0.041779887 -0.02072926 -0.023606528
000180 36 fd d0 bd e8 47 a2 3d f6 47 e1 bd 2e b6 d2 bd
       -0.10204546 0.07923871 -0.110000536 -0.10288654
000190 bf 0a 1e be c6 27 0c 3e 20 f4 63 be e0 fa 0f be
       -0.15433787 0.13687047 -0.22261095 -0.14060545
0001a0 75 34 22 be 4e 3d a4 bd 11 40 50 bd 4d 15 06 3e
       -0.15840323 -0.080195054 -0.05084235 0.13094063
0001b0 41 50 53 be 34 03 15 be 44 0d 08 be c2 54 3d be
       -0.20636083 -0.14552003 -0.1328631 -0.18489364
0001c0 21 2c 14 be 31 97 bf 3c d8 8d a4 3d 76 af 23 3d
       -0.14469959 0.023387523 0.08034867 0.039962254
0001d0 1e 9d d9 3d da ff 6d bc 5e 29 b6 3d c6 65 9f be
       0.10625671 -0.014526332 0.08894609 -0.31132334
0001e0 f5 43 00 be 6d ad 00 3e f4 dc d8 ba 1f 75 bc 3d
       -0.12525924 0.12566157 -0.0016545341 0.092020266
0001f0 72 c6 46 bd 42 cf 8c be f1 da 2f be 28 be 48 b9
       -0.048529096 -0.27501875 -0.17173363 -0.00019144325
000200 c9 68 c4 bd 62 04 6c 3d a4 16 20 bd f8 e2 09 3f
       -0.09590299 0.057621367 -0.03908409 0.5386195
000210 c8 b0 d4 3d a2 8b ab 3e 6d 45 0e 3f fd f8 12 bf
       0.10385281 0.3350497 0.55574685 -0.57411176
000220 b2 de 89 be d6 a5 ed 3e ca a2 b7 be fe 42 8a 3e
       -0.26927716 0.46415585 -0.35866386 0.27004236
000230 eb 9e a2 be 72 97 cf bd fb cb ec 3e 87 cb 08 bd
       -0.3176187 -0.10136308 0.46249375 -0.033397224
000240 d0 e8 ff bd 1f 18 b1 bb f4 63 f6 be 05 f2 ed bc
       -0.12495577 -0.005404487 -0.48123133 -0.029046068
000250 ee 44 e6 3d 57 04 ed bd c7 d8 8e be 52 d8 e7 bd
       0.11243616 -0.115730934 -0.27899763 -0.11320557
000260 c0 0b b2 3e 22 e4 72 3e 01 3e ec bd c9 4c 72 bc
       0.3477459 0.23719838 -0.11535264 -0.014788815
000270 c2 d9 0f be c0 2e 8f be 3d 96 bc ba 37 11 6e 3d
       -0.14047912 -0.27965355 -0.0014388036 0.058121886
000280 19 81 cd 3d c5 eb 28 be 20 be 4f 3e 90 8b 91 bd
       0.10034389 -0.16496189 0.2028737 -0.071066976
000290 ff 09 4f be 63 d6 4a 3e 3e fd ea bd 5f 02 9f be
       -0.20218657 0.19808345 -0.11474083 -0.31056497
0002a0 02 f2 6f be 70 a9 38 be e4 75 3a 3d a0 2b e7 3e
       -0.23432162 -0.18033385 0.045522586 0.4515047
0002b0 09 94 05 3e e9 d1 48 bd 15 26 7f be e5 c5 0e bf
       0.13044752 -0.04902831 -0.24916871 -0.55770713
0002c0 06 7d 81 be d2 93 43 be de 57 85 3d 8f 55 09 bf
       -0.25290698 -0.19099358 0.065109 -0.5364618
0002d0 1f 3c 97 3d 44 47 89 be 98 33 9c 3c 6b 1e f0 3e
       0.07384514 -0.26812184 0.01906757 0.46898207
0002e0 94 b2 96 be 6e 8b cb 3e 62 5f f4 bc e9 c6 02 be
       -0.2943312 0.39754814 -0.029830638 -0.1277119
0002f0 ef f6 09 be f0 a8 dd 3e bc 6f bf 3d 28 a0 75 bd
       -0.13473104 0.43292952 0.093474835 -0.05996719
000300 ee 46 fc 3e e5 9b 41 3d db 99 45 bd db 93 a4 bd
       0.49272865 0.047267813 -0.04824243 -0.08036014
000310 b8 68 f0 3c dd cd 83 3e cb c0 5b 3c 5f 8a 3f 3e
       0.029346809 0.25743 0.013412665 0.18705128
000320 fd d0 b7 be a3 f7 65 3d 28 d7 5e 3e 91 3b a0 3d
       -0.35901633 0.056144368 0.21761763 0.078238614
000330 e1 98 a0 be ba 2d f0 bd 9a 63 34 bc b3 e4 0b 3c
       -0.31366637 -0.11727472 -0.011010075 0.008538413
000340 87 a0 ef bd 7c 74 e8 3c fd f9 32 3c 35 7f 94 be
       -0.1170054 0.028375857 0.01092386 -0.290033
000350 20 09 d3 3c cc 09 07 3e 6b ad 79 3e 27 de b3 3e
       0.025761187 0.13187331 0.2438256 0.35130426
000360 a7 a3 a7 bb b3 4a 5c 3d 12 4d 2c 3d 41 22 24 bd
       -0.0051159444 0.053782176 0.042065687 -0.04007173
000370 c7 38 4f be 96 e2 81 3e c3 96 9e 3e bf 46 b0 3e
       -0.20236503 0.25368184 0.30974397 0.34428975
000380 e1 3a 82 3e b5 f0 07 be e4 11 a4 3c 65 58 e7 bd
       0.25435546 -0.13275416 0.020028062 -0.11296157
000390 27 d3 4e be ba 0b 2f bc 70 6d 36 3e 40 c1 54 bd
       -0.20197736 -0.010683948 0.17815185 -0.05194211
0003a0 26 7b 3c be 4d a8 0a be 14 66 96 3d 89 d1 e1 3c
       -0.18406352 -0.13540764 0.073436886 0.027565734
0003b0 c7 65 05 3e 54 fc 51 be d4 7a 3e 3e b8 3a 78 bc
       0.13027106 -0.20506412 0.18601543 -0.015150718
0003c0 e4 08 4a 3e 47 6a f1 be a3 38 84 3e 00 cf b6 3d
       0.19729954 -0.47151396 0.2582446 0.08926201
0003d0 bc fc ce 3e 06 16 d9 3d e6 3a c3 bb 94 54 e1 3d
       0.40427196 0.10599904 -0.005957949 0.1100246
0003e0 48 20 ff bd 8f 67 52 bf 4f 22 1b 3d 31 2d 9d 3e
       -0.12457329 -0.8218927 0.037874516 0.3069854
0003f0 89 bb 71 3e 08 16 3e bc 26 f8 a7 bc fe d1 9c 3c
       0.23606695 -0.011601932 -0.020504069 0.0191431

fc2.bias f4 [32]
000000 76 2f a9 3e 69 2a 07 be f4 1d 93 3d ab cc 0f 3f
       0.33044022 -0.13199772 0.071834475 0.56171674
000010 d2 fb 9c 3e 5b 76 4c bd ce d7 02 3f 62 f0 da 3c
       0.30660874 -0.04991756 0.5111054 0.026725952
000020 cc 16 9d 3e 83 f6 85 bd e9 5f 9f bc 16 8b aa 3c
       0.30681455 -0.06541159 -0.019454913 0.020818274
000030 19 96 32 3f f7 0b 0b be fe 47 a1 bd 80 a3 30 3f
       0.6976028 -0.13578783 -0.078750595 0.6899948
000040 f7 78 b4 3e 0f bb a4 be 2b f9 41 be 10 8e 17 3d
       0.3524854 -0.32173964 -0.18942706 0.037000716
000050 93 e4 a4 bd 02 9f 26 be 55 ff e0 bd fa f1 28 3f
       -0.080514096 -0.16271594 -0.10986201 0.65994227
000060 b8 e4 1e 3f 66 48 c5 3d 08 f1 97 3c ca 56 c0 3e
       0.6206775 0.096329495 0.01854755 0.37566215
000070 4b eb 5f be 90 79 60 3e d0 5b 0e be 09 25 1c be
       -0.21867101 0.21921372 -0.13902211 -0.15248503

fc3.weight f4 [16, 32]
000000 8b f5 00 be 6d 55 6f 3d 4c 91 80 bd 0f 61 10 bc
       -0.12593667 0.058431078 -0.06277713 -0.008812203
000010 63 3a dd bd c9 05 d9 3d 8a 39 d5 3d b4 6e 5b ba
       -0.10802152 0.105968066 0.10411365 -0.0008370683
000020 4f 78 f3 bd 35 2d f3 bd 42 27 10 be aa 42 2d be
       -0.118881814 -0.11873857 -0.14077476 -0.16919962
000030 3f b8 f0 bd b5 88 34 be 37 85 28 3e 4c ba 7a bd
       -0.11753892 -0.17630275 0.16457067 -0.061212823
000040 2e 91 9d be 86 e5 b5 3d 3d 3b ce 3c ef 5d 4b bd
       -0.30774826 0.08881669 0.025174731 -0.04965013
000050 6a 00 7a bd 3a e0 5f 3e d4 91 d9 3d 5f 1e fa 3b
       -0.06103555 0.2186288 0.10623518 0.007633015
000060 ce e7 69 be 43 04 cd bd 30 16 1b 3d ca 3a 82 bc
       -0.22842333 -0.100105785 0.037862957 -0.015897173
000070 4e cd a8 3c 91 fc c5 bd 6c 68 9d 3d 0f 8a 12 be
       0.02060571 -0.09667314 0.076859325 -0.14310478
000080 95 45 24 3e f2 70 3f be bd 22 e0 bc 22 4a 0a 3e
       0.16042168 -0.18695429 -0.027360315 0.13504842
000090 81 57 0f 3f 50 38 d1 bd 48 15 f8 be ea dd 2e be
       0.55992895 -0.10215819 -0.48453736 -0.17076841
0000a0 d2 79 29 3c 4d 32 d2 bd 11 1a 4f 3b 39 40 8d be
       0.010343986 -0.102635 0.003160123 -0.2758806
0000b0 79 f0 34 3d 57 98 4a 3d 22 57 15 bd 95 3a 93 3e
       0.044174645 0.04946169 -0.03646005 0.28755632
0000c0 c4 5f a8 3c b6 07 06 3e 36 32 51 3d 49 81 95 3d
       0.020553477 0.13088879 0.051073276 0.0730005
0000d0 0d 59 23 be 02 0f 0c 3e d8 59 f7 3d 43 c6 dd 3d
       -0.15951939 0.136776 0.12077683 0.10828831
0000e0 3e e3 79 3d 8a cc e9 3d c8 43 1d be 13 04 bc bd
       0.06100773 0.11415966 -0.15357888 -0.091804646
0000f0 9a a2 b2 bd 7c ec e7 3e 84 bc 82 3b d4 29 82 3d
       -0.0872242 0.4529761 0.003989758 0.06355634
000100 dd 0b 69 3e 68 43 ff bd 56 5d a0 bf 6e 75 5c be
       0.22758432 -0.124640286 -1.2528484 -0.21529171
000110 71 d3 14 3f e4 c9 c7 bc ae 0c a0 be 58 86 91 3d
       0.58135134 -0.024388261 -0.31259674 0.07105702
000120 3e 80 32 3d d8 5d a3 3d e6 1e 90 bd 63 0d 5a bf
       0.043579333 0.07976884 -0.070371434 -0.85176677
000130 37 62 c5 3d 24 5e 59 be ec c3 16 3d ff d4 9d bd
       0.096378736 -0.21227318 0.03680794 -0.077066414
000140 97 0a e9 3b 01 95 de bd 3c a3 96 bb a4 e2 2a 3e
       0.007111858 -0.10868264 -0.004597096 0.16688019
000150 0d b9 94 bd 84 7d 7a be 04 2e 4b bd 67 b6 31 3e
       -0.07261858 -0.24461943 -0.04960443 0.17354737
000160 91 c2 95 bb 32 1b a6 bd f7 fb 36 be a9 ba f1 bd
       -0.0045703133 -0.08110656 -0.17869554 -0.11803181
000170 18 f5 d9 bd e3 eb 5a 3e 5b 8b dc 3d a9 7e 2b be
       -0.10642451 0.21379046 0.107687674 -0.16747536
000180 ee 65 0c 3e 8a 69 b6 3d a8 c8 85 bd 70 2c 86 3d
       0.13710758 0.08906849 -0.06532413 0.065514445
000190 bd bb 35 3f 16 49 ef 3d 66 f5 fe be 4b 4d c7 bb
       0.7098959 0.11683862 -0.497966 -0.006082212
0001a0 a8 f8 3e 3e c2 b4 23 3e 2d 8d 66 3d 0e 77 0c be
       0.18649542 0.15986922 0.05628698 -0.13717291
0001b0 01 2d 6d 3e 62 a6 7f 3d 5a 76 9c bd 97 2b 95 3e
       0.23161699 0.062414534 -0.07639761 0.2913482
0001c0 60 2d d7 3d 05 5d 1b 3e ce 1b 8e bd 7e f5 b7 bd
       0.105067015 0.15172203 -0.06938897 -0.08982371
0001d0 7a 9a 91 3d ca ad 0e bb e6 4b 19 bc 9d 0f 3d 3e
       0.07109542 -0.0021771067 -0.0093564745 0.18462987
0001e0 a6 7f b3 3d 15 7e 6c 3d ac 47 5e 3c 76 a4 4f 3e
       0.087645814 0.05773743 0.013566893 0.2027758
0001f0 b3 5d a0 bd 67 1c a5 3e df 24 dd bd ee 2c 1b be
       -0.07830372 0.32248232 -0.10798048 -0.15153858
000200 bf 33 63 bd 3c 0f 79 bd 8a ea a6 3c b4 a8 c9 be
       -0.05546927 -0.060805544 0.020375509 -0.39386523
000210 59 d5 13 be eb 0a 3b bd 72 40 8e bd 13 d4 6e bd
       -0.14436854 -0.04566471 -0.06945886 -0.05830772
000220 3c dc 68 be cf 02 29 3e 27 54 1f 3e 6f 15 a3 bd
       -0.22740263 0.16504978 0.15559445 -0.079630725
000230 07 73 88 bc 10 3a b9 bd d2 65 02 be 59 e8 cd be
       -0.016656412 -0.09044278 -0.12734154 -0.4021633
000240 df e8 86 be 66 61 90 be a1 6a 2b bd ef f3 cc bd
       -0.26349542 -0.2819931 -0.041849736 -0.10007464
000250 86 33 c3 bd 7c 11 26 3e de de 86 bd 6c bf 89 bd
       -0.09531312 0.16217607 -0.06585477 -0.06725964
000260 cc b0 94 3b 6e ff 92 bd 37 d3 2b be 2a ef 64 3d
       0.0045376774 -0.071776256 -0.16779791 0.055892147
000270 e1 14 2a 3e 9c 93 82 3e e4 f4 32 3e 7c 2a 0c be
       0.16609527 0.25503242 0.17476231 -0.13688082
000280 2d 15 bf 3e 7b ba 6d bd 8e a1 b9 bd 80 4d 14 3e
       0.37320843 -0.05803917 -0.09064017 0.14482689
000290 d4 67 26 3f 6a 1d e7 bb fc ac 1b bf 0c fa 09 be
       0.6500218 -0.007053067 -0.6081083 -0.13474292
0002a0 6e b7 8d 3e b5 3f 19 3e 80 6b 0e 3c 88 18 e6 3b
       0.27679008 0.14965709 0.008692622 0.0070219673
0002b0 9e c3 b3 3e 1e bd d6 bc 8e 4e 8e bc 51 65 36 3e
       0.35110182 -0.026213225 -0.017371442 0.17812087
0002c0 ca 91 64 3e d7 3f d5 bd 98 40 08 3d 56 f4 a9 bd
       0.22321239 -0.10412567 0.033264726 -0.082985565
0002d0 43 dc ea 3d 6d df d7 bd 84 06 80 bd ae 1e 7f 3e
       0.11467793 -0.10540662 -0.06251243 0.24914047
0002e0 40 0d 60 3e 48 60 a5 bd 6e b6 df 3d 30 94 1d 3e
       0.21880054 -0.08075005 0.109234676 0.1538856
0002f0 26 98 04 bd 3d 98 91 3e 65 28 df 3d 15 2c c8 3d
       -0.032371663 0.2843646 0.108963765 0.09774033
000300 75 53 9c 3e 0f 9a 22 3d 1e f7 14 3f d9 66 a1 bd
       0.30532423 0.039697703 0.5818957 -0.07880945
000310 2a 92 96 3e 65 77 61 3e e9 72 ca be b4 92 8a 3c
       0.2940839 0.22018202 -0.39540794 0.016915657
000320 75 5e 8d bd 64 82 93 3d 17 e3 30 be b3 27 03 be
       -0.06902782 0.072026044 -0.17274128 -0.12808113
000330 da 62 d9 3d dd ac cf bd 20 e9 af 3c a9 11 4d bd
       0.106145576 -0.10140393 0.021473467 -0.05006567
000340 92 ce e0 bb f1 91 8d bd 86 53 65 be 1c 55 1b be
       -0.0068605626 -0.06912602 -0.22395143 -0.15169185
000350 88 7a 41 3d 68 69 c6 3d 8e e1 b0 bd 40 c9 13 be
       0.047235996 0.096880734 -0.08636771 -0.1443224
000360 9c 13 fb bd 6d 08 03 be 83 c4 39 3d d0 00 e9 bd
       -0.122595996 -0.12796183 0.045353424 -0.11377108
000370 4c 56 11 bf 5c 09 00 3f 2b 9b b6 3b 8b bc 2a 3b
       -0.56772304 0.5001428 0.0055726967 0.0026052322
000380 ea c4 83 3e 90 32 24 be 8a 65 01 3d 87 9f 2f be
       0.2573617 -0.16034913 0.031590976 -0.17150699
000390 2a 5e 67 3e 2a 23 9c 3d d9 8d d9 3d b7 ea 1b 3e
       0.22594514 0.076238945 0.106227584 0.15226255
0003a0 67 8d f0 3d e5 99 c1 3d f7 7c f5 3d 44 cc 06 bd
       0.1174572 0.09453181 0.11986726 -0.032909647
0003b0 59 3d 1d 3d aa c3 fc bd 47 be 39 be 36 0e 5a be
       0.038388584 -0.123420075 -0.18138991 -0.21294484
0003c0 f2 fa 85 bd 28 df 08 bd 80 1b ec bc b0 0f a2 3c
       -0.06542005 -0.033415943 -0.028821707 0.019782871
0003d0 8a db d6 3d 38 37 a0 3d 21 08 8a 3d 07 c2 b7 bd
       0.104910925 0.07823032 0.06739832 -0.08972555
0003e0 b3 e8 9c 3c af 60 91 bd be 5f 28 be 99 a5 76 be
       0.019153928 -0.07098519 -0.16442773 -0.24086608
0003f0 2f 5a cf bd fd ff b3 bd 52 9e 5c bd cb 31 16 3e
       -0.10124623 -0.0878906 -0.053861924 0.14667432

fc3.bias f4 [16]
000000 8a 20 a8 bd d3 bd 04 3f c3 29 d3 3e 93 63 41 3f
       -0.08209331 0.5185215 0.412428 0.75542563
000010 a5 08 ab bd 1d 45 53 3f 5f ee 1c 3e fc f4 51 be
       -0.08351258 0.82527333 0.15325306 -0.2050361
000020 5b d1 3b 3e 03 c4 44 bd ed c7 84 be 93 c3 19 3f
       0.18341582 -0.048038494 -0.2593378 0.6006405
000030 47 a2 ae be a0 d3 5d 3f 60 ed 33 3f 56 b9 eb bd
       -0.34108183 0.8665104 0.7028408 -0.115099594

fc_value.weight f4 [1, 16]
000000 bf 8a 1f be 5e 5b ff 3d e0 ed 9f 3d 43 08 9a 3e
       -0.15580271 0.12468599 0.07809043 0.30084428
000010 a7 f7 bf bd 20 a2 b5 3e 78 d4 5c bb 2d 1a 00 be
       -0.09373408 0.35475254 -0.0033695977 -0.12509985
000020 7a c0 35 ba cc 39 3e 3e b4 61 cc 3b 79 b2 94 3e
       -0.00069332833 0.18576735 0.006237233 0.29042414
000030 ee 2d 01 be c1 b4 cb 3e bb 5d 32 3e 3e f8 47 3d
       -0.12615177 0.39786342 0.17418568 0.048820727
