2_수학으로 풀어보는 강화학습 원리와 알고리즘/rackhun/3_PPO_pendulum/saved_model/PPO_ACTOR.pth (torch_old, 38768 bytes, 24 tensors)

fc1.weight f4 [64, 3]
000000 0a 66 26 bf dd 7a 07 3f ca a9 03 3f a3 3d 99 bd
       -0.6499945 0.5292185 0.5143095 -0.074824594
000010 9d 27 36 be 7f e7 bc 3e 9b 9c 25 bf 91 86 79 3e
       -0.17788549 0.36895368 -0.64692086 0.2436774
000020 08 01 ac 3e 81 1e c2 be cd dc 36 bf f1 ff ce be
       0.33594537 -0.37913898 -0.71430665 -0.40429643
000030 12 26 7d be b2 9e 5b 3e d5 bb dd be 8e 8b b2 be
       -0.24721554 0.21447256 -0.43307367 -0.34872097
000040 2e 99 11 3f c5 9d e6 3e d0 85 f1 be 0f 71 83 be
       0.5687436 0.45042244 -0.47172403 -0.25672194
000050 bb b4 3b be dc 20 dc 3e ba 9c 4a be 36 16 dd 3e
       -0.18330662 0.4299382 -0.19786349 0.43181008
000060 e3 fd 0e 3e e6 d7 21 3e dd c4 ba 3d 30 ef 1c 3f
       0.13964038 0.15805015 0.0911958 0.6130247
000070 a1 de 22 3e a1 66 0b bf 06 75 af 3d b1 64 14 bf
       0.15905239 -0.54453474 0.08567242 -0.5796614
000080 4a 20 90 3e 96 a1 72 be c7 fa a1 3e 9e 3a 0f bf
       0.28149635 -0.23694453 0.3163664 -0.5594882
000090 ef 84 b3 3d cf de 2a bf 41 d2 78 3d eb aa f7 3d
       0.087655894 -0.6674623 0.06074739 0.12093147
0000a0 c9 3c f8 3d 4e b0 a6 be 41 84 50 bf 21 02 90 3e
       0.12120969 -0.32556385 -0.81451803 0.28126624
0000b0 d4 00 ec be 0f 91 fc 3e 3d 2e 61 3d 51 e1 ff 3e
       -0.46094382 0.4932942 0.054975737 0.4997659
0000c0 0c 4e f2 3d 18 0c 46 3f 78 7f 8e 3e a1 08 2d 3f
       0.118312925 0.77362204 0.27831626 0.6759129
0000d0 31 87 db be a8 d7 7c be 64 50 0f bf 80 07 d4 be
       -0.4287658 -0.24691641 -0.5598204 -0.41411972
0000e0 c3 7e c9 3e b1 bf e8 be 3a ed b5 3d df 26 0f bf
       0.39354524 -0.4545875 0.08883138 -0.5591869
0000f0 e3 88 d9 be 7e 55 13 bf bb 91 a4 3e bc 41 b8 be
       -0.4248725 -0.57552326 0.32142434 -0.3598765
000100 2b ed 1f bf f0 a1 93 be 34 81 22 bf 58 f7 f4 be
       -0.62471265 -0.28834486 -0.634784 -0.47844958
000110 b5 18 45 3e 20 33 c5 be 7c 27 1a bf 3b 59 4a 3e
       0.19247706 -0.38515568 -0.602165 0.19760601
000120 2c c9 0d bf 35 b8 1d 3e 58 70 e8 3e 37 8d 2b 3f
       -0.5538509 0.154023 0.4539821 0.6701235
000130 ce 83 57 3e 91 32 00 3f 2a d3 10 3f fb 43 b4 3e
       0.21046373 0.5007716 0.5657221 0.35208115
000140 69 9d 2c 3e 21 32 f6 3e ca f0 ae 3e 27 8c bc be
       0.16856922 0.4808512 0.34168082 -0.36825678
000150 77 03 dd be c3 64 48 bf b7 5f 2e be a7 11 c6 be
       -0.43166706 -0.7827875 -0.170287 -0.38685343
000160 df 9b 92 3e 1e 47 0a 3f 4b de da 3e 51 91 fb 3e
       0.28634545 0.54014766 0.4274772 0.49134305
000170 23 95 92 be 8b f2 f0 be b8 1e 44 be 77 75 55 be
       -0.28629407 -0.47060046 -0.19152343 -0.2084559
000180 6d 18 6a bd de b6 03 bf 4d 62 7a be 33 00 4d bf
       -0.0571522 -0.5145091 -0.24451561 -0.8007843
000190 be 21 74 3e 91 74 e4 be bc 15 e7 be 81 22 16 3e
       0.23840997 -0.44620183 -0.4513377 0.146616
0001a0 1b ae 63 3d 89 bb ae 3e 59 3c 02 3f be 5a e8 3d
       0.05558596 0.34127453 0.50873333 0.11345433
0001b0 48 f7 13 3e 7b bc b2 be dc 87 eb be 06 41 23 3f
       0.14449799 -0.34909424 -0.4600209 0.6377109
0001c0 f9 b6 19 bf 56 d5 1b be 57 6a 87 3e 99 e0 db be
       -0.6004482 -0.152181 0.26448318 -0.42944792
0001d0 9e 49 e2 be 21 1e 00 3f 76 75 ff be 91 18 91 be
       -0.4419679 0.50045973 -0.49894303 -0.28339055
0001e0 c1 88 1b bf 2b 65 c9 bd 6d c7 87 3e 1d 87 5b bf
       -0.60755545 -0.098337494 0.26519337 -0.8575304
0001f0 7d eb ba 3e 24 8f 71 be 33 5d b7 be c2 53 17 3e
       0.36507788 -0.2358976 -0.35813293 0.14778045
000200 aa 13 02 3f fb 63 cf be 86 61 0b bf 65 b9 de 3d
       0.50811255 -0.40505967 -0.54445684 0.10875205
000210 86 83 b7 3e 96 da c2 be 8a e4 31 be 1e 2b 82 3e
       0.35842532 -0.38057393 -0.17372337 0.2542352
000220 b8 30 ab 3e 3e 95 43 3e 0f d6 45 3d e4 1f ba 3e
       0.33435607 0.190999 0.048299845 0.36352456
000230 0f b2 07 bf 5e 79 82 3e 58 bd 10 bf 36 f2 eb 3e
       -0.5300607 0.2548322 -0.56538916 0.4608323
000240 69 32 25 3f b1 6d 05 be 72 9a 74 be e5 04 be 3e
       0.64530045 -0.13030125 -0.23887041 0.3711311
000250 cd 15 5f be 75 27 8d be 14 f5 85 3e 03 5c 2f bf
       -0.2178566 -0.27569166 0.26163542 -0.68499774
000260 fd 99 c8 be 25 27 ff 3e e5 4f ec 3e 22 75 2b 3d
       -0.39179984 0.49834552 0.46154705 0.041859753
000270 18 ae 5d bf 87 97 aa 3e 52 fb 51 3e f9 75 07 bf
       -0.8659377 0.3331873 0.20506027 -0.52914387
000280 39 a4 15 3f 7a 5f df 3e 9d 3f 20 3f 9f 16 2d bf
       0.5845371 0.4362753 0.62597066 -0.6761264
000290 d0 ea 20 be cd f7 31 be 70 83 ba be 56 90 aa 3e
       -0.15714574 -0.17379685 -0.36428404 0.33313245
0002a0 8f 71 e4 3e 3d 65 e8 3e 14 53 8e 3e 34 ce b4 be
       0.44617888 0.4538974 0.2779776 -0.3531357
0002b0 e5 54 96 be cc 3c bd be 9b f4 3a bf 34 f3 56 3e
       -0.29361644 -0.36960447 -0.7302949 0.20991212
0002c0 d6 9b 4b 3e b3 58 e2 3e 17 71 94 be a8 ff fe 3e
       0.19883665 0.44208297 -0.2899253 0.49804425
0002d0 21 47 70 3c e3 72 40 3f 6f 1c f8 be d6 18 26 bf
       0.014665396 0.75175303 -0.48459193 -0.64881647
0002e0 48 fb 3f bd c0 f4 85 3e db 96 83 3e fd e3 bf 3e
       -0.0468705 0.26163292 0.2570103 0.3747863
0002f0 35 29 18 3e 58 be e8 be a8 26 ea 3e eb 02 e0 be
       0.14859469 -0.4545772 0.45732617 -0.43752226

fc1.bias f4 [64]
000000 a9 70 98 be 48 05 ca bd 0c d5 98 3e 38 e1 b0 be
       -0.29773453 -0.098642886 0.29850042 -0.34546828
000010 c1 12 0c bf 58 25 c4 3e 63 ef fd be 0c cc 0a 3e
       -0.54716116 0.3830974 -0.495967 0.135544
000020 b5 0a fd bd b1 26 b7 be 92 88 63 3d 7e 16 bb 3e
       -0.12355558 -0.35771707 0.055550165 0.36540598
000030 7d 9d 08 3e 8b db dc be 60 ae 26 be 5f a1 0f 3c
       0.13341327 -0.43136248 -0.16277456 0.008766501
000040 dd 8d f6 3e bd 02 d2 3e c6 f8 d1 bd 96 5a 16 3f
       0.48155108 0.41017714 -0.10252528 0.58731973
000050 60 78 0b 3f 64 b1 a7 bc 84 cf 09 bf 36 58 e5 3e
       0.5448055 -0.020470329 -0.5383227 0.44793862
000060 a4 d1 93 3e b2 19 a4 3e 72 47 7d be 3a 43 15 bf
       0.2887088 0.32050854 -0.24734285 -0.58305705
000070 95 44 05 3f 66 71 49 3e 2f 65 8d 3e d0 09 0c bf
       0.5205777 0.19672164 0.2761626 -0.5470247
000080 b3 7f 32 3e be 82 08 3f 46 64 0c 3f bc 8f d7 bd
       0.17431526 0.53324497 0.54840505 -0.10525462
000090 9e 1f e0 be c9 14 2a be b8 1a 3d 3e e6 b6 e4 be
       -0.43774122 -0.16609491 0.18467224 -0.4467079
0000a0 2f 35 c6 3e 83 d0 e8 bd 6e 49 47 3e 69 a0 1e 3e
       0.3871245 -0.113678955 0.19461605 0.15490879
0000b0 89 56 07 3f 95 c0 da 3e 62 9a 62 bd 85 01 05 bf
       0.5286642 0.42725053 -0.055323012 -0.51955444
0000c0 af fd 93 be 64 03 92 3e 5c 2d 8e bd 52 ba 55 3d
       -0.28904483 0.28518212 -0.06942245 0.052179642
0000d0 87 f2 3e 3d d4 a8 20 3e 29 96 81 be be c1 5f bd
       0.04661801 0.15689403 -0.25309876 -0.054628126
0000e0 a4 9b 98 be 10 bb d5 3e cb eb e3 be 92 aa ba 3e
       -0.29806244 0.4174428 -0.44515833 0.3645826
0000f0 52 5f e7 3d d7 58 0e 3e 15 e8 22 be 1c 81 0c 3f
       0.11297478 0.13901077 -0.15908845 0.54884505

fc2.weight f4 [32, 64]
000000 e3 ab e7 3d 32 f8 9e bd 5b c3 aa 3d c3 05 16 3e
       0.11312082 -0.07762183 0.08338042 0.14650635
000010 75 54 ab 3c 12 98 03 3e 55 62 d7 bd c5 38 4c 3d
       0.020914296 0.12850979 -0.10516802 0.049858827
000020 d3 07 92 3a 89 b8 d3 3d f2 50 35 3d 82 08 20 3e
       0.0011141248 0.10337932 0.04426665 0.15628245
000030 9b 91 58 ba 69 ae 43 3e 50 21 cb 3d c4 a3 93 3c
       -0.0008261443 0.19109501 0.09918463 0.018022425
000040 3c b0 d0 bd b2 5c 86 bd 34 44 22 3e 2f f7 23 3c
       -0.10189864 -0.06560649 0.1584633 0.010007664
000050 eb 43 1a bb c2 bc 67 3e 81 36 64 3d 12 75 73 bd
       -0.0023539017 0.22630599 0.05571604 -0.05943782
000060 5a a7 10 3e 14 18 90 bb ad 90 89 bd 1d ef c0 3d
       0.1412634 -0.0043974016 -0.06717048 0.09420607
000070 ea 83 91 3d a2 40 31 3e 74 77 ae 39 79 7c 1f 3e
       0.07105239 0.17309812 0.00033276866 0.15574826
000080 16 17 25 3e 48 cf 23 3c fd 17 5a 3d 61 87 0b bd
       0.16122088 0.00999815 0.053245533 -0.034064654
000090 ac 4e 2f 3e 8b 9b 07 3e 4f aa f3 3d 50 6d 2a 3c
       0.17119855 0.13242929 0.11897718 0.010402039
0000a0 07 6f 18 3e ad e7 15 bd 84 d6 e7 3d 70 26 dc 3d
       0.14886104 -0.036597896 0.113202125 0.10749519
0000b0 b5 7c fc 3c 67 ad cd bc 9f 01 6d 3d 33 4c 83 3b
       0.030821184 -0.025107099 0.057862874 0.0040068864
0000c0 78 15 63 bd 16 3d 10 3e 1c 7c 32 3e 96 fd ea bc
       -0.055440396 0.14085802 0.17430156 -0.028685372
0000d0 a7 6f 4d 3d 17 45 69 3e b1 5f f4 3d 87 f9 a9 3d
       0.050155308 0.22780262 0.11932314 0.08299547
0000e0 76 50 92 3d dc 9f f7 bc 59 c0 28 3e c7 f3 8b bd
       0.07144253 -0.030227594 0.16479625 -0.06833606
0000f0 9d 99 cd 3d 77 30 65 bc 39 ab e9 3c f3 47 02 bd
       0.10039065 -0.013988606 0.028524028 -0.031806897
000100 3b 60 15 bd d0 69 c4 3d f7 73 90 3d 69 b5 42 3e
       -0.036468726 0.09590495 0.070533685 0.19014515
000110 bd 7e 88 3c 69 21 f5 3d fa e0 0f 3e 85 09 ec 3c
       0.016661996 0.11969263 0.14050665 0.028813133
000120 09 1c 7a 3d 91 c4 0b be 00 49 12 be 9c a4 13 3e
       0.061061893 -0.13649203 -0.1428566 0.14418262
000130 43 48 a4 bc 2c e4 a8 bc f9 f6 b7 3d ad 1d 27 3d
       -0.020053988 -0.020616613 0.08982653 0.040799785
000140 e6 5c 85 3d 84 ac 54 3c 81 57 b8 bd 59 07 04 3d
       0.065118596 0.012980584 -0.09001065 0.03223357
000150 e4 ab 50 bc 84 5f 1c 3e 43 8c dd bd 85 49 c3 3d
       -0.012736294 0.15270811 -0.108177684 0.09535507
000160 50 38 3a bd d0 ba 01 3e b5 ae f9 3d 68 dd 03 bd
       -0.04546386 0.1266892 0.12191526 -0.03219357
000170 a2 ef d0 3c c7 05 33 ba 28 04 15 bd 22 20 45 3e
       0.02550489 -0.0006829169 -0.036380917 0.19250539
000180 f3 f8 af bd 3a c2 65 3e 0d e4 3a 3e dc 60 75 3e
       -0.08592405 0.22437373 0.18251057 0.2396273
000190 36 4b de bd 58 ec 60 be 04 de 99 3d 61 5e 63 be
       -0.10854189 -0.21965158 0.07513049 -0.22203971
0001a0 2b 76 97 3d d9 a3 81 3e 4e 5f 64 bc 9e b0 c0 3c
       0.073955856 0.25320318 -0.013938738 0.023521718
0001b0 07 87 aa 3d f6 95 b9 3d 40 cd 08 3d 4c 18 c4 3c
       0.08326536 0.09061806 0.033398867 0.023937367
0001c0 45 86 2f be a9 17 aa bd 23 c7 39 bd 39 38 6d 3c
       -0.17141064 -0.08305294 -0.045355927 0.014478737
0001d0 db cf 26 bd 69 fa 27 3d 3b 7f 3c be 5b 81 d5 bd
       -0.04072557 0.041010294 -0.1840791 -0.10425063
0001e0 72 af fb 3d bf c5 e0 3d c2 5f 44 be 4a 60 c8 bd
       0.12289323 0.10975217 -0.19177154 -0.09783991
0001f0 52 71 25 3e a3 cd 95 bd 41 3b 8a 3e df a9 58 3e
       0.1615651 -0.07314613 0.26998332 0.2115855
000200 f4 5b 4b 3e 58 8f c6 3d 7d 3e 6d 3d f4 d6 86 3e
       0.19859296 0.096953094 0.05792092 0.2633587
000210 a1 e8 a6 ba 88 05 0d bd b9 76 22 3e fa 36 c1 3d
       -0.0012734124 -0.034429103 0.15865602 0.09434314
000220 7c 8b 73 bd 03 81 cd bd 14 df 62 3d 77 d9 8c bd
       -0.059459195 -0.10034373 0.055388525 -0.068774156
000230 5b 10 11 3e 9b 3e 96 bd c9 38 aa 3d 6b aa 7d bc
       0.14166395 -0.0733616 0.08311612 -0.015482525
000240 fd b5 9d bd 49 17 10 bd 1a 56 db 3d 30 e1 64 3c
       -0.07700727 -0.035178456 0.10709782 0.0139697045
000250 fa 47 3c bd 76 c1 a6 3d b7 e1 11 bb 71 9d 55 3d
       -0.04596708 0.081423685 -0.002225978 0.0521521
000260 5a fb 82 3d ff 56 5f 3d e2 b0 b3 bd 48 25 e7 3c
       0.06395598 0.054526325 -0.08773972 0.02821602
000270 58 a8 5c 3e 6a 1e 39 3e 2b dd e5 3d ab ab e3 3c
       0.21548593 0.18078008 0.11223825 0.027791819
000280 b9 8b eb 3d 97 cd 09 3e 24 f7 03 3e 3e 67 ea bd
       0.11501259 0.13457333 0.12887245 -0.11445473
000290 46 f8 20 3d 5a 4f e8 3d f2 9d 19 3e 8f 06 54 3d
       0.039299272 0.1134326 0.15001658 0.051764067
0002a0 df be 47 3e 2f 3d 65 3e 0b 9c f9 3c 65 f5 3f 3d
       0.19506405 0.22386621 0.030469915 0.046864886
0002b0 9e bb 75 3d ea 49 0d bd 44 31 58 bd fb 47 de 3d
       0.05999338 -0.034494318 -0.05278136 0.10853573
0002c0 bc 5e de bd 10 e5 05 bd e2 e5 fe 3d f4 c2 5a bd
       -0.10857913 -0.032689154 0.124461904 -0.053408578
0002d0 9b 0c 40 3e 79 a5 3d 3e 38 a7 e4 3d 73 94 13 3e
       0.18754809 0.18520154 0.11164707 0.14412098
0002e0 eb af a7 bc 2e 5d 28 3e 4a ad cc 3b 86 9a cd bd
       -0.020469626 0.16441795 0.0062462436 -0.10039239
0002f0 e9 58 bc 3d 5e f0 73 3e 54 66 11 be 11 cc bd 3d
       0.09196646 0.23822162 -0.14199191 0.09267438
000300 00 65 1b 3c a6 de e7 3d 72 3b c4 bd 89 09 07 be
       0.0094845295 0.11321764 -0.09581651 -0.13187231
000310 e4 71 e1 bd 15 7b 9f bd 6a 48 e6 bd 26 a0 90 3d
       -0.11008051 -0.07787148 -0.11244281 0.07061796
000320 62 27 ef 3d 8a 75 35 bd 8d d3 fa ba 8e 82 c7 3d
       0.116774336 -0.044301547 -0.0019136533 0.09741698
000330 17 a5 59 bd 9d fa 8f 3d 9b 93 27 be de b2 e3 bc
       -0.053135958 0.070302226 -0.16364901 -0.027795251
000340 49 30 9b 3c dd 96 f8 3b 7f fd e3 3d d4 55 d5 bd
       0.018943923 0.0075863437 0.11132335 -0.10416761
000350 02 4c ab bd c1 d5 f4 bc d6 16 b9 bd 50 45 07 be
       -0.08364107 -0.029887082 -0.09037559 -0.13210034
000360 48 7c ce 3d 6c 30 84 3d 03 8e 15 3e 75 63 c2 3c
       0.100822985 0.06454548 0.14604954 0.023729065
000370 aa 0e 23 be ae c8 60 bd 94 93 65 bb 49 82 b8 bd
       -0.15923563 -0.054878883 -0.003503059 -0.09009225
000380 d8 e0 49 be 2e a7 a4 3d 68 41 04 be e2 ef 95 3d
       -0.19714677 0.080396995 -0.12915576 0.07321145
000390 1e c4 ac 3c bf 0f 44 3d ef 14 b0 bb eb ce 96 bd
       0.02108961 0.04786658 -0.005373589 -0.07363685
0003a0 17 4a 65 bd 17 2d f3 3c 26 3f 02 3e 89 f2 d3 ba
       -0.05597886 0.029684586 0.12719402 -0.0016170304
0003b0 82 91 cb 3d 35 52 ac bc 2a 2a e4 3d 79 87 91 3d
       0.09939863 -0.021035293 0.11140855 0.071059175
0003c0 c4 6f 20 3d a4 0d b4 bd 15 84 13 be ba e6 14 bd
       0.039169088 -0.08791664 -0.14405854 -0.03635285
0003d0 3f f6 d4 bd 90 3c 9a bb ea a9 fc bc 52 f8 60 bc
       -0.1039853 -0.0047069266 -0.03084274 -0.013731079
0003e0 74 1d aa 3d 7e 2c 03 bc 7e 8b 0e be e9 aa b5 3d
       0.08306399 -0.008006213 -0.139204 0.08870489
0003f0 dc 57 a7 3d 2b d8 5d bd 03 e7 bd 3d 94 5f df 3d
       0.08171055 -0.054161232 0.092725776 0.10906902

fc2.bias f4 [32]
000000 bc 7a b9 3d 7b 95 97 3d 82 fb 9c 3d 08 6e 67 3c
       0.09056613 0.07401558 0.07665159 0.014125355
000010 69 4e 01 3c 7d 35 df bd 63 f1 36 3c 85 39 3a bd
       0.00789223 -0.10898874 0.0111659495 -0.04546501
000020 11 6e 89 3d 48 61 0d 3d cb 1c 89 bd 94 40 a6 bd
       0.067104466 0.034516603 -0.06694945 -0.08117786
000030 d8 c4 57 3d 93 26 e9 3d 9c ad b8 3d 6d 7f 0c 3d
       0.05267796 0.113843106 0.09017488 0.03430121
000040 5e 40 6c bc 86 ce d9 bd 78 71 3a 3e 80 16 9b bb
       -0.014419643 -0.10635094 0.18207347 -0.004732907
000050 fe 3a ae 3d 49 fc 26 3e 8e f6 10 3d 23 9f 19 3e
       0.085073456 0.16307177 0.035391383 0.15002112
000060 00 b7 52 bd 6b 56 2b 3b 14 6f 20 3e 64 4b ce 3d
       -0.051444054 0.0026144038 0.15667373 0.10072973
000070 af e5 89 bc c2 70 24 3e 62 98 91 bd a5 15 10 3e
       -0.016833154 0.16058639 -0.07109143 0.14070757

fc3.weight f4 [16, 32]
000000 5c fe dc 3d c1 c7 2c be c2 f8 9b 3d 31 b2 0f 3e
       0.10790703 -0.16873075 0.07615806 0.14032818
000010 bd 45 60 bd 38 2c 0e 3e 8f 90 0d 3d e1 17 2c be
       -0.054754008 0.13884056 0.03456169 -0.16805984
000020 18 d4 ec bd 95 3a 86 3c 26 d5 93 3d 73 21 68 bc
       -0.11563891 0.016385356 0.07218389 -0.014168131
000030 ee ed 92 bd 80 18 82 3e 6f 1b 2e be aa aa 94 3d
       -0.07174288 0.25409317 -0.17002653 0.07259114
000040 98 1d 9d 3e 4b d3 46 be ff 0e 85 3d 64 a5 90 bd
       0.3068664 -0.1941654 0.06497001 -0.07062796
000050 58 be ef 3c 1e a3 97 3e 10 0c bd bd 90 84 12 3d
       0.029265568 0.29616636 -0.09230816 0.035770953
000060 98 69 79 3d 9f aa cd bd 97 d1 bb bb db e8 74 3e
       0.060891718 -0.10042309 -0.005731772 0.23916952
000070 39 dc 3d be 45 98 33 3e 9f ec d1 3d b0 2c 58 3e
       -0.1854104 0.17538555 0.1025021 0.21110797
000080 d9 4b 26 be d9 e0 23 be 7c 54 16 be 76 80 a0 3d
       -0.16239871 -0.16003741 -0.14680666 0.07837002
000090 a6 ac 0a be 3d 16 00 be c3 6e e3 bd de e5 f7 3d
       -0.13542423 -0.12508483 -0.111051105 0.121043906
0000a0 88 3c 3c bd a0 86 ed 3b b8 e6 1f bd 64 c5 46 3d
       -0.045956165 0.0072487146 -0.03903839 0.04852809
0000b0 62 24 ad 3d f0 6b 58 bd 9a b0 df bd 96 14 bc 3d
       0.08454205 -0.052837312 -0.10922356 0.09183614
0000c0 63 39 a4 bd 12 f0 2e be 5f 57 91 bd fa ca fb 3d
       -0.08018758 -0.17083767 -0.07096743 0.12294574
0000d0 e4 dd 29 be f6 93 19 be 2b bf 16 3e d4 49 a4 bd
       -0.16588551 -0.14997849 0.14721362 -0.08021894
0000e0 50 6e 66 bd 55 c6 19 3e 5a 58 11 be 95 da 1f 3e
       -0.056257546 0.15017064 -0.1419386 0.15610726
0000f0 6c f8 a9 bd 3e 38 ce 3d b4 b1 8b bd 13 e7 05 3e
       -0.08299336 0.10069321 -0.068210036 0.13076429
000100 24 c4 56 3e 28 b4 bb 3d 7e 7b 62 3e 1b ce 47 3c
       0.20973259 0.091652215 0.22117421 0.0121951355
000110 54 65 f5 3d 04 7d 4a 3d af e3 73 3e 1c cb 4a be
       0.119822174 0.04943563 0.23817323 -0.19804043
000120 0a 85 4c 3c fc e8 b1 3d ca e1 3e bb 7b 4c 01 be
       0.012482891 0.08687016 -0.002912628 -0.12626831
000130 ea 37 bd bd 88 4c 8b bd c5 3e 3b 3e e6 19 99 3b
       -0.092391804 -0.068017066 0.18285663 0.004672277
000140 9a 52 e8 ba 2e 87 62 3e 77 96 84 3c 6a ea d0 3d
       -0.0017724812 0.2212188 0.016185028 0.10200961
000150 30 e7 20 3e dd 29 39 3e e5 32 6f 3e 88 cc aa bd
       0.15713191 0.18082376 0.23359258 -0.083397925
000160 77 9a 1c 3e 47 81 0a 3e a7 b0 d4 bd d3 28 16 3e
       0.15293299 0.13525878 -0.10385256 0.1466401
000170 d4 41 78 3c 06 8c 61 3e c0 78 80 3e 5e 24 e9 bc
       0.015152413 0.22026071 0.25092125 -0.028459724
000180 77 9e 53 bd 13 cb 06 3e 3a de 21 3e f2 a0 ed 3c
       -0.051664796 0.13163404 0.15807429 0.029007409
000190 18 e9 35 3e db a0 90 be 57 e1 5e 3e db a1 29 bc
       0.177647 -0.28247723 0.21765648 -0.010353531
0001a0 65 9c 96 3e 87 7f aa 3d 2d 52 f4 bd 75 e1 40 bd
       0.29416195 0.08325105 -0.11929736 -0.047090013
0001b0 3a 8f a7 bd cf e1 36 be 48 13 0d 3e 19 82 85 bd
       -0.08181615 -0.17859577 0.13776886 -0.06518955
0001c0 7c ac bc bd 88 ab aa bd 06 8a 85 3e 2a c7 ef 3d
       -0.09212586 -0.08333498 0.26081866 0.117079094
0001d0 05 94 e2 bd e0 f8 a5 bd 24 b4 86 be 1a 54 67 bd
       -0.11063389 -0.0810411 -0.2630931 -0.05647669
0001e0 a5 21 25 be 10 79 5d bd 91 cb 11 3e c5 40 0b 3e
       -0.16126116 -0.054070532 0.1423781 0.13598926
0001f0 81 e2 50 3e a4 47 07 be 74 5a 82 3b c4 b0 66 be
       0.20398904 -0.13210922 0.003978068 -0.22528368
000200 96 17 77 3c 7d f4 75 3b 14 0c 92 bd 04 ae 24 3e
       0.015081307 0.003752976 -0.0713121 0.16082007
000210 8b ce 82 3e f3 53 3d be 95 eb 87 be cd 64 98 3e
       0.25548205 -0.18489055 -0.26546922 0.29764405
000220 6b 4a aa 3d 47 18 40 be d2 38 47 3e ea a6 31 be
       0.08314975 -0.18759261 0.19455269 -0.17348829
000230 54 6a fe 3d fe 05 34 bc 39 a4 67 3d 39 f3 03 bd
       0.12422624 -0.010987757 0.0565531 -0.032214377
000240 c5 be bc 3d e4 75 93 3d 95 48 8e bd c6 40 6f bd
       0.09216074 0.0720022 -0.06947438 -0.058411382
000250 b6 92 00 be cc 7b c4 3d 6d 06 22 bd d2 7b bd 3d
       -0.12555966 0.09593925 -0.03955691 0.092521325
000260 34 34 07 be 62 f5 87 3e c0 ce 51 3e 12 c3 81 be
       -0.13203508 0.265544 0.20489025 -0.2534414
000270 6b 5c 1f 3d 4f 6e 22 bd 10 4f ad bc 82 11 bf bd
       0.038906496 -0.03965598 -0.021155864 -0.09329511
000280 27 de e7 3d 24 c6 ce 3d 19 98 e7 bb 15 ba 56 bc
       0.11321669 0.10096386 -0.007067692 -0.013105889
000290 bd bd 60 3e ee 33 8a be 6e 02 01 3e 0d b7 41 3d
       0.2194738 -0.26992744 0.12598583 0.04729371
0002a0 d8 b6 bc 3e 91 92 9f be cd 81 58 3e 1d 25 b1 bc
       0.3685825 -0.3116651 0.21143265 -0.021624142
0002b0 53 4d 00 3e 7e 3b 98 bd b4 05 fc bd 74 64 ad 3c
       0.12529497 -0.07433222 -0.12305775 0.021166064
0002c0 22 3a 69 be 74 1c 17 3e ce 6c 21 3e 96 80 d5 3d
       -0.22776082 0.14756948 0.15764162 0.104249164
0002d0 af c7 7b 3d 69 37 8d bd c3 c3 1b be bc f0 b8 bb
       0.06146973 -0.06895334 -0.15211396 -0.005643932
0002e0 20 d8 f1 3b 1b 50 18 bb 4d ad 78 3e f5 03 f8 3b
       0.0073805004 -0.0023241106 0.24284859 0.007568831
0002f0 60 71 87 3e 07 59 09 3e 61 1a c1 bd ae 70 8a bd
       0.26453686 0.13412867 -0.094288595 -0.06759773
000300 2b c6 19 3e 35 22 81 3e f5 20 58 3d 23 5d 8f bd
       0.15017001 0.2522141 0.052765805 -0.07000186
000310 f9 3c 7f 3e 82 54 5f be 51 1d 31 bd 63 68 ec 3d
       0.24925603 -0.21809581 -0.04324085 0.11543348
000320 ba c9 a5 3d 26 bd 45 be 81 26 84 3e 01 1a 6e 3d
       0.08095117 -0.19310436 0.25810626 0.058130268
000330 48 ba e5 bd 3b 21 c6 3d 69 6c 7f 3d 14 d0 68 3e
       -0.11217171 0.09674307 0.062359247 0.22735626
000340 d9 68 e5 bd 56 79 56 3e 69 a6 91 3e f4 c0 2f bd
       -0.11201639 0.20944723 0.28447273 -0.042908624
000350 12 bc f1 bd d5 b2 4a be 9b 7f 22 be 59 ec a7 bc
       -0.1180345 -0.19794782 -0.1586899 -0.020498442
000360 d2 87 ab 3d d4 dd 8d 3d 45 bd 83 3d 52 bb 0c 3e
       0.08375515 0.06927076 0.06432585 0.13743332
000370 a2 96 09 3d 63 ec c1 3d e0 57 90 bd 6e 50 01 be
       0.03359092 0.09468915 -0.07048011 -0.12628338
000380 10 bb 3a bc 97 a9 06 be 53 1b dd bd f8 02 4f 3d
       -0.011397138 -0.13150631 -0.10796227 0.05053994
000390 94 0f 48 bd 1a d9 ec bd 2e 35 ae bd 2c 34 bc bd
       -0.04884298 -0.11564846 -0.08506237 -0.091896385
0003a0 f5 88 ee 3d 90 a6 16 be 3c 87 c8 3c e3 9e 79 3c
       0.11647216 -0.14711976 0.024478547 0.015235635
0003b0 61 cd ff 3d c2 ba 09 be df 88 d7 bd 52 01 0f be
       0.12490345 -0.13450149 -0.10524153 -0.13965347
0003c0 ac 3e 56 bd 86 6b 28 be a3 df d3 bd 60 e8 70 bd
       -0.052305862 -0.16447267 -0.1034539 -0.05881536
0003d0 2e 76 de bd a0 18 c3 bc 86 53 ec 3d 68 94 f5 3d
       -0.10862385 -0.023815453 0.11539368 0.11991197
0003e0 45 70 90 bd e8 a6 62 3d 54 c6 83 3c 96 b7 b0 bd
       -0.07052664 0.055334955 0.016085781 -0.08628766
0003f0 9f 8d c8 bd e8 28 8b bd 97 54 ce bd fc 3d 1b be
       -0.09792637 -0.067949116 -0.10074728 -0.15160364

fc3.bias f4 [16]
000000 27 ea 26 3e 94 22 90 bd a8 cd 2e 3d 4e 6d c3 3d
       0.1630026 -0.07037845 0.042676598 0.095423326
000010 80 94 89 3d 7f f8 a0 3d 7b 79 20 3e 29 e3 3d 3d
       0.06717777 0.07859897 0.15671341 0.046359215
000020 7b 5f 3f 3e ff ba 25 3b 07 3c 7f 3d b5 c8 84 3d
       0.18688767 0.002528846 0.062313106 0.06483594
000030 30 3d b7 3d fb 98 af 3d ca 2f 67 3e d0 59 44 3d
       0.089472175 0.085741006 0.22576824 0.047937214

fc_mu.weight f4 [1, 16]
000000 95 3a 46 3e 40 e1 76 3d 95 d0 e4 3d 99 fa b1 be
       0.19358285 0.06027341 0.11172596 -0.34761503
000010 2d ff 9e be 14 96 ad be 67 26 2a be 0c 6c 49 3e
       -0.3105406 -0.33903563 -0.16616212 0.19670123
000020 b8 98 b3 3e f9 0f d2 be af 8c 2e be 12 83 07 3e
       0.35077453 -0.4102781 -0.17045854 0.13233593
000030 3f d4 6b 3d 3c 61 4a be 8e 20 a2 be 33 20 e4 3e
       0.05757546 -0.19763654 -0.31665462 0.44555816

fc_std.weight f4 [1, 16]
000000 f5 22 e8 bd b4 9f 33 3e 95 85 9a 3e 36 a4 04 3d
       -0.113347925 0.1754139 0.3018004 0.032383166
000010 7b ed b8 3d b3 b9 fc bc c5 af bf 3d 38 81 f5 3d
       0.09029671 -0.030850267 0.09359697 0.11987537
000020 dd 1a 5e bd 48 55 29 3d 78 e9 56 3e 65 42 3b 3e
       -0.054224838 0.041341096 0.20987499 0.18287046
000030 92 1b 08 3e 9a 65 f3 bd ca 0e 28 be 69 9c fa bc
       0.13291767 -0.11884613 -0.16411892 -0.03059216

exp_avg f4 [64, 3]
000000 19 d6 38 b4 f9 12 4d 34 0f 93 8d b5 36 2f 69 37
       -1.7214224e-07 1.9099015e-07 -1.0548118e-06 1.3898874e-05
000010 22 70 3a 35 1e b6 13 37 c3 47 07 b5 40 40 c3 34
       6.9453574e-07 8.804285e-06 -5.0395846e-07 3.6368328e-07
000020 27 b4 fd b5 6e d4 99 36 92 4c a4 b6 8c 9e 83 b6
       -1.89024e-06 4.5844854e-06 -4.896495e-06 -3.9225615e-06
000030 67 90 20 36 ee 13 17 36 d8 50 f3 b6 c8 b2 3c bb
       2.392591e-06 2.2512354e-06 -7.251376e-06 -0.0028793085
000040 cf f5 f9 b9 c2 cb 60 39 ec b9 65 b7 e6 f7 fd b7
       -0.00047676123 0.0002143821 -1.3692752e-05 -3.0275387e-05
000050 f0 65 1f 39 e1 3a c0 ba 37 61 7b b9 bd a6 ef 38
       0.00015201396 -0.0014665985 -0.0002397344 0.000114274655
000060 58 f8 59 bc 62 1d 17 bb 8b 9b 86 38 a6 a6 fd 3b
       -0.013303839 -0.0023058285 6.41859e-05 0.0077408133
000070 94 77 af 3a 4a d2 2b b9 f9 42 0f 3c 91 0b be 3a
       0.0013387077 -0.0001638617 0.008743995 0.0014499297
000080 bb 83 4a 39 4e 7d b8 bb 88 8e 7b ba 5d 43 52 37
       0.00019313295 -0.005630172 -0.0009596129 1.253266e-05
000090 60 8f b8 3c 1b 21 7e 3b f7 1a 22 b9 ef ab a1 37
       0.022529304 0.0038777057 -0.00015459569 1.9272758e-05
0000a0 cd f1 12 37 19 49 b0 b7 76 d8 6f b7 8b 7f 43 b7
       8.758577e-06 -2.1014874e-05 -1.4295909e-05 -1.1652602e-05
0000b0 15 5c 2e 38 86 9a 22 bc 4a cb e0 ba 23 90 0d 39
       4.157059e-05 -0.009924537 -0.0017150429 0.00013500503
0000c0 f5 ba 73 bc 58 c3 29 bb e7 b7 52 39 c5 fe 32 3c
       -0.014876117 -0.0025903787 0.0002009567 0.010925
0000d0 c9 62 f8 3a c0 63 8a b9 07 aa 1e b5 dc 7e 08 35
       0.0018950339 -0.0002639573 -5.910701e-07 5.084855e-07
0000e0 db 51 21 b6 e2 93 aa bb 7b ed 67 ba 58 66 5e 38
       -2.4038516e-06 -0.0052056173 -0.0008847338 5.302424e-05
0000f0 70 8c 10 3c fa 84 b8 3a a0 68 d0 39 23 42 ca 35
       0.008822545 0.0014077716 0.00039750803 1.5069421e-06
000100 73 5e 3f b5 bf 4f 32 b6 1d 7f 8e b3 70 9b 1e 34
       -7.1290486e-07 -2.6570485e-06 -6.635512e-08 1.4771445e-07
000110 8b 44 64 b5 21 ca c7 3b 45 63 69 3a 8c 54 18 3a
       -8.503636e-07 0.0060970937 0.0008903037 0.00058109383
000120 0a 15 51 b4 23 a8 3f 34 2a df 82 b5 fd 54 12 bc
       -1.9472296e-07 1.7849429e-07 -9.750704e-07 -0.008931396
000130 0d 4c ca ba af 92 58 39 57 a7 ea bc 02 67 a3 bb
       -0.0015434042 0.00020654009 -0.028644247 -0.0049866447
000140 65 b4 b1 39 b9 b3 bf 39 d8 91 b4 38 17 1c ae b8
       0.00033894475 0.00036564263 8.610234e-05 -8.302199e-05
000150 e8 33 31 bb d9 8a a7 b9 d2 2b 62 39 5d 2b 6c 38
       -0.0027038995 -0.00031956172 0.00021569364 5.630717e-05
000160 ab 18 34 b7 82 44 1b 38 01 4a ed 37 1d bc f3 36
       -1.07345795e-05 3.7018683e-05 2.8287062e-05 7.2638636e-06
000170 47 62 12 b8 d0 34 a3 b6 74 3c 33 b7 32 ab 5e 38
       -3.490064e-05 -4.8639267e-06 -1.0683307e-05 5.3088363e-05
000180 61 dd 1b 3c ba b6 d9 3a 99 f7 8e b8 a2 02 3f b8
       0.00951323 0.0016610243 -6.817206e-05 -4.55404e-05
000190 7c 55 ea b7 71 85 ba 38 f6 f5 ab bb 3d 60 6b ba
       -2.793478e-05 8.8940265e-05 -0.0052478267 -0.0008978879
0001a0 67 7c c4 39 e9 8e fc bc 1b 85 af bb 13 51 d5 39
       0.0003747672 -0.030829864 -0.0053564436 0.0004068693
0001b0 87 76 1a 37 c3 e6 ce 35 45 4b 94 b7 00 aa 13 3d
       9.206712e-06 1.5415357e-06 -1.7678025e-05 0.036050797
0001c0 6e 60 cd 3b ce fb 0f ba 67 28 0c 3c e7 bb c2 3a
       0.006267599 -0.0005492539 0.008554555 0.0014857025
0001d0 28 c5 2f b8 c3 3c be 3b 91 a4 8d 3a d8 69 70 ba
       -4.1906867e-05 0.005805583 0.0010806491 -0.00091710454
0001e0 85 1a 1d b6 04 71 ef 35 33 ac 54 b6 e1 8f 68 36
       -2.341026e-06 1.783978e-06 -3.1690695e-06 3.4654443e-06
0001f0 e0 1a 05 b6 b9 63 08 36 dc 44 3b 38 3d 6e cd 34
       -1.9834188e-06 2.0323625e-06 4.4648405e-05 3.8264434e-07
000200 20 d7 a2 37 63 80 ca b5 a5 47 51 b4 68 c2 2c b7
       1.941208e-05 -1.5087538e-06 -1.9490706e-07 -1.0297263e-05
000210 41 31 da 3b 29 5f 98 3a 86 40 01 b9 3b d6 06 bc
       0.0066587036 0.001162504 -0.00012326436 -0.008229787
000220 25 4e bb ba 70 d0 e4 38 cb ae a3 ba 10 6e 86 b9
       -0.0014290257 0.00010910712 -0.0012488005 -0.00025640475
000230 81 5d b7 39 75 a9 f9 34 ab fa dd b4 08 2c 5a 36
       0.00034974146 4.650316e-07 -4.1346843e-07 3.251016e-06
000240 e9 b4 3f 3c 37 90 04 3b f0 48 c8 b9 5d 64 2b 3c
       0.011700847 0.002022756 -0.00038201315 0.01046094
000250 e7 ca ed 3a 75 5e 1b b9 dc 16 64 3c 46 91 19 3b
       0.0018142135 -0.0001481714 0.013921466 0.0023432537
000260 4b dc 5e ba a6 b7 30 bc 2d 03 f5 ba 4a be d7 38
       -0.0008501454 -0.010785973 -0.0018692963 0.00010287443
000270 f1 ec 41 b4 59 15 cd 34 64 33 0d b6 65 ad 12 b5
       -1.8060724e-07 3.8199758e-07 -2.104055e-06 -5.464156e-07
000280 b4 7b 2f 34 e7 f3 e0 b5 80 cc 28 3d a3 8b ea 3b
       1.6343148e-07 -1.6760285e-06 0.04121065 0.0071577593
000290 8d 96 31 ba 4b 7b dc b5 83 61 ae 35 30 c6 9c 34
       -0.0006774448 -1.642716e-06 1.299239e-06 2.9201465e-07
0002a0 f0 84 ad bc 9d 45 70 bb 0e da 56 39 18 fc 90 39
       -0.021181554 -0.0036662586 0.00020489862 0.00027653645
0002b0 bf 80 2d 38 74 39 8a b5 5c 65 a5 b4 24 f2 1f 35
       4.136632e-05 -1.0298522e-06 -3.0807394e-07 5.9584477e-07
0002c0 3c b4 6f b6 1b 07 8d ba 52 fb 45 b9 9e a8 01 b8
       -3.5718685e-06 -0.0010759564 -0.00018881008 -3.0913034e-05
0002d0 db 08 11 bc cd 73 c2 ba 20 79 89 b6 46 74 47 b5
       -0.008852209 -0.0014835537 -4.097019e-06 -7.4302477e-07
0002e0 a3 a6 35 35 16 97 56 b6 e8 b8 ab bc ed 61 6d bb
       6.767024e-07 -3.1976429e-06 -0.020962194 -0.0036221698
0002f0 f5 c1 9b 39 f4 43 47 bc a6 fc 06 bb 31 69 c3 38
       0.00029708413 -0.012162197 -0.0020597368 9.317918e-05

exp_avg_sq f4 [64, 3]
000000 82 5d 2c 37 e0 0d 9f 37 6c 0b 11 3a 2f 02 e0 36
       1.027377e-05 1.8960738e-05 0.0005533013 6.6759744e-06
000010 ed 00 92 36 12 c5 f1 38 3f c5 93 37 ac e5 04 38
       4.351247e-06 0.00011528483 1.7615615e-05 3.168515e-05
000020 b5 7b 80 3a b2 c9 13 36 e5 62 90 36 59 db 32 39
       0.0009802493 2.202211e-06 4.3030473e-06 0.00017057116
000030 73 8f 5d 36 9d b4 a0 36 b3 c3 26 39 f1 1a 59 3b
       3.3015065e-06 4.7893977e-06 0.00015903897 0.003312763
000040 80 b4 b1 37 5c 7d dd 38 d8 2e 18 38 6c 03 b9 38
       2.1184096e-05 0.00010561451 3.628325e-05 8.822125e-05
000050 10 e3 7c 3b 76 1d b3 3a eb 6d 98 37 59 22 a7 39
       0.0038587488 0.0013665396 1.8170997e-05 0.00031878313
000060 07 ab 00 3d 4f 71 a6 39 33 fd 88 3b fe 86 2e 3c
       0.031413104 0.0003174641 0.0041805743 0.010652302
000070 b7 e2 ce 38 57 43 b5 3a 59 53 99 3c 22 fb 22 39
       9.8650744e-05 0.0013829273 0.018716501 0.00015543078
000080 33 37 c5 3a 77 2b d6 3b 8d 3b 52 38 34 b8 db 39
       0.0015046358 0.006535943 5.0123363e-05 0.00041908177
000090 fe 62 9d 3d 48 f1 20 3a b4 e0 ce 3b 3e d5 e1 36
       0.07684897 0.00061394693 0.006313408 6.730347e-06
0000a0 8d 46 d2 36 96 a6 7d 39 73 68 fe 37 9e cc 51 38
       6.266701e-06 0.00024190018 3.0327798e-05 5.0020048e-05
0000b0 17 35 fd 3a f4 90 9f 3c 07 1e 43 39 a8 b4 07 3b
       0.001931819 0.019478299 0.00018607835 0.0020707045
0000c0 e5 11 22 3d 16 c8 c4 39 89 f3 5e 3b d9 9e 9a 3c
       0.039567847 0.0003753311 0.003401967 0.018874573
0000d0 f2 af 4b 39 2b 2a 36 3b 94 fb da 37 7a 6a 28 38
       0.00019425133 0.002779613 2.6104775e-05 4.0153485e-05
0000e0 63 e4 98 3a bb c3 a3 3b eb f5 54 38 67 55 2d 3a
       0.0011664744 0.004997698 5.0773768e-05 0.0006612152
0000f0 e7 f0 c1 3c 55 42 6e 39 8d e4 1d 3b 8f 81 a4 36
       0.023674442 0.0002272216 0.0024092526 4.9026635e-06
000100 a1 d7 2c 37 e6 36 ee 39 ab 90 de 36 87 5c 56 37
       1.0302204e-05 0.000454358 6.632957e-06 1.2776937e-05
000110 14 11 f5 39 76 5c a8 3c 43 8c 43 39 c2 81 35 3b
       0.00046742766 0.020551901 0.00018648901 0.002769575
000120 e7 a8 1d 37 00 6c 57 37 f6 2b c4 39 e1 48 9a 3c
       9.397255e-06 1.2840144e-05 0.00037416787 0.01883358
000130 6b ad 4c 39 f5 97 13 3b 40 30 0d 3e ee c6 ae 3a
       0.0001951956 0.0022520993 0.13787937 0.0013334432
000140 ac 79 67 3c 4c 6c 35 39 8e 40 8d 37 01 a6 1c 3a
       0.01412813 0.00017301849 1.683857e-05 0.0005975664
000150 c5 94 2c 3d 00 e2 92 39 b4 92 2d 3b 1b 40 bd 37
       0.042134065 0.00028015673 0.0026485147 2.2560407e-05
000160 ef 98 15 36 94 87 34 38 79 49 d5 38 cc 26 24 36
       2.229175e-06 4.304161e-05 0.00010170317 2.4460487e-06
000170 73 6b b9 38 42 1b f9 36 2f a7 86 37 5b ae 42 3a
       8.8415014e-05 7.4239515e-06 1.6051896e-05 0.00074264937
000180 3b 37 1c 3c b6 d9 9a 38 ac f8 f0 39 da 25 1d 39
       0.009534652 7.383844e-05 0.00045961642 0.00014986788
000190 2e db b8 38 af 7c 2f 3b 62 17 27 3c 22 81 1f 39
       8.814629e-05 0.0026777198 0.010198446 0.00015211527
0001a0 4c b3 50 3b e5 7e 20 3e 98 7d ce 3a 52 b1 80 3c
       0.003184515 0.15673406 0.0015753983 0.015709553
0001b0 20 1e 51 37 81 8a 18 37 6e 41 b4 39 14 e1 4d 3e
       1.2464385e-05 9.092154e-06 0.00034381024 0.20105392
0001c0 ab 26 ed 3a d5 08 9e 3c 26 91 04 3c 8f 4f 99 38
       0.0018093189 0.01929132 0.008091247 7.3104275e-05
0001d0 2d f2 2e 3a bc 90 8d 3d 55 0a fd 39 4f dd bd 3b
       0.000667366 0.069123715 0.00048263618 0.0057942043
0001e0 c9 b7 2b 38 03 61 70 38 6a dd d4 3a 49 fd 5a 38
       4.094074e-05 5.731081e-05 0.0016240303 5.221114e-05
0001f0 17 99 d2 38 aa 9f 84 3b 60 78 70 36 6c 48 22 36
       0.000100420955 0.0040473538 3.5832854e-06 2.4182036e-06
000200 c5 e9 8c 38 4f 35 f6 37 9d ae 22 38 23 2b 95 3a
       6.719263e-05 2.9350309e-05 3.878643e-05 0.0011380654
000210 c1 4a cc 3b 4d c2 9a 38 c4 45 b6 3a 06 a0 4b 3c
       0.0062344973 7.3794836e-05 0.001390629 0.012428289
000220 2e 75 fe 38 10 0c 9b 3a 27 8e 18 3b d0 06 a0 37
       0.0001213349 0.0011829156 0.0023278089 1.9076659e-05
000230 71 27 c9 38 07 5e de 38 cd 66 66 38 a7 6a d5 3a
       9.5917734e-05 0.00010603299 5.4932014e-05 0.0016282395
000240 e8 99 d2 3c 35 6a 80 39 df f4 4f 3b 40 27 6a 3c
       0.025708154 0.00024493193 0.0031731648 0.0142915845
000250 8c 8f 0a 39 8f 7a ad 3a 96 f0 3e 3d 53 36 c2 39
       0.00013214181 0.0013235378 0.04661616 0.00037043038
000260 85 d4 46 3b 87 24 a5 3c 79 0f 59 39 bb be 15 3b
       0.0030339074 0.02015902 0.00020700497 0.002284928
000270 a7 90 46 38 9d 99 f5 38 71 3d 7e 3b 76 81 9b 37
       4.7341597e-05 0.00011711123 0.0038793946 1.8537725e-05
000280 e4 3d ef 37 39 3a 69 3a 1e 59 8d 3e b1 d8 1d 3b
       2.851984e-05 0.00088969205 0.27607054 0.0024085457
000290 7c b8 c7 3c e7 2e c1 35 d8 2b 15 35 06 f4 28 37
       0.024379961 1.4393271e-06 5.5570627e-07 1.00703965e-05
0002a0 7c c1 9f 3d bb f8 41 3a 36 c0 09 3c bf 18 2f 39
       0.07800576 0.00073994295 0.008407643 0.00016698519
0002b0 c1 aa 73 37 61 4b 12 3a 81 37 23 39 51 58 cb 39
       1.4523685e-05 0.00055806903 0.00015565568 0.00038784978
0002c0 6a cb 78 3c 27 3c cf 39 0d 6f 6d 36 f3 67 50 38
       0.015185216 0.00039526934 3.5380392e-06 4.9687875e-05
0002d0 a1 19 61 3c 5a 13 d2 38 53 39 19 3a bf da 44 38
       0.013739021 0.00010017185 0.0005845029 4.6933765e-05
0002e0 ad 69 b0 38 f9 78 1f 3b 1d a3 a4 3d c1 e0 43 3a
       8.4120176e-05 0.002433358 0.08038924 0.00074721506
0002f0 1c d6 f9 3b 13 a2 d6 3c 58 56 67 39 41 d1 f2 3a
       0.007624401 0.02620033 0.00022062042 0.0018525497

exp_avg f4 [64]
000000 a2 d2 9c b4 60 cb 69 37 5b e5 3c b5 59 93 d1 36
       -2.921052e-07 1.3935234e-05 -7.0369214e-07 6.245839e-06
000010 b1 be 2f 36 6b 4f 3f bb 95 68 ed b7 4a bb c2 ba
       2.618803e-06 -0.0029191624 -2.8301301e-05 -0.0014856842
000020 82 42 5d bc fc c6 00 3c ff 3e 11 3c e3 47 bb bb
       -0.013504626 0.007859942 0.008865117 -0.0057153567
000030 e7 4a bb 3c d6 7f ab 37 b0 8e 8c b7 42 09 25 bc
       0.022862865 2.0444317e-05 -1.6755745e-05 -0.010073008
000040 53 7e 77 bc b7 bc 35 3c 79 dd 5e b5 b8 23 ad bb
       -0.015105802 0.011092356 -8.302373e-07 -0.005283799
000050 91 64 12 3c 11 da ff 35 9d 5d 3b b4 90 ca c9 3b
       0.00893511 1.9062446e-06 -1.7449788e-07 0.0061581805
000060 9d 16 a8 b4 43 8d 14 bc 41 45 ee bc 3e 9b c4 39
       -3.1308892e-07 -0.009066883 -0.029085757 0.00037499698
000070 da 9c 32 bb c1 9f 68 38 8b 48 f7 37 91 cf 25 b7
       -0.0027254135 5.5461893e-05 2.9478475e-05 -9.883094e-06
000080 66 46 1e 3c 1b 3e 54 b8 0a 8b ae bb 37 39 00 bd
       0.009660339 -5.060258e-05 -0.0053266333 -0.031304564
000090 5b ed 3a 37 9e f0 15 3d 9e 50 0e 3c c1 82 c1 3b
       1.1141728e-05 0.036606424 0.008686213 0.0059054797
0000a0 5c c0 47 b6 31 b1 8a 36 f2 58 3b 38 06 ec 8e b5
       -2.9765279e-06 4.1333483e-06 4.466711e-05 -1.0648516e-06
0000b0 59 91 dd 3b 86 ea 08 bc 8d 56 a7 ba 65 c9 36 35
       0.0067617116 -0.008356696 -0.0012766883 6.809335e-07
0000c0 ad a3 42 3c cf 03 2e 3c 9b 66 67 3c 27 6c 33 bc
       0.011879844 0.010621025 0.014123584 -0.0109510785
0000d0 dd bb e0 b4 97 6e 53 b5 70 66 2b 3d 75 0f 0c b6
       -4.185994e-07 -7.8764555e-07 0.04184574 -2.0870623e-06
0000e0 86 24 b0 bc 1c f6 92 39 e4 28 4e b5 90 2a 8f ba
       -0.02150179 0.00028030656 -7.6800484e-07 -0.0010922719
0000f0 4f 32 13 bc 00 c9 8c b5 d5 52 ae bc b6 44 4a bc
       -0.0089841625 -1.0489312e-06 -0.021279732 -0.0123454835

exp_avg_sq f4 [64]
000000 26 80 ca 37 d7 3e 2a 37 91 dc 2b 38 62 55 d5 36
       2.413995e-05 1.0147421e-05 4.0974995e-05 6.3578345e-06
000010 5e 4e 13 37 30 b2 5a 3b 64 48 13 39 d8 2d b6 3a
       8.780129e-06 0.0033370368 0.0001404598 0.001389916
000020 6a cb 01 3d cd 40 30 3c 12 59 9a 3c dd 12 d9 3b
       0.03168813 0.010757637 0.0188413 0.006624563
000030 b3 84 9e 3d ef f9 69 37 98 71 b8 38 17 f7 a1 3c
       0.07740154 1.3946074e-05 8.794962e-05 0.019771142
000040 21 26 24 3d f2 7b 9c 3c 63 c3 5f 38 4c 49 a7 3b
       0.040075425 0.01910207 5.334931e-05 0.005105173
000050 8b 36 c4 3c 11 45 8d 37 a4 20 84 37 0c c3 a9 3c
       0.02395179 1.6840671e-05 1.5750826e-05 0.020722888
000060 fd 2f 98 37 bb ce 9c 3c b8 76 0e 3e de b0 4a 39
       1.8142158e-05 0.019141546 0.13912475 0.0001933011
000070 d0 aa 2d 3d cb 72 cc 37 0d 9e dd 38 54 90 e3 37
       0.042399228 2.437215e-05 0.000105675404 2.7127717e-05
000080 bd 67 1d 3c c7 ca 80 39 8e fc 2a 3c da 23 23 3e
       0.009607253 0.00024565143 0.01043619 0.15931645
000090 95 05 c0 37 c1 5e 50 3e e5 bc 05 3c 41 9f 8e 3d
       2.2890783e-05 0.20348646 0.008162712 0.06963969
0000a0 ef 2e 9e 38 83 68 33 39 0d 99 b4 36 6d dc 65 38
       7.542769e-05 0.00017109704 5.3822355e-06 5.4803142e-05
0000b0 df 41 ce 3b b2 57 4e 3c 3e f0 18 3b 98 a4 20 39
       0.0062944735 0.01259415 0.0023336555 0.00015320105
0000c0 20 8e d4 3c 07 57 6c 3c 8e 86 40 3d 08 01 a7 3c
       0.025946677 0.014425046 0.04700332 0.020386234
0000d0 5d 43 15 39 b6 36 2a 38 99 03 8f 3e b5 99 02 36
       0.00014234842 4.0582112e-05 0.27932432 1.9460979e-06
0000e0 c6 35 a1 3d e1 e8 44 39 e0 7d 16 3a 14 c3 cc 39
       0.078715846 0.00018778771 0.0005740803 0.00039055257
0000f0 9c 73 63 3c 0e b7 ce 38 75 41 a6 3d 71 c4 d9 3c
       0.013882544 9.856942e-05 0.08117954 0.026582928

exp_avg f4 [32, 64]
000000 02 cc 47 b4 f4 48 5a b5 30 92 81 b4 1c a0 31 36
       -1.8607537e-07 -8.131749e-07 -2.4134488e-07 2.6468251e-06
000010 8f 78 34 b6 88 fb 3b 3a e2 6d 18 b4 43 e5 13 3b
       -2.6892264e-06 0.0007170965 -1.4196078e-07 0.002256707
000020 68 41 50 39 90 ed 77 3a 51 72 74 39 40 f4 19 3a
       0.00019860792 0.0009457702 0.0002331224 0.0005872883
000030 43 bd dd 39 6a 3b e3 b6 19 d7 28 b6 e8 2d 10 3b
       0.00042293416 -6.772044e-06 -2.5159154e-06 0.0022000019
000040 5e a6 4a 3b 5c bd 82 3b 91 6b a6 b4 0c cb ed 39
       0.0030921916 0.0039898586 -3.0998174e-07 0.00045355444
000050 f8 b2 52 39 e8 e3 39 36 1c 2a 91 b3 76 57 a4 36
       0.00020093832 2.7699807e-06 -6.759748e-08 4.8977627e-06
000060 c8 cd d5 b4 eb f8 8c 3b fe ed cd 3a 16 4e 7a b6
       -3.9824067e-07 0.0043021343 0.0015711186 -3.7298355e-06
000070 b1 89 83 b6 0b 8f ae b5 e7 d0 4b 3b 59 90 ad 34
       -3.9201336e-06 -1.3005641e-06 0.0031099857 3.2328788e-07
000080 cf fc 87 38 64 f0 16 b7 04 2d 10 3a 27 a7 b0 3a
       6.484391e-05 -8.996667e-06 0.0005499872 0.001347755
000090 ab 9d a0 b6 32 73 b6 3a bc 56 b2 3a 9d 75 d4 b6
       -4.7867265e-06 0.0013919829 0.0013606171 -6.3317843e-06
0000a0 a4 c6 b6 b4 4c bf 60 35 5d 4c 4a b6 de 13 cf b4
       -3.4044672e-07 8.3724876e-07 -3.0144795e-06 -3.857121e-07
0000b0 62 8d 55 3b 2a d0 48 3b 49 ae 0e 39 a3 ff 55 b5
       0.0032585491 0.0030641654 0.00013607102 -7.9720684e-07
0000c0 6c 6e a2 3a 08 9c 1d 3b 3f 50 2b 39 02 cc 27 3b
       0.0012392527 0.00240493 0.00016337725 0.0025603776
0000d0 b9 64 58 b3 60 17 a5 b4 8c a1 74 3a f4 6c 31 b5
       -5.0383026e-08 -3.0750653e-07 0.00093319337 -6.6096186e-07
0000e0 6c db 81 3a 78 05 17 38 78 f6 33 b2 3a 46 51 3b
       0.0009907312 3.60063e-05 -1.0475212e-08 0.0031932727
0000f0 51 48 6e 3a 8f b1 33 b4 8d 3d 38 3a 9a 8a 1e 3a
       0.00090897555 -1.673527e-07 0.0007028215 0.0006047875
000100 92 e7 02 35 ec 26 01 36 03 a3 24 35 81 2b bb b5
       4.8765753e-07 1.9245153e-06 6.1331974e-07 -1.3945247e-06
000110 77 64 fa b6 4e 71 08 ba 26 b4 5c 34 8a 47 1c bb
       -7.4622762e-06 -0.0005204872 2.0554634e-07 -0.0023846352
000120 ec f4 2e b9 89 83 c0 ba 64 34 2a b9 6e aa 87 ba
       -0.00016685174 -0.0014687638 -0.0001623198 -0.0010350475
000130 d3 60 03 ba 5c 81 2f b7 83 b0 03 b7 ff 33 14 bb
       -0.00050116814 -1.0460932e-05 -7.849306e-06 -0.0022614
000140 c7 f7 5d bb 24 55 9f bb f0 b1 60 35 d6 0b 69 ba
       -0.003386961 -0.0048624445 8.3705436e-07 -0.00088900083
000150 1d 6a ec b8 2f f2 2c b5 0f 53 2d 34 72 9f 1e 37
       -0.00011273122 -6.4427417e-07 1.6142097e-07 9.454658e-06
000160 93 53 8d 35 09 bb 99 bb d0 d1 df ba b0 e2 2b b8
       1.0529642e-06 -0.004691486 -0.0017076079 -4.0980696e-05
000170 c0 0b 50 37 81 ef 08 37 e8 8d 79 bb 7f 10 da b5
       1.2400502e-05 8.1619955e-06 -0.0038078967 -1.6247067e-06
000180 9c 44 73 b9 d7 57 cb b7 0b c7 1b ba 73 26 c1 ba
       -0.00023199845 -2.424039e-05 -0.00059424405 -0.001473619
000190 8b 7d 3d b7 80 cc e7 ba 1d fe fa ba 41 1e ff b5
       -1.1294508e-05 -0.0017684847 -0.0019149218 -1.9007786e-06
0001a0 99 bd 48 35 10 7b 3a b6 79 c9 33 37 fd 12 56 35
       7.4781707e-07 -2.7787792e-06 1.071614e-05 7.9748844e-07
0001b0 05 85 81 bb 4c 76 61 bb 8a c1 d9 b9 43 57 a8 35
       -0.0039526247 -0.0034402786 -0.00041533663 1.2542372e-06
0001c0 f8 b5 d4 ba 53 87 45 bb 06 82 f2 b9 40 02 41 bb
       -0.0016228547 -0.0030140474 -0.00046254712 -0.0029450804
0001d0 a5 62 0f 34 96 04 21 35 5e 6c a2 ba 0b a6 80 35
       1.33538e-07 5.998385e-07 -0.0012391915 9.585068e-07
0001e0 fa 1d 7b ba 1b a6 4f b9 1b 50 86 32 79 44 61 bb
       -0.0009579357 -0.00019802937 1.563608e-08 -0.0034373088
0001f0 e3 43 b0 ba 5d 07 f0 34 44 72 38 ba 59 56 7d ba
       -0.0013447966 4.470884e-07 -0.000703607 -0.0009664051
000200 1e 24 ab 33 e6 53 8d b4 91 a6 ad 33 bf e5 4a 36
       7.969378e-08 -2.632434e-07 8.0862385e-08 3.0234075e-06
000210 95 6d 1b b6 83 d0 56 3a b5 28 8b b2 12 66 32 3b
       -2.3160585e-06 0.0008194523 -1.6200241e-08 0.0027221483
000220 2a ef 71 39 3d b1 9d 3a 19 dd 94 39 3e f5 46 3a
       0.00023072647 0.001203097 0.0002839349 0.00075896445
000230 32 43 0b 3a a5 78 a3 b6 7b c3 15 b6 86 11 2d 3b
       0.0005312442 -4.8718234e-06 -2.2316515e-06 0.002640815
000240 07 ea 73 3b 37 a5 a0 3b 35 58 fc 33 d0 ae 1d 3a
       0.0037218349 0.0049025076 1.1750709e-07 0.0006015124
000250 5b b9 7d 39 cb 71 72 36 c6 78 06 33 08 32 c2 36
       0.0002419701 3.6127046e-06 3.130915e-08 5.787475e-06
000260 bd 3a 00 34 7d 32 aa 3b e4 f6 f7 3a b7 50 94 36
       1.1942298e-07 0.005194007 0.0018918184 4.42014e-06
000270 9d 98 b9 b6 c0 f6 14 b6 5c 72 79 3b 32 57 e3 b4
       -5.531196e-06 -2.2197346e-06 0.0038062548 -4.2345488e-07
000280 ab 21 e5 38 d5 99 47 b6 2f d8 2c 3a 42 40 d4 3a
       0.00010925842 -2.9742853e-06 0.0006593493 0.0016193467
000290 64 c3 cc b5 1f e8 e2 3a 3d aa e0 3a 3c ea b0 b6
       -1.5256051e-06 0.0017311609 0.0017140579 -5.272477e-06
0002a0 61 78 b1 af 2d cb 07 b4 81 80 7e b6 e8 bb e3 b2
       -3.2281647e-10 -1.264677e-07 -3.7923749e-06 -2.6511728e-08
0002b0 0f 1e 83 3b 9c 0a 73 3b 38 6c 4a 39 2b de a3 b4
       0.004001386 0.003708518 0.00019304536 -3.0522764e-07
0002c0 ba d2 c9 3a 2a 5d 42 3b ab 63 85 39 c4 99 4b 3b
       0.0015397884 0.002965758 0.00025441995 0.0031066993
0002d0 39 5a 07 33 f9 e7 21 33 a7 ef 99 3a 7f 82 a3 b4
       3.1514194e-08 3.769671e-08 0.0011744396 -3.0456064e-07
0002e0 03 c7 99 3a db 3c 9b 38 a4 bb 44 32 53 eb 7c 3b
       0.0011732284 7.402311e-05 1.1451366e-08 0.0038592413
0002f0 e9 6f 94 3a 84 8a 95 33 c2 94 5a 3a ab 35 48 3a
       0.0011324856 6.963549e-08 0.00083382067 0.00076373917
000300 26 d8 60 34 22 30 7b 35 10 47 91 34 e4 b5 e2 35
       2.094026e-07 9.357483e-07 2.706006e-07 1.6891249e-06
000310 a3 1b 95 36 e2 97 20 ba dd 72 b4 21 99 35 0f bb
       4.4437634e-06 -0.0006126148 1.2227678e-18 -0.0021852015
000320 a7 f2 39 b9 29 ef 8a ba 7e 30 53 b9 aa 8c 35 ba
       -0.0001773337 -0.001059984 -0.00020140593 -0.00069255626
000330 e4 56 e1 b9 48 d8 9a 36 a6 9a aa 36 62 29 0a bb
       -0.00042980083 4.614736e-06 5.0843983e-06 -0.0021081795
000340 9b 5c 46 bb d6 55 85 bb 2e c7 c7 34 81 6f 13 ba
       -0.00302676 -0.0040690703 3.721156e-07 -0.00056242204
000350 08 eb 2c b9 0a 7f bb 35 64 79 9b 33 66 57 4e b5
       -0.00016490754 1.3969559e-06 7.239831e-08 -7.686816e-07
000360 3d 9c fc 34 e3 f2 89 bb 11 0b c9 ba 11 ca d7 b6
       4.7052336e-07 -0.0042098626 -0.0015338381 -6.431023e-06
000370 26 dd 13 37 d5 1f 65 36 41 cb 4f bb 65 20 c4 a6
       8.813373e-06 3.4142188e-06 -0.0031706842 -1.3609013e-15
000380 ec 7b f0 b8 4f 0d b7 36 f5 3e 0c ba 6a b8 ac ba
       -0.00011467174 5.4553743e-06 -0.00053499575 -0.0013177518
000390 e9 80 aa 36 44 83 bd ba 11 65 c0 ba cb 25 dc 36
       5.081402e-06 -0.0014458676 -0.0014678558 6.5609106e-06
0003a0 51 91 b0 34 fd 1f 06 36 a6 39 af 36 6f 1d 6b 34
       3.2888286e-07 1.9986176e-06 5.2221176e-06 2.1896788e-07
0003b0 33 68 59 bb b3 8a 46 bb 65 78 5c b9 40 f0 17 35
       -0.003317368 -0.0030295074 -0.00021025685 5.6601493e-07
0003c0 c6 45 aa ba 60 5e 22 bb 8a ea 83 b9 2d 50 27 bb
       -0.0012990765 -0.002477549 -0.00025161012 -0.0025529966
0003d0 d8 ed 54 33 89 d0 9a 34 89 84 81 ba 71 47 e9 34
       4.9576414e-08 2.8836465e-07 -0.0009881417 4.3451612e-07
0003e0 77 12 73 ba af f4 ac b8 71 e8 0d 31 c0 f4 4b bb
       -0.0009272466 -8.247175e-05 2.0650328e-09 -0.0031121224
0003f0 31 47 82 ba 1a 47 50 34 35 6f 2e ba b5 ae 32 ba
       -0.000993943 1.9397376e-07 -0.00066541444 -0.00068161945
